…
snapshot_prefix: "vgg16_faster_rcnn"
average_loss: 100
iter_size: 2
I0517 16:01:40.108208  2768 solver.cpp:77] Creating training net from train_net file: models/coco_person/VGG16/faster_rcnn_end2end/train.prototxt
I0517 16:01:40.109303  2768 net.cpp:51] Initializing net from parameters: 
name: "VGG_ILSVRC_16_layers"
state {
  phase: TRAIN
}
layer {
  name: "input-data"
  type: "Python"
  top: "data"
  top: "im_info"
  top: "gt_boxes"
  python_param {
    module: "roi_data_layer.layer"
    layer: "RoIDataLayer"
    param_str: "\'num_classes\': 2"
  }
}
layer {
  name: "conv1_1"
  type: "Convolution"
  bottom: "data"
  top: "conv1_1"
  param {
    lr_mult: 0
    decay_mult: 0
  }
  param {
    lr_mult: 0
    decay_mult: 0
  }
  convolution_param {
    num_output: 64
    pad: 1
    kernel_size: 3
  }
}
layer {
  name: "relu1_1"
  type: "ReLU"
  bottom: "conv1_1"
  top: "conv1_1"
}
layer {
  name: "conv1_2"
  type: "Convolution"
  bottom: "conv1_1"
  top: "conv1_2"
  param {
    lr_mult: 0
    decay_mult: 0
  }
  param {
    lr_mult: 0
    decay_mult: 0
  }
  convolution_param {
    num_output: 64
    pad: 1
    kernel_size: 3
  }
}
layer {
  name: "relu1_2"
  type: "ReLU"
  bottom: "conv1_2"
  top: "conv1_2"
}
layer {
  name: "pool1"
  type: "Pooling"
  bottom: "conv1_2"
  top: "pool1"
  pooling_param {
    pool: MAX
    kernel_size: 2
    stride: 2
  }
}
layer {
  name: "conv2_1"
  type: "Convolution"
  bottom: "pool1"
  top: "conv2_1"
  param {
    lr_mult: 0
    decay_mult: 0
  }
  param {
    lr_mult: 0
    decay_mult: 0
  }
  convolution_param {
    num_output: 128
    pad: 1
    kernel_size: 3
  }
}
layer {
  name: "relu2_1"
  type: "ReLU"
  bottom: "conv2_1"
  top: "conv2_1"
}
layer {
  name: "conv2_2"
  type: "Convolution"
  bottom: "conv2_1"
  top: "conv2_2"
  param {
    lr_mult: 0
    decay_mult: 0
  }
  param {
    lr_mult: 0
    decay_mult: 0
  }
  convolution_param {
    num_output: 128
    pad: 1
    kernel_size: 3
  }
}
layer {
  name: "relu2_2"
  type: "ReLU"
  bottom: "conv2_2"
  top: "conv2_2"
}
layer {
  name: "pool2"
  type: "Pooling"
  bottom: "conv2_2"
  top: "pool2"
  pooling_param {
    pool: MAX
    kernel_size: 2
    stride: 2
  }
}
layer {
  name: "conv3_1"
  type: "Convolution"
  bottom: "pool2"
  top: "conv3_1"
  param {
    lr_mult: 1
  }
  param {
    lr_mult: 2
  }
  convolution_param {
    num_output: 256
    pad: 1
    kernel_size: 3
  }
}
layer {
  name: "relu3_1"
  type: "ReLU"
  bottom: "conv3_1"
  top: "conv3_1"
}
layer {
  name: "conv3_2"
  type: "Convolution"
  bottom: "conv3_1"
  top: "conv3_2"
  param {
    lr_mult: 1
  }
  param {
    lr_mult: 2
  }
  convolution_param {
    num_output: 256
    pad: 1
    kernel_size: 3
  }
}
layer {
  name: "relu3_2"
  type: "ReLU"
  bottom: "conv3_2"
  top: "conv3_2"
}
layer {
  name: "conv3_3"
  type: "Convolution"
  bottom: "conv3_2"
  top: "conv3_3"
  param {
    lr_mult: 1
  }
  param {
    lr_mult: 2
  }
  convolution_param {
    num_output: 256
    pad: 1
    kernel_size: 3
  }
}
layer {
  name: "relu3_3"
  type: "ReLU"
  bottom: "conv3_3"
  top: "conv3_3"
}
layer {
  name: "pool3"
  type: "Pooling"
  bottom: "conv3_3"
  top: "pool3"
  pooling_param {
    pool: MAX
    kernel_size: 2
    stride: 2
  }
}
layer {
  name: "conv4_1"
  type: "Convolution"
  bottom: "pool3"
  top: "conv4_1"
  param {
    lr_mult: 1
  }
  param {
    lr_mult: 2
  }
  convolution_param {
    num_output: 512
    pad: 1
    kernel_size: 3
  }
}
layer {
  name: "relu4_1"
  type: "ReLU"
  bottom: "conv4_1"
  top: "conv4_1"
}
layer {
  name: "conv4_2"
  type: "Convolution"
  bottom: "conv4_1"
  top: "conv4_2"
  param {
    lr_mult: 1
  }
  param {
    lr_mult: 2
  }
  convolution_param {
    num_output: 512
    pad: 1
    kernel_size: 3
  }
}
layer {
  name: "relu4_2"
  type: "ReLU"
  bottom: "conv4_2"
  top: "conv4_2"
}
layer {
  name: "conv4_3"
  type: "Convolution"
  bottom: "conv4_2"
  top: "conv4_3"
  param {
    lr_mult: 1
  }
  param {
    lr_mult: 2
  }
  convolution_param {
    num_output: 512
    pad: 1
    kernel_size: 3
  }
}
layer {
  name: "relu4_3"
  type: "ReLU"
  bottom: "conv4_3"
  top: "conv4_3"
}
layer {
  name: "pool4"
  type: "Pooling"
  bottom: "conv4_3"
  top: "pool4"
  pooling_param {
    pool: MAX
    kernel_size: 2
    stride: 2
  }
}
layer {
  name: "conv5_1"
  type: "Convolution"
  bottom: "pool4"
  top: "conv5_1"
  param {
    lr_mult: 1
  }
  param {
    lr_mult: 2
  }
  convolution_param {
    num_output: 512
    pad: 1
    kernel_size: 3
  }
}
layer {
  name: "relu5_1"
  type: "ReLU"
  bottom: "conv5_1"
  top: "conv5_1"
}
layer {
  name: "conv5_2"
  type: "Convolution"
  bottom: "conv5_1"
  top: "conv5_2"
  param {
    lr_mult: 1
  }
  param {
    lr_mult: 2
  }
  convolution_param {
    num_output: 512
    pad: 1
    kernel_size: 3
  }
}
layer {
  name: "relu5_2"
  type: "ReLU"
  bottom: "conv5_2"
  top: "conv5_2"
}
layer {
  name: "conv5_3"
  type: "Convolution"
  bottom: "conv5_2"
  top: "conv5_3"
  param {
    lr_mult: 1
  }
  param {
    lr_mult: 2
  }
  convolution_param {
    num_output: 512
    pad: 1
    kernel_size: 3
  }
}
layer {
  name: "relu5_3"
  type: "ReLU"
  bottom: "conv5_3"
  top: "conv5_3"
}
layer {
  name: "rpn_conv/3x3"
  type: "Convolution"
  bottom: "conv5_3"
  top: "rpn/output"
  param {
    lr_mult: 1
  }
  param {
    lr_mult: 2
  }
  convolution_param {
    num_output: 512
    pad: 1
    kernel_size: 3
    stride: 1
    weight_filler {
      type: "gaussian"
      std: 0.01
    }
    bias_filler {
      type: "constant"
      value: 0
    }
  }
}
layer {
  name: "rpn_relu/3x3"
  type: "ReLU"
  bottom: "rpn/output"
  top: "rpn/output"
}
layer {
  name: "rpn_cls_score"
  type: "Convolution"
  bottom: "rpn/output"
  top: "rpn_cls_score"
  param {
    lr_mult: 1
  }
  param {
    lr_mult: 2
  }
  convolution_param {
    num_output: 24
    pad: 0
    kernel_size: 1
    stride: 1
    weight_filler {
      type: "gaussian"
      std: 0.01
    }
    bias_filler {
      type: "constant"
      value: 0
    }
  }
}
layer {
  name: "rpn_bbox_pred"
  type: "Convolution"
  bottom: "rpn/output"
  top: "rpn_bbox_pred"
  param {
    lr_mult: 1
  }
  param {
    lr_mult: 2
  }
  convolution_param {
    num_output: 48
    pad: 0
    kernel_size: 1
    stride: 1
    weight_filler {
      type: "gaussian"
      std: 0.01
    }
    bias_filler {
      type: "constant"
      value: 0
    }
  }
}
layer {
  name: "rpn_cls_score_reshape"
  type: "Reshape"
  bottom: "rpn_cls_score"
  top: "rpn_cls_score_reshape"
  reshape_param {
    shape {
      dim: 0
      dim: 2
      dim: -1
      dim: 0
    }
  }
}
layer {
  name: "rpn-data"
  type: "Python"
  bottom: "rpn_cls_score"
  bottom: "gt_boxes"
  bottom: "im_info"
  bottom: "data"
  top: "rpn_labels"
  top: "rpn_bbox_targets"
  top: "rpn_bbox_inside_weights"
  top: "rpn_bbox_outside_weights"
  python_param {
    module: "rpn.anchor_target_layer"
    layer: "AnchorTargetLayer"
    param_str: "\'feat_stride\': 16 \n\'scales\': !!python/tuple [4, 8, 16, 32]"
  }
}
layer {
  name: "rpn_loss_cls"
  type: "SoftmaxWithLoss"
  bottom: "rpn_cls_score_reshape"
  bottom: "rpn_labels"
  top: "rpn_cls_loss"
  loss_weight: 1
  propagate_down: true
  propagate_down: false
  loss_param {
    ignore_label: -1
    normalize: true
  }
}
layer {
  name: "rpn_loss_bbox"
  type: "SmoothL1Loss"
  bottom: "rpn_bbox_pred"
  bottom: "rpn_bbox_targets"
  bottom: "rpn_bbox_inside_weights"
  bottom: "rpn_bbox_outside_weights"
  top: "rpn_loss_bbox"
  loss_weight: 1
  smooth_l1_loss_param {
    sigma: 3
  }
}
layer {
  name: "rpn_cls_prob"
  type: "Softmax"
  bottom: "rpn_cls_score_reshape"
  top: "rpn_cls_prob"
}
layer {
  name: "rpn_cls_prob_reshape"
  type: "Reshape"
  bottom: "rpn_cls_prob"
  top: "rpn_cls_prob_reshape"
  reshape_param {
    shape {
      dim: 0
      dim: 24
      dim: -1
      dim: 0
    }
  }
}
layer {
  name: "proposal"
  type: "Python"
  bottom: "rpn_cls_prob_reshape"
  bottom: "rpn_bbox_pred"
  bottom: "im_info"
  top: "rpn_rois"
  python_param {
    module: "rpn.proposal_layer"
    layer: "ProposalLayer"
    param_str: "\'feat_stride\': 16 \n\'scales\': !!python/tuple [4, 8, 16, 32]"
  }
}
layer {
  name: "roi-data"
  type: "Python"
  bottom: "rpn_rois"
  bottom: "gt_boxes"
  top: "rois"
  top: "labels"
  top: "bbox_targets"
  top: "bbox_inside_weights"
  top: "bbox_outside_weights"
  python_param {
    module: "rpn.proposal_target_layer"
    layer: "ProposalTargetLayer"
    param_str: "\'num_classes\': 2"
  }
}
layer {
  name: "roi_pool5"
  type: "ROIPooling"
  bottom: "conv5_3"
  bottom: "rois"
  top: "pool5"
  roi_pooling_param {
    pooled_h: 7
    pooled_w: 7
    spatial_scale: 0.0625
  }
}
layer {
  name: "fc6"
  type: "InnerProduct"
  bottom: "pool5"
  top: "fc6"
  param {
    lr_mult: 1
  }
  param {
    lr_mult: 2
  }
  inner_product_param {
    num_output: 4096
  }
}
layer {
  name: "relu6"
  type: "ReLU"
  bottom: "fc6"
  top: "fc6"
}
layer {
  name: "fc7"
  type: "InnerProduct"
  bottom: "fc6"
  top: "fc7"
  param {
    lr_mult: 1
  }
  param {
    lr_mult: 2
  }
  inner_product_param {
    num_output: 4096
  }
}
layer {
  name: "relu7"
  type: "ReLU"
  bottom: "fc7"
  top: "fc7"
}
layer {
  name: "cls_score"
  type: "InnerProduct"
  bottom: "fc7"
  top: "cls_score"
  param {
    lr_mult: 1
  }
  param {
    lr_mult: 2
  }
  inner_product_param {
    num_output: 2
    weight_filler {
      type: "gaussian"
      std: 0.01
    }
    bias_filler {
      type: "constant"
      value: 0
    }
  }
}
layer {
  name: "bbox_pred"
  type: "InnerProduct"
  bottom: "fc7"
  top: "bbox_pred"
  param {
    lr_mult: 1
  }
  param {
    lr_mult: 2
  }
  inner_product_param {
    num_output: 8
    weight_filler {
      type: "gaussian"
      std: 0.001
    }
    bias_filler {
      type: "constant"
      value: 0
    }
  }
}
layer {
  name: "loss_cls"
  type: "SoftmaxWithLoss"
  bottom: "cls_score"
  bottom: "labels"
  top: "loss_cls"
  loss_weight: 1
  propagate_down: true
  propagate_down: false
}
layer {
  name: "loss_bbox"
  type: "SmoothL1Loss"
  bottom: "bbox_pred"
  bottom: "bbox_targets"
  bottom: "bbox_inside_weights"
  bottom: "bbox_outside_weights"
  top: "loss_bbox"
  loss_weight: 1
}
I0517 16:01:40.109585  2768 layer_factory.hpp:77] Creating layer input-data
I0517 16:01:40.164021  2768 net.cpp:84] Creating Layer input-data
I0517 16:01:40.164048  2768 net.cpp:380] input-data -> data
I0517 16:01:40.164062  2768 net.cpp:380] input-data -> im_info
I0517 16:01:40.164070  2768 net.cpp:380] input-data -> gt_boxes
RoiDataLayer: name_to_top: {'gt_boxes': 2, 'data': 0, 'im_info': 1}
I0517 16:01:49.473350  2768 net.cpp:122] Setting up input-data
I0517 16:01:49.473392  2768 net.cpp:129] Top shape: 1 3 600 1000 (1800000)
I0517 16:01:49.473409  2768 net.cpp:129] Top shape: 1 3 (3)
I0517 16:01:49.473423  2768 net.cpp:129] Top shape: 1 4 (4)
I0517 16:01:49.473436  2768 net.cpp:137] Memory required for data: 7200028
I0517 16:01:49.473453  2768 layer_factory.hpp:77] Creating layer data_input-data_0_split
I0517 16:01:49.473485  2768 net.cpp:84] Creating Layer data_input-data_0_split
I0517 16:01:49.473503  2768 net.cpp:406] data_input-data_0_split <- data
I0517 16:01:49.473520  2768 net.cpp:380] data_input-data_0_split -> data_input-data_0_split_0
I0517 16:01:49.473546  2768 net.cpp:380] data_input-data_0_split -> data_input-data_0_split_1
I0517 16:01:49.473628  2768 net.cpp:122] Setting up data_input-data_0_split
I0517 16:01:49.473640  2768 net.cpp:129] Top shape: 1 3 600 1000 (1800000)
I0517 16:01:49.473647  2768 net.cpp:129] Top shape: 1 3 600 1000 (1800000)
I0517 16:01:49.473654  2768 net.cpp:137] Memory required for data: 21600028
I0517 16:01:49.473660  2768 layer_factory.hpp:77] Creating layer im_info_input-data_1_split
I0517 16:01:49.473670  2768 net.cpp:84] Creating Layer im_info_input-data_1_split
I0517 16:01:49.473677  2768 net.cpp:406] im_info_input-data_1_split <- im_info
I0517 16:01:49.473686  2768 net.cpp:380] im_info_input-data_1_split -> im_info_input-data_1_split_0
I0517 16:01:49.473696  2768 net.cpp:380] im_info_input-data_1_split -> im_info_input-data_1_split_1
I0517 16:01:49.473753  2768 net.cpp:122] Setting up im_info_input-data_1_split
I0517 16:01:49.473779  2768 net.cpp:129] Top shape: 1 3 (3)
I0517 16:01:49.473799  2768 net.cpp:129] Top shape: 1 3 (3)
I0517 16:01:49.473816  2768 net.cpp:137] Memory required for data: 21600052
I0517 16:01:49.473831  2768 layer_factory.hpp:77] Creating layer gt_boxes_input-data_2_split
I0517 16:01:49.473856  2768 net.cpp:84] Creating Layer gt_boxes_input-data_2_split
I0517 16:01:49.473875  2768 net.cpp:406] gt_boxes_input-data_2_split <- gt_boxes
I0517 16:01:49.473893  2768 net.cpp:380] gt_boxes_input-data_2_split -> gt_boxes_input-data_2_split_0
I0517 16:01:49.473915  2768 net.cpp:380] gt_boxes_input-data_2_split -> gt_boxes_input-data_2_split_1
I0517 16:01:49.473989  2768 net.cpp:122] Setting up gt_boxes_input-data_2_split
I0517 16:01:49.474000  2768 net.cpp:129] Top shape: 1 4 (4)
I0517 16:01:49.474007  2768 net.cpp:129] Top shape: 1 4 (4)
I0517 16:01:49.474023  2768 net.cpp:137] Memory required for data: 21600084
I0517 16:01:49.474040  2768 layer_factory.hpp:77] Creating layer conv1_1
I0517 16:01:49.474066  2768 net.cpp:84] Creating Layer conv1_1
I0517 16:01:49.474086  2768 net.cpp:406] conv1_1 <- data_input-data_0_split_0
I0517 16:01:49.474107  2768 net.cpp:380] conv1_1 -> conv1_1
I0517 16:01:51.866127  2768 net.cpp:122] Setting up conv1_1
I0517 16:01:51.866155  2768 net.cpp:129] Top shape: 1 64 600 1000 (38400000)
I0517 16:01:51.866160  2768 net.cpp:137] Memory required for data: 175200084
I0517 16:01:51.866180  2768 layer_factory.hpp:77] Creating layer relu1_1
I0517 16:01:51.866196  2768 net.cpp:84] Creating Layer relu1_1
I0517 16:01:51.866204  2768 net.cpp:406] relu1_1 <- conv1_1
I0517 16:01:51.866214  2768 net.cpp:367] relu1_1 -> conv1_1 (in-place)
I0517 16:01:51.866670  2768 net.cpp:122] Setting up relu1_1
I0517 16:01:51.866684  2768 net.cpp:129] Top shape: 1 64 600 1000 (38400000)
I0517 16:01:51.866689  2768 net.cpp:137] Memory required for data: 328800084
I0517 16:01:51.866694  2768 layer_factory.hpp:77] Creating layer conv1_2
I0517 16:01:51.866720  2768 net.cpp:84] Creating Layer conv1_2
I0517 16:01:51.866740  2768 net.cpp:406] conv1_2 <- conv1_1
I0517 16:01:51.866762  2768 net.cpp:380] conv1_2 -> conv1_2
I0517 16:01:51.869448  2768 net.cpp:122] Setting up conv1_2
I0517 16:01:51.869463  2768 net.cpp:129] Top shape: 1 64 600 1000 (38400000)
I0517 16:01:51.869469  2768 net.cpp:137] Memory required for data: 482400084
I0517 16:01:51.869480  2768 layer_factory.hpp:77] Creating layer relu1_2
I0517 16:01:51.869506  2768 net.cpp:84] Creating Layer relu1_2
I0517 16:01:51.869524  2768 net.cpp:406] relu1_2 <- conv1_2
I0517 16:01:51.869544  2768 net.cpp:367] relu1_2 -> conv1_2 (in-place)
I0517 16:01:51.869971  2768 net.cpp:122] Setting up relu1_2
I0517 16:01:51.869985  2768 net.cpp:129] Top shape: 1 64 600 1000 (38400000)
I0517 16:01:51.869990  2768 net.cpp:137] Memory required for data: 636000084
I0517 16:01:51.869995  2768 layer_factory.hpp:77] Creating layer pool1
I0517 16:01:51.870023  2768 net.cpp:84] Creating Layer pool1
I0517 16:01:51.870043  2768 net.cpp:406] pool1 <- conv1_2
I0517 16:01:51.870062  2768 net.cpp:380] pool1 -> pool1
I0517 16:01:51.870148  2768 net.cpp:122] Setting up pool1
I0517 16:01:51.870162  2768 net.cpp:129] Top shape: 1 64 300 500 (9600000)
I0517 16:01:51.870165  2768 net.cpp:137] Memory required for data: 674400084
I0517 16:01:51.870170  2768 layer_factory.hpp:77] Creating layer conv2_1
I0517 16:01:51.870194  2768 net.cpp:84] Creating Layer conv2_1
I0517 16:01:51.870213  2768 net.cpp:406] conv2_1 <- pool1
I0517 16:01:51.870235  2768 net.cpp:380] conv2_1 -> conv2_1
I0517 16:01:51.872354  2768 net.cpp:122] Setting up conv2_1
I0517 16:01:51.872369  2768 net.cpp:129] Top shape: 1 128 300 500 (19200000)
I0517 16:01:51.872373  2768 net.cpp:137] Memory required for data: 751200084
I0517 16:01:51.872385  2768 layer_factory.hpp:77] Creating layer relu2_1
I0517 16:01:51.872407  2768 net.cpp:84] Creating Layer relu2_1
I0517 16:01:51.872433  2768 net.cpp:406] relu2_1 <- conv2_1
I0517 16:01:51.872457  2768 net.cpp:367] relu2_1 -> conv2_1 (in-place)
I0517 16:01:51.872630  2768 net.cpp:122] Setting up relu2_1
I0517 16:01:51.872643  2768 net.cpp:129] Top shape: 1 128 300 500 (19200000)
I0517 16:01:51.872648  2768 net.cpp:137] Memory required for data: 828000084
I0517 16:01:51.872653  2768 layer_factory.hpp:77] Creating layer conv2_2
I0517 16:01:51.872664  2768 net.cpp:84] Creating Layer conv2_2
I0517 16:01:51.872689  2768 net.cpp:406] conv2_2 <- conv2_1
I0517 16:01:51.872712  2768 net.cpp:380] conv2_2 -> conv2_2
I0517 16:01:51.874128  2768 net.cpp:122] Setting up conv2_2
I0517 16:01:51.874145  2768 net.cpp:129] Top shape: 1 128 300 500 (19200000)
I0517 16:01:51.874150  2768 net.cpp:137] Memory required for data: 904800084
I0517 16:01:51.874172  2768 layer_factory.hpp:77] Creating layer relu2_2
I0517 16:01:51.874194  2768 net.cpp:84] Creating Layer relu2_2
I0517 16:01:51.874212  2768 net.cpp:406] relu2_2 <- conv2_2
I0517 16:01:51.874233  2768 net.cpp:367] relu2_2 -> conv2_2 (in-place)
I0517 16:01:51.874409  2768 net.cpp:122] Setting up relu2_2
I0517 16:01:51.874423  2768 net.cpp:129] Top shape: 1 128 300 500 (19200000)
I0517 16:01:51.874428  2768 net.cpp:137] Memory required for data: 981600084
I0517 16:01:51.874433  2768 layer_factory.hpp:77] Creating layer pool2
I0517 16:01:51.874439  2768 net.cpp:84] Creating Layer pool2
I0517 16:01:51.874457  2768 net.cpp:406] pool2 <- conv2_2
I0517 16:01:51.874478  2768 net.cpp:380] pool2 -> pool2
I0517 16:01:51.874559  2768 net.cpp:122] Setting up pool2
I0517 16:01:51.874572  2768 net.cpp:129] Top shape: 1 128 150 250 (4800000)
I0517 16:01:51.874577  2768 net.cpp:137] Memory required for data: 1000800084
I0517 16:01:51.874583  2768 layer_factory.hpp:77] Creating layer conv3_1
I0517 16:01:51.874604  2768 net.cpp:84] Creating Layer conv3_1
I0517 16:01:51.874622  2768 net.cpp:406] conv3_1 <- pool2
I0517 16:01:51.874644  2768 net.cpp:380] conv3_1 -> conv3_1
I0517 16:01:51.876837  2768 net.cpp:122] Setting up conv3_1
I0517 16:01:51.876852  2768 net.cpp:129] Top shape: 1 256 150 250 (9600000)
I0517 16:01:51.876857  2768 net.cpp:137] Memory required for data: 1039200084
I0517 16:01:51.876869  2768 layer_factory.hpp:77] Creating layer relu3_1
I0517 16:01:51.876894  2768 net.cpp:84] Creating Layer relu3_1
I0517 16:01:51.876914  2768 net.cpp:406] relu3_1 <- conv3_1
I0517 16:01:51.876931  2768 net.cpp:367] relu3_1 -> conv3_1 (in-place)
I0517 16:01:51.877111  2768 net.cpp:122] Setting up relu3_1
I0517 16:01:51.877125  2768 net.cpp:129] Top shape: 1 256 150 250 (9600000)
I0517 16:01:51.877131  2768 net.cpp:137] Memory required for data: 1077600084
I0517 16:01:51.877136  2768 layer_factory.hpp:77] Creating layer conv3_2
I0517 16:01:51.877161  2768 net.cpp:84] Creating Layer conv3_2
I0517 16:01:51.877182  2768 net.cpp:406] conv3_2 <- conv3_1
I0517 16:01:51.877202  2768 net.cpp:380] conv3_2 -> conv3_2
I0517 16:01:51.880205  2768 net.cpp:122] Setting up conv3_2
I0517 16:01:51.880223  2768 net.cpp:129] Top shape: 1 256 150 250 (9600000)
I0517 16:01:51.880229  2768 net.cpp:137] Memory required for data: 1116000084
I0517 16:01:51.880239  2768 layer_factory.hpp:77] Creating layer relu3_2
I0517 16:01:51.880260  2768 net.cpp:84] Creating Layer relu3_2
I0517 16:01:51.880278  2768 net.cpp:406] relu3_2 <- conv3_2
I0517 16:01:51.880298  2768 net.cpp:367] relu3_2 -> conv3_2 (in-place)
I0517 16:01:51.880477  2768 net.cpp:122] Setting up relu3_2
I0517 16:01:51.880491  2768 net.cpp:129] Top shape: 1 256 150 250 (9600000)
I0517 16:01:51.880496  2768 net.cpp:137] Memory required for data: 1154400084
I0517 16:01:51.880501  2768 layer_factory.hpp:77] Creating layer conv3_3
I0517 16:01:51.880511  2768 net.cpp:84] Creating Layer conv3_3
I0517 16:01:51.880532  2768 net.cpp:406] conv3_3 <- conv3_2
I0517 16:01:51.880550  2768 net.cpp:380] conv3_3 -> conv3_3
I0517 16:01:51.884522  2768 net.cpp:122] Setting up conv3_3
I0517 16:01:51.884562  2768 net.cpp:129] Top shape: 1 256 150 250 (9600000)
I0517 16:01:51.884580  2768 net.cpp:137] Memory required for data: 1192800084
I0517 16:01:51.884608  2768 layer_factory.hpp:77] Creating layer relu3_3
I0517 16:01:51.884627  2768 net.cpp:84] Creating Layer relu3_3
I0517 16:01:51.884647  2768 net.cpp:406] relu3_3 <- conv3_3
I0517 16:01:51.884666  2768 net.cpp:367] relu3_3 -> conv3_3 (in-place)
I0517 16:01:51.885267  2768 net.cpp:122] Setting up relu3_3
I0517 16:01:51.885301  2768 net.cpp:129] Top shape: 1 256 150 250 (9600000)
I0517 16:01:51.885319  2768 net.cpp:137] Memory required for data: 1231200084
I0517 16:01:51.885340  2768 layer_factory.hpp:77] Creating layer pool3
I0517 16:01:51.885360  2768 net.cpp:84] Creating Layer pool3
I0517 16:01:51.885378  2768 net.cpp:406] pool3 <- conv3_3
I0517 16:01:51.885401  2768 net.cpp:380] pool3 -> pool3
I0517 16:01:51.885491  2768 net.cpp:122] Setting up pool3
I0517 16:01:51.885516  2768 net.cpp:129] Top shape: 1 256 75 125 (2400000)
I0517 16:01:51.885532  2768 net.cpp:137] Memory required for data: 1240800084
I0517 16:01:51.885548  2768 layer_factory.hpp:77] Creating layer conv4_1
I0517 16:01:51.885571  2768 net.cpp:84] Creating Layer conv4_1
I0517 16:01:51.885588  2768 net.cpp:406] conv4_1 <- pool3
I0517 16:01:51.885608  2768 net.cpp:380] conv4_1 -> conv4_1
I0517 16:01:51.891826  2768 net.cpp:122] Setting up conv4_1
I0517 16:01:51.891932  2768 net.cpp:129] Top shape: 1 512 75 125 (4800000)
I0517 16:01:51.891995  2768 net.cpp:137] Memory required for data: 1260000084
I0517 16:01:51.892063  2768 layer_factory.hpp:77] Creating layer relu4_1
I0517 16:01:51.892128  2768 net.cpp:84] Creating Layer relu4_1
I0517 16:01:51.892184  2768 net.cpp:406] relu4_1 <- conv4_1
I0517 16:01:51.892242  2768 net.cpp:367] relu4_1 -> conv4_1 (in-place)
I0517 16:01:51.892880  2768 net.cpp:122] Setting up relu4_1
I0517 16:01:51.892961  2768 net.cpp:129] Top shape: 1 512 75 125 (4800000)
I0517 16:01:51.893018  2768 net.cpp:137] Memory required for data: 1279200084
I0517 16:01:51.893069  2768 layer_factory.hpp:77] Creating layer conv4_2
I0517 16:01:51.893131  2768 net.cpp:84] Creating Layer conv4_2
I0517 16:01:51.893191  2768 net.cpp:406] conv4_2 <- conv4_1
I0517 16:01:51.893204  2768 net.cpp:380] conv4_2 -> conv4_2
I0517 16:01:51.898051  2768 net.cpp:122] Setting up conv4_2
I0517 16:01:51.898069  2768 net.cpp:129] Top shape: 1 512 75 125 (4800000)
I0517 16:01:51.898075  2768 net.cpp:137] Memory required for data: 1298400084
I0517 16:01:51.898092  2768 layer_factory.hpp:77] Creating layer relu4_2
I0517 16:01:51.898116  2768 net.cpp:84] Creating Layer relu4_2
I0517 16:01:51.898134  2768 net.cpp:406] relu4_2 <- conv4_2
I0517 16:01:51.898152  2768 net.cpp:367] relu4_2 -> conv4_2 (in-place)
I0517 16:01:51.898337  2768 net.cpp:122] Setting up relu4_2
I0517 16:01:51.898350  2768 net.cpp:129] Top shape: 1 512 75 125 (4800000)
I0517 16:01:51.898355  2768 net.cpp:137] Memory required for data: 1317600084
I0517 16:01:51.898360  2768 layer_factory.hpp:77] Creating layer conv4_3
I0517 16:01:51.898371  2768 net.cpp:84] Creating Layer conv4_3
I0517 16:01:51.898391  2768 net.cpp:406] conv4_3 <- conv4_2
I0517 16:01:51.898413  2768 net.cpp:380] conv4_3 -> conv4_3
I0517 16:01:51.903023  2768 net.cpp:122] Setting up conv4_3
I0517 16:01:51.903043  2768 net.cpp:129] Top shape: 1 512 75 125 (4800000)
I0517 16:01:51.903048  2768 net.cpp:137] Memory required for data: 1336800084
I0517 16:01:51.903059  2768 layer_factory.hpp:77] Creating layer relu4_3
I0517 16:01:51.903081  2768 net.cpp:84] Creating Layer relu4_3
I0517 16:01:51.903100  2768 net.cpp:406] relu4_3 <- conv4_3
I0517 16:01:51.903117  2768 net.cpp:367] relu4_3 -> conv4_3 (in-place)
I0517 16:01:51.903306  2768 net.cpp:122] Setting up relu4_3
I0517 16:01:51.903319  2768 net.cpp:129] Top shape: 1 512 75 125 (4800000)
I0517 16:01:51.903324  2768 net.cpp:137] Memory required for data: 1356000084
I0517 16:01:51.903329  2768 layer_factory.hpp:77] Creating layer pool4
I0517 16:01:51.903352  2768 net.cpp:84] Creating Layer pool4
I0517 16:01:51.903372  2768 net.cpp:406] pool4 <- conv4_3
I0517 16:01:51.903390  2768 net.cpp:380] pool4 -> pool4
I0517 16:01:51.903482  2768 net.cpp:122] Setting up pool4
I0517 16:01:51.903494  2768 net.cpp:129] Top shape: 1 512 38 63 (1225728)
I0517 16:01:51.903499  2768 net.cpp:137] Memory required for data: 1360902996
I0517 16:01:51.903503  2768 layer_factory.hpp:77] Creating layer conv5_1
I0517 16:01:51.903514  2768 net.cpp:84] Creating Layer conv5_1
I0517 16:01:51.903532  2768 net.cpp:406] conv5_1 <- pool4
I0517 16:01:51.903553  2768 net.cpp:380] conv5_1 -> conv5_1
I0517 16:01:51.908193  2768 net.cpp:122] Setting up conv5_1
I0517 16:01:51.908211  2768 net.cpp:129] Top shape: 1 512 38 63 (1225728)
I0517 16:01:51.908216  2768 net.cpp:137] Memory required for data: 1365805908
I0517 16:01:51.908226  2768 layer_factory.hpp:77] Creating layer relu5_1
I0517 16:01:51.908233  2768 net.cpp:84] Creating Layer relu5_1
I0517 16:01:51.908253  2768 net.cpp:406] relu5_1 <- conv5_1
I0517 16:01:51.908274  2768 net.cpp:367] relu5_1 -> conv5_1 (in-place)
I0517 16:01:51.908468  2768 net.cpp:122] Setting up relu5_1
I0517 16:01:51.908480  2768 net.cpp:129] Top shape: 1 512 38 63 (1225728)
I0517 16:01:51.908485  2768 net.cpp:137] Memory required for data: 1370708820
I0517 16:01:51.908490  2768 layer_factory.hpp:77] Creating layer conv5_2
I0517 16:01:51.908501  2768 net.cpp:84] Creating Layer conv5_2
I0517 16:01:51.908520  2768 net.cpp:406] conv5_2 <- conv5_1
I0517 16:01:51.908542  2768 net.cpp:380] conv5_2 -> conv5_2
I0517 16:01:51.916857  2768 net.cpp:122] Setting up conv5_2
I0517 16:01:51.916908  2768 net.cpp:129] Top shape: 1 512 38 63 (1225728)
I0517 16:01:51.916924  2768 net.cpp:137] Memory required for data: 1375611732
I0517 16:01:51.916945  2768 layer_factory.hpp:77] Creating layer relu5_2
I0517 16:01:51.916966  2768 net.cpp:84] Creating Layer relu5_2
I0517 16:01:51.916985  2768 net.cpp:406] relu5_2 <- conv5_2
I0517 16:01:51.917006  2768 net.cpp:367] relu5_2 -> conv5_2 (in-place)
I0517 16:01:51.917248  2768 net.cpp:122] Setting up relu5_2
I0517 16:01:51.917275  2768 net.cpp:129] Top shape: 1 512 38 63 (1225728)
I0517 16:01:51.917294  2768 net.cpp:137] Memory required for data: 1380514644
I0517 16:01:51.917309  2768 layer_factory.hpp:77] Creating layer conv5_3
I0517 16:01:51.917340  2768 net.cpp:84] Creating Layer conv5_3
I0517 16:01:51.917359  2768 net.cpp:406] conv5_3 <- conv5_2
I0517 16:01:51.917382  2768 net.cpp:380] conv5_3 -> conv5_3
I0517 16:01:51.925730  2768 net.cpp:122] Setting up conv5_3
I0517 16:01:51.925801  2768 net.cpp:129] Top shape: 1 512 38 63 (1225728)
I0517 16:01:51.925819  2768 net.cpp:137] Memory required for data: 1385417556
I0517 16:01:51.925843  2768 layer_factory.hpp:77] Creating layer relu5_3
I0517 16:01:51.925868  2768 net.cpp:84] Creating Layer relu5_3
I0517 16:01:51.925884  2768 net.cpp:406] relu5_3 <- conv5_3
I0517 16:01:51.925904  2768 net.cpp:367] relu5_3 -> conv5_3 (in-place)
I0517 16:01:51.926662  2768 net.cpp:122] Setting up relu5_3
I0517 16:01:51.926695  2768 net.cpp:129] Top shape: 1 512 38 63 (1225728)
I0517 16:01:51.926714  2768 net.cpp:137] Memory required for data: 1390320468
I0517 16:01:51.926730  2768 layer_factory.hpp:77] Creating layer conv5_3_relu5_3_0_split
I0517 16:01:51.926750  2768 net.cpp:84] Creating Layer conv5_3_relu5_3_0_split
I0517 16:01:51.926767  2768 net.cpp:406] conv5_3_relu5_3_0_split <- conv5_3
I0517 16:01:51.926787  2768 net.cpp:380] conv5_3_relu5_3_0_split -> conv5_3_relu5_3_0_split_0
I0517 16:01:51.926808  2768 net.cpp:380] conv5_3_relu5_3_0_split -> conv5_3_relu5_3_0_split_1
I0517 16:01:51.926914  2768 net.cpp:122] Setting up conv5_3_relu5_3_0_split
I0517 16:01:51.926940  2768 net.cpp:129] Top shape: 1 512 38 63 (1225728)
I0517 16:01:51.926959  2768 net.cpp:129] Top shape: 1 512 38 63 (1225728)
I0517 16:01:51.926973  2768 net.cpp:137] Memory required for data: 1400126292
I0517 16:01:51.926990  2768 layer_factory.hpp:77] Creating layer rpn_conv/3x3
I0517 16:01:51.927018  2768 net.cpp:84] Creating Layer rpn_conv/3x3
I0517 16:01:51.927038  2768 net.cpp:406] rpn_conv/3x3 <- conv5_3_relu5_3_0_split_0
I0517 16:01:51.927063  2768 net.cpp:380] rpn_conv/3x3 -> rpn/output
I0517 16:01:52.010506  2768 net.cpp:122] Setting up rpn_conv/3x3
I0517 16:01:52.010591  2768 net.cpp:129] Top shape: 1 512 38 63 (1225728)
I0517 16:01:52.010612  2768 net.cpp:137] Memory required for data: 1405029204
I0517 16:01:52.010633  2768 layer_factory.hpp:77] Creating layer rpn_relu/3x3
I0517 16:01:52.010656  2768 net.cpp:84] Creating Layer rpn_relu/3x3
I0517 16:01:52.010673  2768 net.cpp:406] rpn_relu/3x3 <- rpn/output
I0517 16:01:52.010692  2768 net.cpp:367] rpn_relu/3x3 -> rpn/output (in-place)
I0517 16:01:52.011510  2768 net.cpp:122] Setting up rpn_relu/3x3
I0517 16:01:52.011565  2768 net.cpp:129] Top shape: 1 512 38 63 (1225728)
I0517 16:01:52.011586  2768 net.cpp:137] Memory required for data: 1409932116
I0517 16:01:52.011605  2768 layer_factory.hpp:77] Creating layer rpn/output_rpn_relu/3x3_0_split
I0517 16:01:52.011628  2768 net.cpp:84] Creating Layer rpn/output_rpn_relu/3x3_0_split
I0517 16:01:52.011647  2768 net.cpp:406] rpn/output_rpn_relu/3x3_0_split <- rpn/output
I0517 16:01:52.011667  2768 net.cpp:380] rpn/output_rpn_relu/3x3_0_split -> rpn/output_rpn_relu/3x3_0_split_0
I0517 16:01:52.011687  2768 net.cpp:380] rpn/output_rpn_relu/3x3_0_split -> rpn/output_rpn_relu/3x3_0_split_1
I0517 16:01:52.011776  2768 net.cpp:122] Setting up rpn/output_rpn_relu/3x3_0_split
I0517 16:01:52.011801  2768 net.cpp:129] Top shape: 1 512 38 63 (1225728)
I0517 16:01:52.011818  2768 net.cpp:129] Top shape: 1 512 38 63 (1225728)
I0517 16:01:52.011834  2768 net.cpp:137] Memory required for data: 1419737940
I0517 16:01:52.011849  2768 layer_factory.hpp:77] Creating layer rpn_cls_score
I0517 16:01:52.011878  2768 net.cpp:84] Creating Layer rpn_cls_score
I0517 16:01:52.011899  2768 net.cpp:406] rpn_cls_score <- rpn/output_rpn_relu/3x3_0_split_0
I0517 16:01:52.011921  2768 net.cpp:380] rpn_cls_score -> rpn_cls_score
I0517 16:01:52.014617  2768 net.cpp:122] Setting up rpn_cls_score
I0517 16:01:52.014652  2768 net.cpp:129] Top shape: 1 24 38 63 (57456)
I0517 16:01:52.014673  2768 net.cpp:137] Memory required for data: 1419967764
I0517 16:01:52.014695  2768 layer_factory.hpp:77] Creating layer rpn_cls_score_rpn_cls_score_0_split
I0517 16:01:52.014716  2768 net.cpp:84] Creating Layer rpn_cls_score_rpn_cls_score_0_split
I0517 16:01:52.014734  2768 net.cpp:406] rpn_cls_score_rpn_cls_score_0_split <- rpn_cls_score
I0517 16:01:52.014756  2768 net.cpp:380] rpn_cls_score_rpn_cls_score_0_split -> rpn_cls_score_rpn_cls_score_0_split_0
I0517 16:01:52.014786  2768 net.cpp:380] rpn_cls_score_rpn_cls_score_0_split -> rpn_cls_score_rpn_cls_score_0_split_1
I0517 16:01:52.014889  2768 net.cpp:122] Setting up rpn_cls_score_rpn_cls_score_0_split
I0517 16:01:52.014919  2768 net.cpp:129] Top shape: 1 24 38 63 (57456)
I0517 16:01:52.014940  2768 net.cpp:129] Top shape: 1 24 38 63 (57456)
I0517 16:01:52.014956  2768 net.cpp:137] Memory required for data: 1420427412
I0517 16:01:52.014974  2768 layer_factory.hpp:77] Creating layer rpn_bbox_pred
I0517 16:01:52.015000  2768 net.cpp:84] Creating Layer rpn_bbox_pred
I0517 16:01:52.015022  2768 net.cpp:406] rpn_bbox_pred <- rpn/output_rpn_relu/3x3_0_split_1
I0517 16:01:52.015045  2768 net.cpp:380] rpn_bbox_pred -> rpn_bbox_pred
I0517 16:01:52.017252  2768 net.cpp:122] Setting up rpn_bbox_pred
I0517 16:01:52.017289  2768 net.cpp:129] Top shape: 1 48 38 63 (114912)
I0517 16:01:52.017310  2768 net.cpp:137] Memory required for data: 1420887060
I0517 16:01:52.017331  2768 layer_factory.hpp:77] Creating layer rpn_bbox_pred_rpn_bbox_pred_0_split
I0517 16:01:52.017356  2768 net.cpp:84] Creating Layer rpn_bbox_pred_rpn_bbox_pred_0_split
I0517 16:01:52.017374  2768 net.cpp:406] rpn_bbox_pred_rpn_bbox_pred_0_split <- rpn_bbox_pred
I0517 16:01:52.017396  2768 net.cpp:380] rpn_bbox_pred_rpn_bbox_pred_0_split -> rpn_bbox_pred_rpn_bbox_pred_0_split_0
I0517 16:01:52.017419  2768 net.cpp:380] rpn_bbox_pred_rpn_bbox_pred_0_split -> rpn_bbox_pred_rpn_bbox_pred_0_split_1
I0517 16:01:52.017521  2768 net.cpp:122] Setting up rpn_bbox_pred_rpn_bbox_pred_0_split
I0517 16:01:52.017554  2768 net.cpp:129] Top shape: 1 48 38 63 (114912)
I0517 16:01:52.017575  2768 net.cpp:129] Top shape: 1 48 38 63 (114912)
I0517 16:01:52.017598  2768 net.cpp:137] Memory required for data: 1421806356
I0517 16:01:52.017616  2768 layer_factory.hpp:77] Creating layer rpn_cls_score_reshape
I0517 16:01:52.017637  2768 net.cpp:84] Creating Layer rpn_cls_score_reshape
I0517 16:01:52.017657  2768 net.cpp:406] rpn_cls_score_reshape <- rpn_cls_score_rpn_cls_score_0_split_0
I0517 16:01:52.017679  2768 net.cpp:380] rpn_cls_score_reshape -> rpn_cls_score_reshape
I0517 16:01:52.017748  2768 net.cpp:122] Setting up rpn_cls_score_reshape
I0517 16:01:52.017783  2768 net.cpp:129] Top shape: 1 2 456 63 (57456)
I0517 16:01:52.017803  2768 net.cpp:137] Memory required for data: 1422036180
I0517 16:01:52.017820  2768 layer_factory.hpp:77] Creating layer rpn_cls_score_reshape_rpn_cls_score_reshape_0_split
I0517 16:01:52.017839  2768 net.cpp:84] Creating Layer rpn_cls_score_reshape_rpn_cls_score_reshape_0_split
I0517 16:01:52.017856  2768 net.cpp:406] rpn_cls_score_reshape_rpn_cls_score_reshape_0_split <- rpn_cls_score_reshape
I0517 16:01:52.017877  2768 net.cpp:380] rpn_cls_score_reshape_rpn_cls_score_reshape_0_split -> rpn_cls_score_reshape_rpn_cls_score_reshape_0_split_0
I0517 16:01:52.017902  2768 net.cpp:380] rpn_cls_score_reshape_rpn_cls_score_reshape_0_split -> rpn_cls_score_reshape_rpn_cls_score_reshape_0_split_1
I0517 16:01:52.017998  2768 net.cpp:122] Setting up rpn_cls_score_reshape_rpn_cls_score_reshape_0_split
I0517 16:01:52.018026  2768 net.cpp:129] Top shape: 1 2 456 63 (57456)
I0517 16:01:52.018048  2768 net.cpp:129] Top shape: 1 2 456 63 (57456)
I0517 16:01:52.018064  2768 net.cpp:137] Memory required for data: 1422495828
I0517 16:01:52.018080  2768 layer_factory.hpp:77] Creating layer rpn-data
I0517 16:01:52.018688  2768 net.cpp:84] Creating Layer rpn-data
I0517 16:01:52.018723  2768 net.cpp:406] rpn-data <- rpn_cls_score_rpn_cls_score_0_split_1
I0517 16:01:52.018745  2768 net.cpp:406] rpn-data <- gt_boxes_input-data_2_split_0
I0517 16:01:52.018765  2768 net.cpp:406] rpn-data <- im_info_input-data_1_split_0
I0517 16:01:52.018785  2768 net.cpp:406] rpn-data <- data_input-data_0_split_1
I0517 16:01:52.018805  2768 net.cpp:380] rpn-data -> rpn_labels
I0517 16:01:52.018831  2768 net.cpp:380] rpn-data -> rpn_bbox_targets
I0517 16:01:52.018856  2768 net.cpp:380] rpn-data -> rpn_bbox_inside_weights
I0517 16:01:52.018879  2768 net.cpp:380] rpn-data -> rpn_bbox_outside_weights
I0517 16:01:52.020855  2768 net.cpp:122] Setting up rpn-data
I0517 16:01:52.020894  2768 net.cpp:129] Top shape: 1 1 456 63 (28728)
I0517 16:01:52.020916  2768 net.cpp:129] Top shape: 1 48 38 63 (114912)
I0517 16:01:52.020936  2768 net.cpp:129] Top shape: 1 48 38 63 (114912)
I0517 16:01:52.020956  2768 net.cpp:129] Top shape: 1 48 38 63 (114912)
I0517 16:01:52.020970  2768 net.cpp:137] Memory required for data: 1423989684
I0517 16:01:52.020988  2768 layer_factory.hpp:77] Creating layer rpn_loss_cls
I0517 16:01:52.021008  2768 net.cpp:84] Creating Layer rpn_loss_cls
I0517 16:01:52.021028  2768 net.cpp:406] rpn_loss_cls <- rpn_cls_score_reshape_rpn_cls_score_reshape_0_split_0
I0517 16:01:52.021047  2768 net.cpp:406] rpn_loss_cls <- rpn_labels
…
I0517 16:01:52.023622  2768 net.cpp:129] Top shape: (1)
I0517 16:01:52.023643  2768 net.cpp:132]     with loss weight 1
I0517 16:01:52.023663  2768 net.cpp:137] Memory required for data: 1423989692
I0517 16:01:52.023679  2768 layer_factory.hpp:77] Creating layer rpn_cls_prob
I0517 16:01:52.023700  2768 net.cpp:84] Creating Layer rpn_cls_prob
I0517 16:01:52.023720  2768 net.cpp:406] rpn_cls_prob <- rpn_cls_score_reshape_rpn_cls_score_reshape_0_split_1
I0517 16:01:52.023746  2768 net.cpp:380] rpn_cls_prob -> rpn_cls_prob
I0517 16:01:52.024135  2768 net.cpp:122] Setting up rpn_cls_prob
I0517 16:01:52.024168  2768 net.cpp:129] Top shape: 1 2 456 63 (57456)
I0517 16:01:52.024188  2768 net.cpp:137] Memory required for data: 1424219516
I0517 16:01:52.024205  2768 layer_factory.hpp:77] Creating layer rpn_cls_prob_reshape
I0517 16:01:52.024226  2768 net.cpp:84] Creating Layer rpn_cls_prob_reshape
I0517 16:01:52.024245  2768 net.cpp:406] rpn_cls_prob_reshape <- rpn_cls_prob
I0517 16:01:52.024268  2768 net.cpp:380] rpn_cls_prob_reshape -> rpn_cls_prob_reshape
I0517 16:01:52.024336  2768 net.cpp:122] Setting up rpn_cls_prob_reshape
I0517 16:01:52.024365  2768 net.cpp:129] Top shape: 1 24 38 63 (57456)
I0517 16:01:52.024384  2768 net.cpp:137] Memory required for data: 1424449340
I0517 16:01:52.024400  2768 layer_factory.hpp:77] Creating layer proposal
I0517 16:01:52.025403  2768 net.cpp:84] Creating Layer proposal
I0517 16:01:52.025435  2768 net.cpp:406] proposal <- rpn_cls_prob_reshape
I0517 16:01:52.025459  2768 net.cpp:406] proposal <- rpn_bbox_pred_rpn_bbox_pred_0_split_1
I0517 16:01:52.025478  2768 net.cpp:406] proposal <- im_info_input-data_1_split_1
I0517 16:01:52.025501  2768 net.cpp:380] proposal -> rpn_rois
I0517 16:01:52.027283  2768 net.cpp:122] Setting up proposal
I0517 16:01:52.027323  2768 net.cpp:129] Top shape: 1 5 (5)
I0517 16:01:52.027343  2768 net.cpp:137] Memory required for data: 1424449360
I0517 16:01:52.027360  2768 layer_factory.hpp:77] Creating layer roi-data
I0517 16:01:52.027565  2768 net.cpp:84] Creating Layer roi-data
I0517 16:01:52.027596  2768 net.cpp:406] roi-data <- rpn_rois
I0517 16:01:52.027618  2768 net.cpp:406] roi-data <- gt_boxes_input-data_2_split_1
I0517 16:01:52.027640  2768 net.cpp:380] roi-data -> rois
I0517 16:01:52.027667  2768 net.cpp:380] roi-data -> labels
I0517 16:01:52.027691  2768 net.cpp:380] roi-data -> bbox_targets
I0517 16:01:52.027715  2768 net.cpp:380] roi-data -> bbox_inside_weights
I0517 16:01:52.027740  2768 net.cpp:380] roi-data -> bbox_outside_weights
I0517 16:01:52.028395  2768 net.cpp:122] Setting up roi-data
I0517 16:01:52.028430  2768 net.cpp:129] Top shape: 1 5 (5)
I0517 16:01:52.028452  2768 net.cpp:129] Top shape: 1 1 (1)
I0517 16:01:52.028472  2768 net.cpp:129] Top shape: 1 8 (8)
I0517 16:01:52.028491  2768 net.cpp:129] Top shape: 1 8 (8)
I0517 16:01:52.028507  2768 net.cpp:129] Top shape: 1 8 (8)
I0517 16:01:52.028524  2768 net.cpp:137] Memory required for data: 1424449480
I0517 16:01:52.028540  2768 layer_factory.hpp:77] Creating layer roi_pool5
I0517 16:01:52.028564  2768 net.cpp:84] Creating Layer roi_pool5
I0517 16:01:52.028585  2768 net.cpp:406] roi_pool5 <- conv5_3_relu5_3_0_split_1
I0517 16:01:52.028604  2768 net.cpp:406] roi_pool5 <- rois
I0517 16:01:52.028625  2768 net.cpp:380] roi_pool5 -> pool5
I0517 16:01:52.028648  2768 roi_pooling_layer.cpp:30] Spatial scale: 0.0625
I0517 16:01:52.028753  2768 net.cpp:122] Setting up roi_pool5
I0517 16:01:52.028781  2768 net.cpp:129] Top shape: 1 512 7 7 (25088)
I0517 16:01:52.028800  2768 net.cpp:137] Memory required for data: 1424549832
I0517 16:01:52.028815  2768 layer_factory.hpp:77] Creating layer fc6
I0517 16:01:52.028836  2768 net.cpp:84] Creating Layer fc6
I0517 16:01:52.028853  2768 net.cpp:406] fc6 <- pool5
I0517 16:01:52.028875  2768 net.cpp:380] fc6 -> fc6
I0517 16:01:52.229849  2768 net.cpp:122] Setting up fc6
I0517 16:01:52.230083  2768 net.cpp:129] Top shape: 1 4096 (4096)
I0517 16:01:52.230149  2768 net.cpp:137] Memory required for data: 1424566216
I0517 16:01:52.230239  2768 layer_factory.hpp:77] Creating layer relu6
I0517 16:01:52.230304  2768 net.cpp:84] Creating Layer relu6
I0517 16:01:52.230366  2768 net.cpp:406] relu6 <- fc6
I0517 16:01:52.230429  2768 net.cpp:367] relu6 -> fc6 (in-place)
I0517 16:01:52.230772  2768 net.cpp:122] Setting up relu6
I0517 16:01:52.230854  2768 net.cpp:129] Top shape: 1 4096 (4096)
I0517 16:01:52.230909  2768 net.cpp:137] Memory required for data: 1424582600
I0517 16:01:52.230969  2768 layer_factory.hpp:77] Creating layer fc7
I0517 16:01:52.231027  2768 net.cpp:84] Creating Layer fc7
I0517 16:01:52.231087  2768 net.cpp:406] fc7 <- fc6
I0517 16:01:52.231153  2768 net.cpp:380] fc7 -> fc7
I0517 16:01:52.270545  2768 net.cpp:122] Setting up fc7
I0517 16:01:52.270751  2768 net.cpp:129] Top shape: 1 4096 (4096)
I0517 16:01:52.270812  2768 net.cpp:137] Memory required for data: 1424598984
I0517 16:01:52.270882  2768 layer_factory.hpp:77] Creating layer relu7
I0517 16:01:52.270948  2768 net.cpp:84] Creating Layer relu7
I0517 16:01:52.271008  2768 net.cpp:406] relu7 <- fc7
I0517 16:01:52.271070  2768 net.cpp:367] relu7 -> fc7 (in-place)
I0517 16:01:52.271993  2768 net.cpp:122] Setting up relu7
I0517 16:01:52.272083  2768 net.cpp:129] Top shape: 1 4096 (4096)
I0517 16:01:52.272140  2768 net.cpp:137] Memory required for data: 1424615368
I0517 16:01:52.272197  2768 layer_factory.hpp:77] Creating layer fc7_relu7_0_split
I0517 16:01:52.272264  2768 net.cpp:84] Creating Layer fc7_relu7_0_split
I0517 16:01:52.272323  2768 net.cpp:406] fc7_relu7_0_split <- fc7
I0517 16:01:52.272382  2768 net.cpp:380] fc7_relu7_0_split -> fc7_relu7_0_split_0
I0517 16:01:52.272447  2768 net.cpp:380] fc7_relu7_0_split -> fc7_relu7_0_split_1
I0517 16:01:52.272577  2768 net.cpp:122] Setting up fc7_relu7_0_split
I0517 16:01:52.272647  2768 net.cpp:129] Top shape: 1 4096 (4096)
I0517 16:01:52.272702  2768 net.cpp:129] Top shape: 1 4096 (4096)
I0517 16:01:52.272753  2768 net.cpp:137] Memory required for data: 1424648136
I0517 16:01:52.272805  2768 layer_factory.hpp:77] Creating layer cls_score
I0517 16:01:52.272862  2768 net.cpp:84] Creating Layer cls_score
I0517 16:01:52.272915  2768 net.cpp:406] cls_score <- fc7_relu7_0_split_0
I0517 16:01:52.272976  2768 net.cpp:380] cls_score -> cls_score
I0517 16:01:52.273484  2768 net.cpp:122] Setting up cls_score
I0517 16:01:52.273556  2768 net.cpp:129] Top shape: 1 2 (2)
I0517 16:01:52.273612  2768 net.cpp:137] Memory required for data: 1424648144
I0517 16:01:52.273666  2768 layer_factory.hpp:77] Creating layer bbox_pred
I0517 16:01:52.273735  2768 net.cpp:84] Creating Layer bbox_pred
I0517 16:01:52.273790  2768 net.cpp:406] bbox_pred <- fc7_relu7_0_split_1
I0517 16:01:52.273849  2768 net.cpp:380] bbox_pred -> bbox_pred
I0517 16:01:52.275161  2768 net.cpp:122] Setting up bbox_pred
I0517 16:01:52.275238  2768 net.cpp:129] Top shape: 1 8 (8)
I0517 16:01:52.275295  2768 net.cpp:137] Memory required for data: 1424648176
I0517 16:01:52.275349  2768 layer_factory.hpp:77] Creating layer loss_cls
I0517 16:01:52.275405  2768 net.cpp:84] Creating Layer loss_cls
I0517 16:01:52.275459  2768 net.cpp:406] loss_cls <- cls_score
I0517 16:01:52.275511  2768 net.cpp:406] loss_cls <- labels
I0517 16:01:52.275576  2768 net.cpp:380] loss_cls -> loss_cls
…
I0519 10:58:40.251785  5084 upgrade_proto.cpp:70] Successfully upgraded file specified using deprecated input fields.
W0519 10:58:40.251791  5084 upgrade_proto.cpp:72] Note that future Caffe releases will only support input layers and not input fields.
I0519 10:58:40.252210  5084 net.cpp:51] Initializing net from parameters: 
name: "VGG_ILSVRC_16_layers"
state {
  phase: TEST
  level: 0
}
layer {
  name: "input"
  type: "Input"
  top: "data"
  top: "im_info"
  input_param {
    shape {
      dim: 1
      dim: 3
      dim: 224
      dim: 224
    }
    shape {
      dim: 1
      dim: 3
    }
  }
}
layer {
  name: "conv1_1"
  type: "Convolution"
  bottom: "data"
  top: "conv1_1"
  param {
    lr_mult: 0
    decay_mult: 0
  }
  param {
    lr_mult: 0
    decay_mult: 0
  }
  convolution_param {
    num_output: 64
    pad: 1
    kernel_size: 3
  }
}
layer {
  name: "relu1_1"
  type: "ReLU"
  bottom: "conv1_1"
  top: "conv1_1"
}
layer {
  name: "conv1_2"
  type: "Convolution"
  bottom: "conv1_1"
  top: "conv1_2"
  param {
    lr_mult: 0
    decay_mult: 0
  }
  param {
    lr_mult: 0
    decay_mult: 0
  }
  convolution_param {
    num_output: 64
    pad: 1
    kernel_size: 3
  }
}
layer {
  name: "relu1_2"
  type: "ReLU"
  bottom: "conv1_2"
  top: "conv1_2"
}
layer {
  name: "pool1"
  type: "Pooling"
  bottom: "conv1_2"
  top: "pool1"
  pooling_param {
    pool: MAX
    kernel_size: 2
    stride: 2
  }
}
layer {
  name: "conv2_1"
  type: "Convolution"
  bottom: "pool1"
  top: "conv2_1"
  param {
    lr_mult: 0
    decay_mult: 0
  }
  param {
    lr_mult: 0
    decay_mult: 0
  }
  convolution_param {
    num_output: 128
    pad: 1
    kernel_size: 3
  }
}
layer {
  name: "relu2_1"
  type: "ReLU"
  bottom: "conv2_1"
  top: "conv2_1"
}
layer {
  name: "conv2_2"
  type: "Convolution"
  bottom: "conv2_1"
  top: "conv2_2"
  param {
    lr_mult: 0
    decay_mult: 0
  }
  param {
    lr_mult: 0
    decay_mult: 0
  }
  convolution_param {
    num_output: 128
    pad: 1
    kernel_size: 3
  }
}
layer {
  name: "relu2_2"
  type: "ReLU"
  bottom: "conv2_2"
  top: "conv2_2"
}
layer {
  name: "pool2"
  type: "Pooling"
  bottom: "conv2_2"
  top: "pool2"
  pooling_param {
    pool: MAX
    kernel_size: 2
    stride: 2
  }
}
layer {
  name: "conv3_1"
  type: "Convolution"
  bottom: "pool2"
  top: "conv3_1"
  param {
    lr_mult: 1
    decay_mult: 1
  }
  param {
    lr_mult: 2
    decay_mult: 0
  }
  convolution_param {
    num_output: 256
    pad: 1
    kernel_size: 3
  }
}
layer {
  name: "relu3_1"
  type: "ReLU"
  bottom: "conv3_1"
  top: "conv3_1"
}
layer {
  name: "conv3_2"
  type: "Convolution"
  bottom: "conv3_1"
  top: "conv3_2"
  param {
    lr_mult: 1
    decay_mult: 1
  }
  param {
    lr_mult: 2
    decay_mult: 0
  }
  convolution_param {
    num_output: 256
    pad: 1
    kernel_size: 3
  }
}
layer {
  name: "relu3_2"
  type: "ReLU"
  bottom: "conv3_2"
  top: "conv3_2"
}
layer {
  name: "conv3_3"
  type: "Convolution"
  bottom: "conv3_2"
  top: "conv3_3"
  param {
    lr_mult: 1
    decay_mult: 1
  }
  param {
    lr_mult: 2
    decay_mult: 0
  }
  convolution_param {
    num_output: 256
    pad: 1
    kernel_size: 3
  }
}
layer {
  name: "relu3_3"
  type: "ReLU"
  bottom: "conv3_3"
  top: "conv3_3"
}
layer {
  name: "pool3"
  type: "Pooling"
  bottom: "conv3_3"
  top: "pool3"
  pooling_param {
    pool: MAX
    kernel_size: 2
    stride: 2
  }
}
layer {
  name: "conv4_1"
  type: "Convolution"
  bottom: "pool3"
  top: "conv4_1"
  param {
    lr_mult: 1
    decay_mult: 1
  }
  param {
    lr_mult: 2
    decay_mult: 0
  }
  convolution_param {
    num_output: 512
    pad: 1
    kernel_size: 3
  }
}
layer {
  name: "relu4_1"
  type: "ReLU"
  bottom: "conv4_1"
  top: "conv4_1"
}
layer {
  name: "conv4_2"
  type: "Convolution"
  bottom: "conv4_1"
  top: "conv4_2"
  param {
    lr_mult: 1
    decay_mult: 1
  }
  param {
    lr_mult: 2
    decay_mult: 0
  }
  convolution_param {
    num_output: 512
    pad: 1
    kernel_size: 3
  }
}
layer {
  name: "relu4_2"
  type: "ReLU"
  bottom: "conv4_2"
  top: "conv4_2"
}
layer {
  name: "conv4_3"
  type: "Convolution"
  bottom: "conv4_2"
  top: "conv4_3"
  param {
    lr_mult: 1
    decay_mult: 1
  }
  param {
    lr_mult: 2
    decay_mult: 0
  }
  convolution_param {
    num_output: 512
    pad: 1
    kernel_size: 3
  }
}
layer {
  name: "relu4_3"
  type: "ReLU"
  bottom: "conv4_3"
  top: "conv4_3"
}
layer {
  name: "pool4"
  type: "Pooling"
  bottom: "conv4_3"
  top: "pool4"
  pooling_param {
    pool: MAX
    kernel_size: 2
    stride: 2
  }
}
layer {
  name: "conv5_1"
  type: "Convolution"
  bottom: "pool4"
  top: "conv5_1"
  param {
    lr_mult: 1
    decay_mult: 1
  }
  param {
    lr_mult: 2
    decay_mult: 0
  }
  convolution_param {
    num_output: 512
    pad: 1
    kernel_size: 3
  }
}
layer {
  name: "relu5_1"
  type: "ReLU"
  bottom: "conv5_1"
  top: "conv5_1"
}
layer {
  name: "conv5_2"
  type: "Convolution"
  bottom: "conv5_1"
  top: "conv5_2"
  param {
    lr_mult: 1
    decay_mult: 1
  }
  param {
    lr_mult: 2
    decay_mult: 0
  }
  convolution_param {
    num_output: 512
    pad: 1
    kernel_size: 3
  }
}
layer {
  name: "relu5_2"
  type: "ReLU"
  bottom: "conv5_2"
  top: "conv5_2"
}
layer {
  name: "conv5_3"
  type: "Convolution"
  bottom: "conv5_2"
  top: "conv5_3"
  param {
    lr_mult: 1
    decay_mult: 1
  }
  param {
    lr_mult: 2
    decay_mult: 0
  }
  convolution_param {
    num_output: 512
    pad: 1
    kernel_size: 3
  }
}
layer {
  name: "relu5_3"
  type: "ReLU"
  bottom: "conv5_3"
  top: "conv5_3"
}
layer {
  name: "rpn_conv/3x3"
  type: "Convolution"
  bottom: "conv5_3"
  top: "rpn/output"
  param {
    lr_mult: 1
    decay_mult: 1
  }
  param {
    lr_mult: 2
    decay_mult: 0
  }
  convolution_param {
    num_output: 512
    pad: 1
    kernel_size: 3
    stride: 1
    weight_filler {
      type: "gaussian"
      std: 0.01
    }
    bias_filler {
      type: "constant"
      value: 0
    }
  }
}
layer {
  name: "rpn_relu/3x3"
  type: "ReLU"
  bottom: "rpn/output"
  top: "rpn/output"
}
layer {
  name: "rpn_cls_score"
  type: "Convolution"
  bottom: "rpn/output"
  top: "rpn_cls_score"
  param {
    lr_mult: 1
    decay_mult: 1
  }
  param {
    lr_mult: 2
    decay_mult: 0
  }
  convolution_param {
    num_output: 24
    pad: 0
    kernel_size: 1
    stride: 1
    weight_filler {
      type: "gaussian"
      std: 0.01
    }
    bias_filler {
      type: "constant"
      value: 0
    }
  }
}
layer {
  name: "rpn_bbox_pred"
  type: "Convolution"
  bottom: "rpn/output"
  top: "rpn_bbox_pred"
  param {
    lr_mult: 1
    decay_mult: 1
  }
  param {
    lr_mult: 2
    decay_mult: 0
  }
  convolution_param {
    num_output: 48
    pad: 0
    kernel_size: 1
    stride: 1
    weight_filler {
      type: "gaussian"
      std: 0.01
    }
    bias_filler {
      type: "constant"
      value: 0
    }
  }
}
layer {
  name: "rpn_cls_score_reshape"
  type: "Reshape"
  bottom: "rpn_cls_score"
  top: "rpn_cls_score_reshape"
  reshape_param {
    shape {
      dim: 0
      dim: 2
      dim: -1
      dim: 0
    }
  }
}
layer {
  name: "rpn_cls_prob"
  type: "Softmax"
  bottom: "rpn_cls_score_reshape"
  top: "rpn_cls_prob"
}
layer {
  name: "rpn_cls_prob_reshape"
  type: "Reshape"
  bottom: "rpn_cls_prob"
  top: "rpn_cls_prob_reshape"
  reshape_param {
    shape {
      dim: 0
      dim: 24
      dim: -1
      dim: 0
    }
  }
}
layer {
  name: "proposal"
  type: "Python"
  bottom: "rpn_cls_prob_reshape"
  bottom: "rpn_bbox_pred"
  bottom: "im_info"
  top: "rois"
  python_param {
    module: "rpn.proposal_layer"
    layer: "ProposalLayer"
    param_str: "\'feat_stride\': 16 \n\'scales\': !!python/tuple [4, 8, 16, 32]"
  }
}
layer {
  name: "roi_pool5"
  type: "ROIPooling"
  bottom: "conv5_3"
  bottom: "rois"
  top: "pool5"
  roi_pooling_param {
    pooled_h: 7
    pooled_w: 7
    spatial_scale: 0.0625
  }
}
layer {
  name: "fc6"
  type: "InnerProduct"
  bottom: "pool5"
  top: "fc6"
  param {
    lr_mult: 1
    decay_mult: 1
  }
  param {
    lr_mult: 2
    decay_mult: 0
  }
  inner_product_param {
    num_output: 4096
  }
}
layer {
  name: "relu6"
  type: "ReLU"
  bottom: "fc6"
  top: "fc6"
}
layer {
  name: "fc7"
  type: "InnerProduct"
  bottom: "fc6"
  top: "fc7"
  param {
    lr_mult: 1
    decay_mult: 1
  }
  param {
    lr_mult: 2
    decay_mult: 0
  }
  inner_product_param {
    num_output: 4096
  }
}
layer {
  name: "relu7"
  type: "ReLU"
  bottom: "fc7"
  top: "fc7"
}
layer {
  name: "cls_score"
  type: "InnerProduct"
  bottom: "fc7"
  top: "cls_score"
  param {
    lr_mult: 1
    decay_mult: 1
  }
  param {
    lr_mult: 2
    decay_mult: 0
  }
  inner_product_param {
    num_output: 2
    weight_filler {
      type: "gaussian"
      std: 0.01
    }
    bias_filler {
      type: "constant"
      value: 0
    }
  }
}
layer {
  name: "bbox_pred"
  type: "InnerProduct"
  bottom: "fc7"
  top: "bbox_pred"
  param {
    lr_mult: 1
    decay_mult: 1
  }
  param {
    lr_mult: 2
    decay_mult: 0
  }
  inner_product_param {
    num_output: 8
    weight_filler {
      type: "gaussian"
      std: 0.001
    }
    bias_filler {
      type: "constant"
      value: 0
    }
  }
}
layer {
  name: "cls_prob"
  type: "Softmax"
  bottom: "cls_score"
  top: "cls_prob"
}
I0519 10:58:40.252440  5084 layer_factory.hpp:77] Creating layer input
I0519 10:58:40.252466  5084 net.cpp:84] Creating Layer input
I0519 10:58:40.252475  5084 net.cpp:380] input -> data
I0519 10:58:40.252488  5084 net.cpp:380] input -> im_info
I0519 10:58:41.021728  5084 net.cpp:122] Setting up input
I0519 10:58:41.021759  5084 net.cpp:129] Top shape: 1 3 224 224 (150528)
I0519 10:58:41.021764  5084 net.cpp:129] Top shape: 1 3 (3)
I0519 10:58:41.021766  5084 net.cpp:137] Memory required for data: 602124
I0519 10:58:41.021772  5084 layer_factory.hpp:77] Creating layer conv1_1
I0519 10:58:41.021786  5084 net.cpp:84] Creating Layer conv1_1
I0519 10:58:41.021790  5084 net.cpp:406] conv1_1 <- data
I0519 10:58:41.021796  5084 net.cpp:380] conv1_1 -> conv1_1
I0519 10:58:41.207098  5084 net.cpp:122] Setting up conv1_1
I0519 10:58:41.207128  5084 net.cpp:129] Top shape: 1 64 224 224 (3211264)
I0519 10:58:41.207131  5084 net.cpp:137] Memory required for data: 13447180
I0519 10:58:41.207144  5084 layer_factory.hpp:77] Creating layer relu1_1
I0519 10:58:41.207164  5084 net.cpp:84] Creating Layer relu1_1
I0519 10:58:41.207168  5084 net.cpp:406] relu1_1 <- conv1_1
I0519 10:58:41.207173  5084 net.cpp:367] relu1_1 -> conv1_1 (in-place)
I0519 10:58:41.207584  5084 net.cpp:122] Setting up relu1_1
I0519 10:58:41.207598  5084 net.cpp:129] Top shape: 1 64 224 224 (3211264)
I0519 10:58:41.207602  5084 net.cpp:137] Memory required for data: 26292236
I0519 10:58:41.207604  5084 layer_factory.hpp:77] Creating layer conv1_2
I0519 10:58:41.207614  5084 net.cpp:84] Creating Layer conv1_2
I0519 10:58:41.207617  5084 net.cpp:406] conv1_2 <- conv1_1
I0519 10:58:41.207622  5084 net.cpp:380] conv1_2 -> conv1_2
I0519 10:58:41.208335  5084 net.cpp:122] Setting up conv1_2
I0519 10:58:41.208348  5084 net.cpp:129] Top shape: 1 64 224 224 (3211264)
I0519 10:58:41.208351  5084 net.cpp:137] Memory required for data: 39137292
I0519 10:58:41.208359  5084 layer_factory.hpp:77] Creating layer relu1_2
I0519 10:58:41.208364  5084 net.cpp:84] Creating Layer relu1_2
I0519 10:58:41.208367  5084 net.cpp:406] relu1_2 <- conv1_2
I0519 10:58:41.208370  5084 net.cpp:367] relu1_2 -> conv1_2 (in-place)
I0519 10:58:41.208773  5084 net.cpp:122] Setting up relu1_2
I0519 10:58:41.208787  5084 net.cpp:129] Top shape: 1 64 224 224 (3211264)
I0519 10:58:41.208791  5084 net.cpp:137] Memory required for data: 51982348
I0519 10:58:41.208793  5084 layer_factory.hpp:77] Creating layer pool1
I0519 10:58:41.208801  5084 net.cpp:84] Creating Layer pool1
I0519 10:58:41.208803  5084 net.cpp:406] pool1 <- conv1_2
I0519 10:58:41.208807  5084 net.cpp:380] pool1 -> pool1
I0519 10:58:41.208859  5084 net.cpp:122] Setting up pool1
I0519 10:58:41.208868  5084 net.cpp:129] Top shape: 1 64 112 112 (802816)
I0519 10:58:41.208870  5084 net.cpp:137] Memory required for data: 55193612
I0519 10:58:41.208873  5084 layer_factory.hpp:77] Creating layer conv2_1
I0519 10:58:41.208879  5084 net.cpp:84] Creating Layer conv2_1
I0519 10:58:41.208883  5084 net.cpp:406] conv2_1 <- pool1
I0519 10:58:41.208886  5084 net.cpp:380] conv2_1 -> conv2_1
I0519 10:58:41.211889  5084 net.cpp:122] Setting up conv2_1
I0519 10:58:41.211905  5084 net.cpp:129] Top shape: 1 128 112 112 (1605632)
I0519 10:58:41.211907  5084 net.cpp:137] Memory required for data: 61616140
I0519 10:58:41.211915  5084 layer_factory.hpp:77] Creating layer relu2_1
I0519 10:58:41.211922  5084 net.cpp:84] Creating Layer relu2_1
I0519 10:58:41.211925  5084 net.cpp:406] relu2_1 <- conv2_1
I0519 10:58:41.211930  5084 net.cpp:367] relu2_1 -> conv2_1 (in-place)
I0519 10:58:41.212083  5084 net.cpp:122] Setting up relu2_1
I0519 10:58:41.212093  5084 net.cpp:129] Top shape: 1 128 112 112 (1605632)
I0519 10:58:41.212095  5084 net.cpp:137] Memory required for data: 68038668
I0519 10:58:41.212098  5084 layer_factory.hpp:77] Creating layer conv2_2
I0519 10:58:41.212108  5084 net.cpp:84] Creating Layer conv2_2
I0519 10:58:41.212111  5084 net.cpp:406] conv2_2 <- conv2_1
I0519 10:58:41.212116  5084 net.cpp:380] conv2_2 -> conv2_2
I0519 10:58:41.213481  5084 net.cpp:122] Setting up conv2_2
I0519 10:58:41.213496  5084 net.cpp:129] Top shape: 1 128 112 112 (1605632)
I0519 10:58:41.213500  5084 net.cpp:137] Memory required for data: 74461196
I0519 10:58:41.213505  5084 layer_factory.hpp:77] Creating layer relu2_2
I0519 10:58:41.213510  5084 net.cpp:84] Creating Layer relu2_2
I0519 10:58:41.213513  5084 net.cpp:406] relu2_2 <- conv2_2
I0519 10:58:41.213517  5084 net.cpp:367] relu2_2 -> conv2_2 (in-place)
I0519 10:58:41.213675  5084 net.cpp:122] Setting up relu2_2
I0519 10:58:41.213685  5084 net.cpp:129] Top shape: 1 128 112 112 (1605632)
I0519 10:58:41.213688  5084 net.cpp:137] Memory required for data: 80883724
I0519 10:58:41.213691  5084 layer_factory.hpp:77] Creating layer pool2
I0519 10:58:41.213697  5084 net.cpp:84] Creating Layer pool2
I0519 10:58:41.213701  5084 net.cpp:406] pool2 <- conv2_2
I0519 10:58:41.213704  5084 net.cpp:380] pool2 -> pool2
I0519 10:58:41.213757  5084 net.cpp:122] Setting up pool2
I0519 10:58:41.213766  5084 net.cpp:129] Top shape: 1 128 56 56 (401408)
I0519 10:58:41.213769  5084 net.cpp:137] Memory required for data: 82489356
I0519 10:58:41.213771  5084 layer_factory.hpp:77] Creating layer conv3_1
I0519 10:58:41.213778  5084 net.cpp:84] Creating Layer conv3_1
I0519 10:58:41.213780  5084 net.cpp:406] conv3_1 <- pool2
I0519 10:58:41.213786  5084 net.cpp:380] conv3_1 -> conv3_1
I0519 10:58:41.215221  5084 net.cpp:122] Setting up conv3_1
I0519 10:58:41.215235  5084 net.cpp:129] Top shape: 1 256 56 56 (802816)
I0519 10:58:41.215239  5084 net.cpp:137] Memory required for data: 85700620
I0519 10:58:41.215248  5084 layer_factory.hpp:77] Creating layer relu3_1
I0519 10:58:41.215255  5084 net.cpp:84] Creating Layer relu3_1
I0519 10:58:41.215256  5084 net.cpp:406] relu3_1 <- conv3_1
I0519 10:58:41.215260  5084 net.cpp:367] relu3_1 -> conv3_1 (in-place)
I0519 10:58:41.215415  5084 net.cpp:122] Setting up relu3_1
I0519 10:58:41.215425  5084 net.cpp:129] Top shape: 1 256 56 56 (802816)
I0519 10:58:41.215427  5084 net.cpp:137] Memory required for data: 88911884
I0519 10:58:41.215430  5084 layer_factory.hpp:77] Creating layer conv3_2
I0519 10:58:41.215438  5084 net.cpp:84] Creating Layer conv3_2
I0519 10:58:41.215441  5084 net.cpp:406] conv3_2 <- conv3_1
I0519 10:58:41.215445  5084 net.cpp:380] conv3_2 -> conv3_2
I0519 10:58:41.218005  5084 net.cpp:122] Setting up conv3_2
I0519 10:58:41.218019  5084 net.cpp:129] Top shape: 1 256 56 56 (802816)
I0519 10:58:41.218022  5084 net.cpp:137] Memory required for data: 92123148
I0519 10:58:41.218029  5084 layer_factory.hpp:77] Creating layer relu3_2
I0519 10:58:41.218035  5084 net.cpp:84] Creating Layer relu3_2
I0519 10:58:41.218039  5084 net.cpp:406] relu3_2 <- conv3_2
I0519 10:58:41.218042  5084 net.cpp:367] relu3_2 -> conv3_2 (in-place)
I0519 10:58:41.218196  5084 net.cpp:122] Setting up relu3_2
I0519 10:58:41.218207  5084 net.cpp:129] Top shape: 1 256 56 56 (802816)
I0519 10:58:41.218210  5084 net.cpp:137] Memory required for data: 95334412
I0519 10:58:41.218214  5084 layer_factory.hpp:77] Creating layer conv3_3
I0519 10:58:41.218219  5084 net.cpp:84] Creating Layer conv3_3
I0519 10:58:41.218222  5084 net.cpp:406] conv3_3 <- conv3_2
I0519 10:58:41.218228  5084 net.cpp:380] conv3_3 -> conv3_3
I0519 10:58:41.222185  5084 net.cpp:122] Setting up conv3_3
I0519 10:58:41.222201  5084 net.cpp:129] Top shape: 1 256 56 56 (802816)
I0519 10:58:41.222204  5084 net.cpp:137] Memory required for data: 98545676
I0519 10:58:41.222210  5084 layer_factory.hpp:77] Creating layer relu3_3
I0519 10:58:41.222219  5084 net.cpp:84] Creating Layer relu3_3
I0519 10:58:41.222223  5084 net.cpp:406] relu3_3 <- conv3_3
I0519 10:58:41.222226  5084 net.cpp:367] relu3_3 -> conv3_3 (in-place)
I0519 10:58:41.222653  5084 net.cpp:122] Setting up relu3_3
I0519 10:58:41.222666  5084 net.cpp:129] Top shape: 1 256 56 56 (802816)
I0519 10:58:41.222671  5084 net.cpp:137] Memory required for data: 101756940
I0519 10:58:41.222673  5084 layer_factory.hpp:77] Creating layer pool3
I0519 10:58:41.222678  5084 net.cpp:84] Creating Layer pool3
I0519 10:58:41.222681  5084 net.cpp:406] pool3 <- conv3_3
I0519 10:58:41.222689  5084 net.cpp:380] pool3 -> pool3
I0519 10:58:41.222748  5084 net.cpp:122] Setting up pool3
I0519 10:58:41.222756  5084 net.cpp:129] Top shape: 1 256 28 28 (200704)
I0519 10:58:41.222759  5084 net.cpp:137] Memory required for data: 102559756
I0519 10:58:41.222761  5084 layer_factory.hpp:77] Creating layer conv4_1
I0519 10:58:41.222769  5084 net.cpp:84] Creating Layer conv4_1
I0519 10:58:41.222772  5084 net.cpp:406] conv4_1 <- pool3
I0519 10:58:41.222776  5084 net.cpp:380] conv4_1 -> conv4_1
I0519 10:58:41.226866  5084 net.cpp:122] Setting up conv4_1
I0519 10:58:41.226881  5084 net.cpp:129] Top shape: 1 512 28 28 (401408)
I0519 10:58:41.226884  5084 net.cpp:137] Memory required for data: 104165388
I0519 10:58:41.226891  5084 layer_factory.hpp:77] Creating layer relu4_1
I0519 10:58:41.226897  5084 net.cpp:84] Creating Layer relu4_1
I0519 10:58:41.226902  5084 net.cpp:406] relu4_1 <- conv4_1
I0519 10:58:41.226905  5084 net.cpp:367] relu4_1 -> conv4_1 (in-place)
I0519 10:58:41.227339  5084 net.cpp:122] Setting up relu4_1
I0519 10:58:41.227352  5084 net.cpp:129] Top shape: 1 512 28 28 (401408)
I0519 10:58:41.227356  5084 net.cpp:137] Memory required for data: 105771020
I0519 10:58:41.227358  5084 layer_factory.hpp:77] Creating layer conv4_2
I0519 10:58:41.227365  5084 net.cpp:84] Creating Layer conv4_2
I0519 10:58:41.227368  5084 net.cpp:406] conv4_2 <- conv4_1
I0519 10:58:41.227375  5084 net.cpp:380] conv4_2 -> conv4_2
I0519 10:58:41.232717  5084 net.cpp:122] Setting up conv4_2
I0519 10:58:41.232735  5084 net.cpp:129] Top shape: 1 512 28 28 (401408)
I0519 10:58:41.232739  5084 net.cpp:137] Memory required for data: 107376652
I0519 10:58:41.232750  5084 layer_factory.hpp:77] Creating layer relu4_2
I0519 10:58:41.232758  5084 net.cpp:84] Creating Layer relu4_2
I0519 10:58:41.232762  5084 net.cpp:406] relu4_2 <- conv4_2
I0519 10:58:41.232766  5084 net.cpp:367] relu4_2 -> conv4_2 (in-place)
I0519 10:58:41.232925  5084 net.cpp:122] Setting up relu4_2
I0519 10:58:41.232936  5084 net.cpp:129] Top shape: 1 512 28 28 (401408)
I0519 10:58:41.232939  5084 net.cpp:137] Memory required for data: 108982284
I0519 10:58:41.232942  5084 layer_factory.hpp:77] Creating layer conv4_3
I0519 10:58:41.232950  5084 net.cpp:84] Creating Layer conv4_3
I0519 10:58:41.232954  5084 net.cpp:406] conv4_3 <- conv4_2
I0519 10:58:41.232957  5084 net.cpp:380] conv4_3 -> conv4_3
I0519 10:58:41.238104  5084 net.cpp:122] Setting up conv4_3
I0519 10:58:41.238124  5084 net.cpp:129] Top shape: 1 512 28 28 (401408)
I0519 10:58:41.238128  5084 net.cpp:137] Memory required for data: 110587916
I0519 10:58:41.238135  5084 layer_factory.hpp:77] Creating layer relu4_3
I0519 10:58:41.238142  5084 net.cpp:84] Creating Layer relu4_3
I0519 10:58:41.238145  5084 net.cpp:406] relu4_3 <- conv4_3
I0519 10:58:41.238150  5084 net.cpp:367] relu4_3 -> conv4_3 (in-place)
I0519 10:58:41.238301  5084 net.cpp:122] Setting up relu4_3
I0519 10:58:41.238310  5084 net.cpp:129] Top shape: 1 512 28 28 (401408)
I0519 10:58:41.238313  5084 net.cpp:137] Memory required for data: 112193548
I0519 10:58:41.238317  5084 layer_factory.hpp:77] Creating layer pool4
I0519 10:58:41.238322  5084 net.cpp:84] Creating Layer pool4
I0519 10:58:41.238324  5084 net.cpp:406] pool4 <- conv4_3
I0519 10:58:41.238330  5084 net.cpp:380] pool4 -> pool4
I0519 10:58:41.238384  5084 net.cpp:122] Setting up pool4
I0519 10:58:41.238391  5084 net.cpp:129] Top shape: 1 512 14 14 (100352)
I0519 10:58:41.238394  5084 net.cpp:137] Memory required for data: 112594956
I0519 10:58:41.238396  5084 layer_factory.hpp:77] Creating layer conv5_1
I0519 10:58:41.238406  5084 net.cpp:84] Creating Layer conv5_1
I0519 10:58:41.238409  5084 net.cpp:406] conv5_1 <- pool4
I0519 10:58:41.238414  5084 net.cpp:380] conv5_1 -> conv5_1
I0519 10:58:41.244110  5084 net.cpp:122] Setting up conv5_1
I0519 10:58:41.244129  5084 net.cpp:129] Top shape: 1 512 14 14 (100352)
I0519 10:58:41.244133  5084 net.cpp:137] Memory required for data: 112996364
I0519 10:58:41.244139  5084 layer_factory.hpp:77] Creating layer relu5_1
I0519 10:58:41.244148  5084 net.cpp:84] Creating Layer relu5_1
I0519 10:58:41.244153  5084 net.cpp:406] relu5_1 <- conv5_1
I0519 10:58:41.244156  5084 net.cpp:367] relu5_1 -> conv5_1 (in-place)
I0519 10:58:41.244315  5084 net.cpp:122] Setting up relu5_1
I0519 10:58:41.244325  5084 net.cpp:129] Top shape: 1 512 14 14 (100352)
I0519 10:58:41.244328  5084 net.cpp:137] Memory required for data: 113397772
I0519 10:58:41.244330  5084 layer_factory.hpp:77] Creating layer conv5_2
I0519 10:58:41.244339  5084 net.cpp:84] Creating Layer conv5_2
I0519 10:58:41.244343  5084 net.cpp:406] conv5_2 <- conv5_1
I0519 10:58:41.244348  5084 net.cpp:380] conv5_2 -> conv5_2
I0519 10:58:41.249380  5084 net.cpp:122] Setting up conv5_2
I0519 10:58:41.249399  5084 net.cpp:129] Top shape: 1 512 14 14 (100352)
I0519 10:58:41.249402  5084 net.cpp:137] Memory required for data: 113799180
I0519 10:58:41.249409  5084 layer_factory.hpp:77] Creating layer relu5_2
I0519 10:58:41.249418  5084 net.cpp:84] Creating Layer relu5_2
I0519 10:58:41.249420  5084 net.cpp:406] relu5_2 <- conv5_2
I0519 10:58:41.249424  5084 net.cpp:367] relu5_2 -> conv5_2 (in-place)
I0519 10:58:41.249583  5084 net.cpp:122] Setting up relu5_2
I0519 10:58:41.249593  5084 net.cpp:129] Top shape: 1 512 14 14 (100352)
I0519 10:58:41.249596  5084 net.cpp:137] Memory required for data: 114200588
I0519 10:58:41.249599  5084 layer_factory.hpp:77] Creating layer conv5_3
I0519 10:58:41.249606  5084 net.cpp:84] Creating Layer conv5_3
I0519 10:58:41.249609  5084 net.cpp:406] conv5_3 <- conv5_2
I0519 10:58:41.249615  5084 net.cpp:380] conv5_3 -> conv5_3
I0519 10:58:41.254624  5084 net.cpp:122] Setting up conv5_3
I0519 10:58:41.254659  5084 net.cpp:129] Top shape: 1 512 14 14 (100352)
I0519 10:58:41.254663  5084 net.cpp:137] Memory required for data: 114601996
I0519 10:58:41.254669  5084 layer_factory.hpp:77] Creating layer relu5_3
I0519 10:58:41.254678  5084 net.cpp:84] Creating Layer relu5_3
I0519 10:58:41.254680  5084 net.cpp:406] relu5_3 <- conv5_3
I0519 10:58:41.254684  5084 net.cpp:367] relu5_3 -> conv5_3 (in-place)
I0519 10:58:41.255116  5084 net.cpp:122] Setting up relu5_3
I0519 10:58:41.255131  5084 net.cpp:129] Top shape: 1 512 14 14 (100352)
I0519 10:58:41.255133  5084 net.cpp:137] Memory required for data: 115003404
I0519 10:58:41.255136  5084 layer_factory.hpp:77] Creating layer conv5_3_relu5_3_0_split
I0519 10:58:41.255141  5084 net.cpp:84] Creating Layer conv5_3_relu5_3_0_split
I0519 10:58:41.255144  5084 net.cpp:406] conv5_3_relu5_3_0_split <- conv5_3
I0519 10:58:41.255148  5084 net.cpp:380] conv5_3_relu5_3_0_split -> conv5_3_relu5_3_0_split_0
I0519 10:58:41.255154  5084 net.cpp:380] conv5_3_relu5_3_0_split -> conv5_3_relu5_3_0_split_1
I0519 10:58:41.255239  5084 net.cpp:122] Setting up conv5_3_relu5_3_0_split
I0519 10:58:41.255249  5084 net.cpp:129] Top shape: 1 512 14 14 (100352)
I0519 10:58:41.255251  5084 net.cpp:129] Top shape: 1 512 14 14 (100352)
I0519 10:58:41.255254  5084 net.cpp:137] Memory required for data: 115806220
I0519 10:58:41.255256  5084 layer_factory.hpp:77] Creating layer rpn_conv/3x3
I0519 10:58:41.255271  5084 net.cpp:84] Creating Layer rpn_conv/3x3
I0519 10:58:41.255276  5084 net.cpp:406] rpn_conv/3x3 <- conv5_3_relu5_3_0_split_0
I0519 10:58:41.255282  5084 net.cpp:380] rpn_conv/3x3 -> rpn/output
I0519 10:58:41.313701  5084 net.cpp:122] Setting up rpn_conv/3x3
I0519 10:58:41.313719  5084 net.cpp:129] Top shape: 1 512 14 14 (100352)
I0519 10:58:41.313722  5084 net.cpp:137] Memory required for data: 116207628
I0519 10:58:41.313730  5084 layer_factory.hpp:77] Creating layer rpn_relu/3x3
I0519 10:58:41.313735  5084 net.cpp:84] Creating Layer rpn_relu/3x3
I0519 10:58:41.313738  5084 net.cpp:406] rpn_relu/3x3 <- rpn/output
I0519 10:58:41.313743  5084 net.cpp:367] rpn_relu/3x3 -> rpn/output (in-place)
I0519 10:58:41.314213  5084 net.cpp:122] Setting up rpn_relu/3x3
I0519 10:58:41.314226  5084 net.cpp:129] Top shape: 1 512 14 14 (100352)
I0519 10:58:41.314229  5084 net.cpp:137] Memory required for data: 116609036
I0519 10:58:41.314232  5084 layer_factory.hpp:77] Creating layer rpn/output_rpn_relu/3x3_0_split
I0519 10:58:41.314239  5084 net.cpp:84] Creating Layer rpn/output_rpn_relu/3x3_0_split
I0519 10:58:41.314242  5084 net.cpp:406] rpn/output_rpn_relu/3x3_0_split <- rpn/output
I0519 10:58:41.314246  5084 net.cpp:380] rpn/output_rpn_relu/3x3_0_split -> rpn/output_rpn_relu/3x3_0_split_0
I0519 10:58:41.314251  5084 net.cpp:380] rpn/output_rpn_relu/3x3_0_split -> rpn/output_rpn_relu/3x3_0_split_1
I0519 10:58:41.314308  5084 net.cpp:122] Setting up rpn/output_rpn_relu/3x3_0_split
I0519 10:58:41.314316  5084 net.cpp:129] Top shape: 1 512 14 14 (100352)
I0519 10:58:41.314318  5084 net.cpp:129] Top shape: 1 512 14 14 (100352)
I0519 10:58:41.314321  5084 net.cpp:137] Memory required for data: 117411852
I0519 10:58:41.314323  5084 layer_factory.hpp:77] Creating layer rpn_cls_score
I0519 10:58:41.314332  5084 net.cpp:84] Creating Layer rpn_cls_score
I0519 10:58:41.314335  5084 net.cpp:406] rpn_cls_score <- rpn/output_rpn_relu/3x3_0_split_0
I0519 10:58:41.314340  5084 net.cpp:380] rpn_cls_score -> rpn_cls_score
I0519 10:58:41.315992  5084 net.cpp:122] Setting up rpn_cls_score
I0519 10:58:41.316016  5084 net.cpp:129] Top shape: 1 24 14 14 (4704)
I0519 10:58:41.316020  5084 net.cpp:137] Memory required for data: 117430668
I0519 10:58:41.316025  5084 layer_factory.hpp:77] Creating layer rpn_bbox_pred
I0519 10:58:41.316035  5084 net.cpp:84] Creating Layer rpn_bbox_pred
I0519 10:58:41.316038  5084 net.cpp:406] rpn_bbox_pred <- rpn/output_rpn_relu/3x3_0_split_1
I0519 10:58:41.316043  5084 net.cpp:380] rpn_bbox_pred -> rpn_bbox_pred
I0519 10:58:41.317384  5084 net.cpp:122] Setting up rpn_bbox_pred
I0519 10:58:41.317395  5084 net.cpp:129] Top shape: 1 48 14 14 (9408)
I0519 10:58:41.317399  5084 net.cpp:137] Memory required for data: 117468300
I0519 10:58:41.317404  5084 layer_factory.hpp:77] Creating layer rpn_cls_score_reshape
I0519 10:58:41.317415  5084 net.cpp:84] Creating Layer rpn_cls_score_reshape
I0519 10:58:41.317418  5084 net.cpp:406] rpn_cls_score_reshape <- rpn_cls_score
I0519 10:58:41.317425  5084 net.cpp:380] rpn_cls_score_reshape -> rpn_cls_score_reshape
I0519 10:58:41.317471  5084 net.cpp:122] Setting up rpn_cls_score_reshape
I0519 10:58:41.317477  5084 net.cpp:129] Top shape: 1 2 168 14 (4704)
I0519 10:58:41.317481  5084 net.cpp:137] Memory required for data: 117487116
I0519 10:58:41.317482  5084 layer_factory.hpp:77] Creating layer rpn_cls_prob
I0519 10:58:41.317487  5084 net.cpp:84] Creating Layer rpn_cls_prob
I0519 10:58:41.317490  5084 net.cpp:406] rpn_cls_prob <- rpn_cls_score_reshape
I0519 10:58:41.317495  5084 net.cpp:380] rpn_cls_prob -> rpn_cls_prob
I0519 10:58:41.317996  5084 net.cpp:122] Setting up rpn_cls_prob
I0519 10:58:41.318018  5084 net.cpp:129] Top shape: 1 2 168 14 (4704)
I0519 10:58:41.318022  5084 net.cpp:137] Memory required for data: 117505932
I0519 10:58:41.318024  5084 layer_factory.hpp:77] Creating layer rpn_cls_prob_reshape
I0519 10:58:41.318030  5084 net.cpp:84] Creating Layer rpn_cls_prob_reshape
I0519 10:58:41.318035  5084 net.cpp:406] rpn_cls_prob_reshape <- rpn_cls_prob
I0519 10:58:41.318039  5084 net.cpp:380] rpn_cls_prob_reshape -> rpn_cls_prob_reshape
I0519 10:58:41.318070  5084 net.cpp:122] Setting up rpn_cls_prob_reshape
I0519 10:58:41.318078  5084 net.cpp:129] Top shape: 1 24 14 14 (4704)
I0519 10:58:41.318079  5084 net.cpp:137] Memory required for data: 117524748
I0519 10:58:41.318083  5084 layer_factory.hpp:77] Creating layer proposal
I0519 10:58:41.318435  5084 net.cpp:84] Creating Layer proposal
I0519 10:58:41.318446  5084 net.cpp:406] proposal <- rpn_cls_prob_reshape
I0519 10:58:41.318451  5084 net.cpp:406] proposal <- rpn_bbox_pred
I0519 10:58:41.318454  5084 net.cpp:406] proposal <- im_info
I0519 10:58:41.318459  5084 net.cpp:380] proposal -> rois
I0519 10:58:41.319454  5084 net.cpp:122] Setting up proposal
I0519 10:58:41.319468  5084 net.cpp:129] Top shape: 1 5 (5)
I0519 10:58:41.319470  5084 net.cpp:137] Memory required for data: 117524768
I0519 10:58:41.319473  5084 layer_factory.hpp:77] Creating layer roi_pool5
I0519 10:58:41.319479  5084 net.cpp:84] Creating Layer roi_pool5
I0519 10:58:41.319483  5084 net.cpp:406] roi_pool5 <- conv5_3_relu5_3_0_split_1
I0519 10:58:41.319486  5084 net.cpp:406] roi_pool5 <- rois
I0519 10:58:41.319490  5084 net.cpp:380] roi_pool5 -> pool5
I0519 10:58:41.319496  5084 roi_pooling_layer.cpp:30] Spatial scale: 0.0625
I0519 10:58:41.319555  5084 net.cpp:122] Setting up roi_pool5
I0519 10:58:41.319562  5084 net.cpp:129] Top shape: 1 512 7 7 (25088)
I0519 10:58:41.319564  5084 net.cpp:137] Memory required for data: 117625120
I0519 10:58:41.319567  5084 layer_factory.hpp:77] Creating layer fc6
I0519 10:58:41.319573  5084 net.cpp:84] Creating Layer fc6
I0519 10:58:41.319576  5084 net.cpp:406] fc6 <- pool5
I0519 10:58:41.319579  5084 net.cpp:380] fc6 -> fc6
I0519 10:58:41.491272  5084 net.cpp:122] Setting up fc6
I0519 10:58:41.491309  5084 net.cpp:129] Top shape: 1 4096 (4096)
I0519 10:58:41.491312  5084 net.cpp:137] Memory required for data: 117641504
I0519 10:58:41.491328  5084 layer_factory.hpp:77] Creating layer relu6
I0519 10:58:41.491339  5084 net.cpp:84] Creating Layer relu6
I0519 10:58:41.491343  5084 net.cpp:406] relu6 <- fc6
I0519 10:58:41.491348  5084 net.cpp:367] relu6 -> fc6 (in-place)
I0519 10:58:41.491577  5084 net.cpp:122] Setting up relu6
I0519 10:58:41.491587  5084 net.cpp:129] Top shape: 1 4096 (4096)
I0519 10:58:41.491590  5084 net.cpp:137] Memory required for data: 117657888
I0519 10:58:41.491592  5084 layer_factory.hpp:77] Creating layer fc7
I0519 10:58:41.491600  5084 net.cpp:84] Creating Layer fc7
I0519 10:58:41.491602  5084 net.cpp:406] fc7 <- fc6
I0519 10:58:41.491606  5084 net.cpp:380] fc7 -> fc7
I0519 10:58:41.519098  5084 net.cpp:122] Setting up fc7
I0519 10:58:41.519135  5084 net.cpp:129] Top shape: 1 4096 (4096)
I0519 10:58:41.519139  5084 net.cpp:137] Memory required for data: 117674272
I0519 10:58:41.519147  5084 layer_factory.hpp:77] Creating layer relu7
I0519 10:58:41.519165  5084 net.cpp:84] Creating Layer relu7
I0519 10:58:41.519173  5084 net.cpp:406] relu7 <- fc7
I0519 10:58:41.519177  5084 net.cpp:367] relu7 -> fc7 (in-place)
I0519 10:58:41.519400  5084 net.cpp:122] Setting up relu7
I0519 10:58:41.519412  5084 net.cpp:129] Top shape: 1 4096 (4096)
I0519 10:58:41.519414  5084 net.cpp:137] Memory required for data: 117690656
I0519 10:58:41.519418  5084 layer_factory.hpp:77] Creating layer fc7_relu7_0_split
I0519 10:58:41.519423  5084 net.cpp:84] Creating Layer fc7_relu7_0_split
I0519 10:58:41.519425  5084 net.cpp:406] fc7_relu7_0_split <- fc7
I0519 10:58:41.519429  5084 net.cpp:380] fc7_relu7_0_split -> fc7_relu7_0_split_0
I0519 10:58:41.519434  5084 net.cpp:380] fc7_relu7_0_split -> fc7_relu7_0_split_1
I0519 10:58:41.519484  5084 net.cpp:122] Setting up fc7_relu7_0_split
I0519 10:58:41.519491  5084 net.cpp:129] Top shape: 1 4096 (4096)
I0519 10:58:41.519495  5084 net.cpp:129] Top shape: 1 4096 (4096)
I0519 10:58:41.519496  5084 net.cpp:137] Memory required for data: 117723424
I0519 10:58:41.519498  5084 layer_factory.hpp:77] Creating layer cls_score
I0519 10:58:41.519506  5084 net.cpp:84] Creating Layer cls_score
I0519 10:58:41.519515  5084 net.cpp:406] cls_score <- fc7_relu7_0_split_0
I0519 10:58:41.519520  5084 net.cpp:380] cls_score -> cls_score
I0519 10:58:41.519862  5084 net.cpp:122] Setting up cls_score
I0519 10:58:41.519868  5084 net.cpp:129] Top shape: 1 2 (2)
I0519 10:58:41.519882  5084 net.cpp:137] Memory required for data: 117723432
I0519 10:58:41.519886  5084 layer_factory.hpp:77] Creating layer bbox_pred
I0519 10:58:41.519892  5084 net.cpp:84] Creating Layer bbox_pred
I0519 10:58:41.519896  5084 net.cpp:406] bbox_pred <- fc7_relu7_0_split_1
I0519 10:58:41.519901  5084 net.cpp:380] bbox_pred -> bbox_pred
I0519 10:58:41.520817  5084 net.cpp:122] Setting up bbox_pred
I0519 10:58:41.520823  5084 net.cpp:129] Top shape: 1 8 (8)
I0519 10:58:41.520826  5084 net.cpp:137] Memory required for data: 117723464
I0519 10:58:41.520830  5084 layer_factory.hpp:77] Creating layer cls_prob
I0519 10:58:41.520836  5084 net.cpp:84] Creating Layer cls_prob
I0519 10:58:41.520839  5084 net.cpp:406] cls_prob <- cls_score
I0519 10:58:41.520843  5084 net.cpp:380] cls_prob -> cls_prob
I0519 10:58:41.522037  5084 net.cpp:122] Setting up cls_prob
I0519 10:58:41.522050  5084 net.cpp:129] Top shape: 1 2 (2)
I0519 10:58:41.522053  5084 net.cpp:137] Memory required for data: 117723472
I0519 10:58:41.522056  5084 net.cpp:200] cls_prob does not need backward computation.
I0519 10:58:41.522058  5084 net.cpp:200] bbox_pred does not need backward computation.
I0519 10:58:41.522061  5084 net.cpp:200] cls_score does not need backward computation.
I0519 10:58:41.522063  5084 net.cpp:200] fc7_relu7_0_split does not need backward computation.
…
