…
snapshot_prefix: "vgg16_faster_rcnn"
average_loss: 100
iter_size: 2
I0516 21:39:27.299181 32745 solver.cpp:77] Creating training net from train_net file: models/voc_person/VGG16/faster_rcnn_end2end/train.prototxt
I0516 21:39:27.300132 32745 net.cpp:51] Initializing net from parameters: 
name: "VGG_ILSVRC_16_layers"
state {
  phase: TRAIN
}
layer {
  name: "input-data"
  type: "Python"
  top: "data"
  top: "im_info"
  top: "gt_boxes"
  python_param {
    module: "roi_data_layer.layer"
    layer: "RoIDataLayer"
    param_str: "\'num_classes\': 2"
  }
}
layer {
  name: "conv1_1"
  type: "Convolution"
  bottom: "data"
  top: "conv1_1"
  param {
    lr_mult: 0
    decay_mult: 0
  }
  param {
    lr_mult: 0
    decay_mult: 0
  }
  convolution_param {
    num_output: 64
    pad: 1
    kernel_size: 3
  }
}
layer {
  name: "relu1_1"
  type: "ReLU"
  bottom: "conv1_1"
  top: "conv1_1"
}
layer {
  name: "conv1_2"
  type: "Convolution"
  bottom: "conv1_1"
  top: "conv1_2"
  param {
    lr_mult: 0
    decay_mult: 0
  }
  param {
    lr_mult: 0
    decay_mult: 0
  }
  convolution_param {
    num_output: 64
    pad: 1
    kernel_size: 3
  }
}
layer {
  name: "relu1_2"
  type: "ReLU"
  bottom: "conv1_2"
  top: "conv1_2"
}
layer {
  name: "pool1"
  type: "Pooling"
  bottom: "conv1_2"
  top: "pool1"
  pooling_param {
    pool: MAX
    kernel_size: 2
    stride: 2
  }
}
layer {
  name: "conv2_1"
  type: "Convolution"
  bottom: "pool1"
  top: "conv2_1"
  param {
    lr_mult: 0
    decay_mult: 0
  }
  param {
    lr_mult: 0
    decay_mult: 0
  }
  convolution_param {
    num_output: 128
    pad: 1
    kernel_size: 3
  }
}
layer {
  name: "relu2_1"
  type: "ReLU"
  bottom: "conv2_1"
  top: "conv2_1"
}
layer {
  name: "conv2_2"
  type: "Convolution"
  bottom: "conv2_1"
  top: "conv2_2"
  param {
    lr_mult: 0
    decay_mult: 0
  }
  param {
    lr_mult: 0
    decay_mult: 0
  }
  convolution_param {
    num_output: 128
    pad: 1
    kernel_size: 3
  }
}
layer {
  name: "relu2_2"
  type: "ReLU"
  bottom: "conv2_2"
  top: "conv2_2"
}
layer {
  name: "pool2"
  type: "Pooling"
  bottom: "conv2_2"
  top: "pool2"
  pooling_param {
    pool: MAX
    kernel_size: 2
    stride: 2
  }
}
layer {
  name: "conv3_1"
  type: "Convolution"
  bottom: "pool2"
  top: "conv3_1"
  param {
    lr_mult: 1
  }
  param {
    lr_mult: 2
  }
  convolution_param {
    num_output: 256
    pad: 1
    kernel_size: 3
  }
}
layer {
  name: "relu3_1"
  type: "ReLU"
  bottom: "conv3_1"
  top: "conv3_1"
}
layer {
  name: "conv3_2"
  type: "Convolution"
  bottom: "conv3_1"
  top: "conv3_2"
  param {
    lr_mult: 1
  }
  param {
    lr_mult: 2
  }
  convolution_param {
    num_output: 256
    pad: 1
    kernel_size: 3
  }
}
layer {
  name: "relu3_2"
  type: "ReLU"
  bottom: "conv3_2"
  top: "conv3_2"
}
layer {
  name: "conv3_3"
  type: "Convolution"
  bottom: "conv3_2"
  top: "conv3_3"
  param {
    lr_mult: 1
  }
  param {
    lr_mult: 2
  }
  convolution_param {
    num_output: 256
    pad: 1
    kernel_size: 3
  }
}
layer {
  name: "relu3_3"
  type: "ReLU"
  bottom: "conv3_3"
  top: "conv3_3"
}
layer {
  name: "pool3"
  type: "Pooling"
  bottom: "conv3_3"
  top: "pool3"
  pooling_param {
    pool: MAX
    kernel_size: 2
    stride: 2
  }
}
layer {
  name: "conv4_1"
  type: "Convolution"
  bottom: "pool3"
  top: "conv4_1"
  param {
    lr_mult: 1
  }
  param {
    lr_mult: 2
  }
  convolution_param {
    num_output: 512
    pad: 1
    kernel_size: 3
  }
}
layer {
  name: "relu4_1"
  type: "ReLU"
  bottom: "conv4_1"
  top: "conv4_1"
}
layer {
  name: "conv4_2"
  type: "Convolution"
  bottom: "conv4_1"
  top: "conv4_2"
  param {
    lr_mult: 1
  }
  param {
    lr_mult: 2
  }
  convolution_param {
    num_output: 512
    pad: 1
    kernel_size: 3
  }
}
layer {
  name: "relu4_2"
  type: "ReLU"
  bottom: "conv4_2"
  top: "conv4_2"
}
layer {
  name: "conv4_3"
  type: "Convolution"
  bottom: "conv4_2"
  top: "conv4_3"
  param {
    lr_mult: 1
  }
  param {
    lr_mult: 2
  }
  convolution_param {
    num_output: 512
    pad: 1
    kernel_size: 3
  }
}
layer {
  name: "relu4_3"
  type: "ReLU"
  bottom: "conv4_3"
  top: "conv4_3"
}
layer {
  name: "pool4"
  type: "Pooling"
  bottom: "conv4_3"
  top: "pool4"
  pooling_param {
    pool: MAX
    kernel_size: 2
    stride: 2
  }
}
layer {
  name: "conv5_1"
  type: "Convolution"
  bottom: "pool4"
  top: "conv5_1"
  param {
    lr_mult: 1
  }
  param {
    lr_mult: 2
  }
  convolution_param {
    num_output: 512
    pad: 1
    kernel_size: 3
  }
}
layer {
  name: "relu5_1"
  type: "ReLU"
  bottom: "conv5_1"
  top: "conv5_1"
}
layer {
  name: "conv5_2"
  type: "Convolution"
  bottom: "conv5_1"
  top: "conv5_2"
  param {
    lr_mult: 1
  }
  param {
    lr_mult: 2
  }
  convolution_param {
    num_output: 512
    pad: 1
    kernel_size: 3
  }
}
layer {
  name: "relu5_2"
  type: "ReLU"
  bottom: "conv5_2"
  top: "conv5_2"
}
layer {
  name: "conv5_3"
  type: "Convolution"
  bottom: "conv5_2"
  top: "conv5_3"
  param {
    lr_mult: 1
  }
  param {
    lr_mult: 2
  }
  convolution_param {
    num_output: 512
    pad: 1
    kernel_size: 3
  }
}
layer {
  name: "relu5_3"
  type: "ReLU"
  bottom: "conv5_3"
  top: "conv5_3"
}
layer {
  name: "rpn_conv/3x3"
  type: "Convolution"
  bottom: "conv5_3"
  top: "rpn/output"
  param {
    lr_mult: 1
  }
  param {
    lr_mult: 2
  }
  convolution_param {
    num_output: 512
    pad: 1
    kernel_size: 3
    stride: 1
    weight_filler {
      type: "gaussian"
      std: 0.01
    }
    bias_filler {
      type: "constant"
      value: 0
    }
  }
}
layer {
  name: "rpn_relu/3x3"
  type: "ReLU"
  bottom: "rpn/output"
  top: "rpn/output"
}
layer {
  name: "rpn_cls_score"
  type: "Convolution"
  bottom: "rpn/output"
  top: "rpn_cls_score"
  param {
    lr_mult: 1
  }
  param {
    lr_mult: 2
  }
  convolution_param {
    num_output: 18
    pad: 0
    kernel_size: 1
    stride: 1
    weight_filler {
      type: "gaussian"
      std: 0.01
    }
    bias_filler {
      type: "constant"
      value: 0
    }
  }
}
layer {
  name: "rpn_bbox_pred"
  type: "Convolution"
  bottom: "rpn/output"
  top: "rpn_bbox_pred"
  param {
    lr_mult: 1
  }
  param {
    lr_mult: 2
  }
  convolution_param {
    num_output: 36
    pad: 0
    kernel_size: 1
    stride: 1
    weight_filler {
      type: "gaussian"
      std: 0.01
    }
    bias_filler {
      type: "constant"
      value: 0
    }
  }
}
layer {
  name: "rpn_cls_score_reshape"
  type: "Reshape"
  bottom: "rpn_cls_score"
  top: "rpn_cls_score_reshape"
  reshape_param {
    shape {
      dim: 0
      dim: 2
      dim: -1
      dim: 0
    }
  }
}
layer {
  name: "rpn-data"
  type: "Python"
  bottom: "rpn_cls_score"
  bottom: "gt_boxes"
  bottom: "im_info"
  bottom: "data"
  top: "rpn_labels"
  top: "rpn_bbox_targets"
  top: "rpn_bbox_inside_weights"
  top: "rpn_bbox_outside_weights"
  python_param {
    module: "rpn.anchor_target_layer"
    layer: "AnchorTargetLayer"
    param_str: "\'feat_stride\': 16"
  }
}
layer {
  name: "rpn_loss_cls"
  type: "SoftmaxWithLoss"
  bottom: "rpn_cls_score_reshape"
  bottom: "rpn_labels"
  top: "rpn_cls_loss"
  loss_weight: 1
  propagate_down: true
  propagate_down: false
  loss_param {
    ignore_label: -1
    normalize: true
  }
}
layer {
  name: "rpn_loss_bbox"
  type: "SmoothL1Loss"
  bottom: "rpn_bbox_pred"
  bottom: "rpn_bbox_targets"
  bottom: "rpn_bbox_inside_weights"
  bottom: "rpn_bbox_outside_weights"
  top: "rpn_loss_bbox"
  loss_weight: 1
  smooth_l1_loss_param {
    sigma: 3
  }
}
layer {
  name: "rpn_cls_prob"
  type: "Softmax"
  bottom: "rpn_cls_score_reshape"
  top: "rpn_cls_prob"
}
layer {
  name: "rpn_cls_prob_reshape"
  type: "Reshape"
  bottom: "rpn_cls_prob"
  top: "rpn_cls_prob_reshape"
  reshape_param {
    shape {
      dim: 0
      dim: 18
      dim: -1
      dim: 0
    }
  }
}
layer {
  name: "proposal"
  type: "Python"
  bottom: "rpn_cls_prob_reshape"
  bottom: "rpn_bbox_pred"
  bottom: "im_info"
  top: "rpn_rois"
  python_param {
    module: "rpn.proposal_layer"
    layer: "ProposalLayer"
    param_str: "\'feat_stride\': 16"
  }
}
layer {
  name: "roi-data"
  type: "Python"
  bottom: "rpn_rois"
  bottom: "gt_boxes"
  top: "rois"
  top: "labels"
  top: "bbox_targets"
  top: "bbox_inside_weights"
  top: "bbox_outside_weights"
  python_param {
    module: "rpn.proposal_target_layer"
    layer: "ProposalTargetLayer"
    param_str: "\'num_classes\': 2"
  }
}
layer {
  name: "roi_pool5"
  type: "ROIPooling"
  bottom: "conv5_3"
  bottom: "rois"
  top: "pool5"
  roi_pooling_param {
    pooled_h: 7
    pooled_w: 7
    spatial_scale: 0.0625
  }
}
layer {
  name: "fc6"
  type: "InnerProduct"
  bottom: "pool5"
  top: "fc6"
  param {
    lr_mult: 1
  }
  param {
    lr_mult: 2
  }
  inner_product_param {
    num_output: 4096
  }
}
layer {
  name: "relu6"
  type: "ReLU"
  bottom: "fc6"
  top: "fc6"
}
layer {
  name: "drop6"
  type: "Dropout"
  bottom: "fc6"
  top: "fc6"
  dropout_param {
    dropout_ratio: 0.5
  }
}
layer {
  name: "fc7"
  type: "InnerProduct"
  bottom: "fc6"
  top: "fc7"
  param {
    lr_mult: 1
  }
  param {
    lr_mult: 2
  }
  inner_product_param {
    num_output: 4096
  }
}
layer {
  name: "relu7"
  type: "ReLU"
  bottom: "fc7"
  top: "fc7"
}
layer {
  name: "drop7"
  type: "Dropout"
  bottom: "fc7"
  top: "fc7"
  dropout_param {
    dropout_ratio: 0.5
  }
}
layer {
  name: "cls_score"
  type: "InnerProduct"
  bottom: "fc7"
  top: "cls_score"
  param {
    lr_mult: 1
  }
  param {
    lr_mult: 2
  }
  inner_product_param {
    num_output: 2
    weight_filler {
      type: "gaussian"
      std: 0.01
    }
    bias_filler {
      type: "constant"
      value: 0
    }
  }
}
layer {
  name: "bbox_pred"
  type: "InnerProduct"
  bottom: "fc7"
  top: "bbox_pred"
  param {
    lr_mult: 1
  }
  param {
    lr_mult: 2
  }
  inner_product_param {
    num_output: 8
    weight_filler {
      type: "gaussian"
      std: 0.001
    }
    bias_filler {
      type: "constant"
      value: 0
    }
  }
}
layer {
  name: "loss_cls"
  type: "SoftmaxWithLoss"
  bottom: "cls_score"
  bottom: "labels"
  top: "loss_cls"
  loss_weight: 1
  propagate_down: true
  propagate_down: false
}
layer {
  name: "loss_bbox"
  type: "SmoothL1Loss"
  bottom: "bbox_pred"
  bottom: "bbox_targets"
  bottom: "bbox_inside_weights"
  bottom: "bbox_outside_weights"
  top: "loss_bbox"
  loss_weight: 1
}
I0516 21:39:27.300431 32745 layer_factory.hpp:77] Creating layer input-data
I0516 21:39:27.339359 32745 net.cpp:84] Creating Layer input-data
I0516 21:39:27.339385 32745 net.cpp:380] input-data -> data
I0516 21:39:27.339398 32745 net.cpp:380] input-data -> im_info
I0516 21:39:27.339407 32745 net.cpp:380] input-data -> gt_boxes
RoiDataLayer: name_to_top: {'gt_boxes': 2, 'data': 0, 'im_info': 1}
I0516 21:39:29.748231 32745 net.cpp:122] Setting up input-data
I0516 21:39:29.748275 32745 net.cpp:129] Top shape: 1 3 600 1000 (1800000)
I0516 21:39:29.748296 32745 net.cpp:129] Top shape: 1 3 (3)
I0516 21:39:29.748314 32745 net.cpp:129] Top shape: 1 4 (4)
I0516 21:39:29.748330 32745 net.cpp:137] Memory required for data: 7200028
I0516 21:39:29.748352 32745 layer_factory.hpp:77] Creating layer data_input-data_0_split
I0516 21:39:29.748383 32745 net.cpp:84] Creating Layer data_input-data_0_split
I0516 21:39:29.748404 32745 net.cpp:406] data_input-data_0_split <- data
I0516 21:39:29.748425 32745 net.cpp:380] data_input-data_0_split -> data_input-data_0_split_0
I0516 21:39:29.748450 32745 net.cpp:380] data_input-data_0_split -> data_input-data_0_split_1
I0516 21:39:29.748528 32745 net.cpp:122] Setting up data_input-data_0_split
I0516 21:39:29.748554 32745 net.cpp:129] Top shape: 1 3 600 1000 (1800000)
I0516 21:39:29.748574 32745 net.cpp:129] Top shape: 1 3 600 1000 (1800000)
I0516 21:39:29.748589 32745 net.cpp:137] Memory required for data: 21600028
I0516 21:39:29.748606 32745 layer_factory.hpp:77] Creating layer im_info_input-data_1_split
I0516 21:39:29.748626 32745 net.cpp:84] Creating Layer im_info_input-data_1_split
I0516 21:39:29.748644 32745 net.cpp:406] im_info_input-data_1_split <- im_info
I0516 21:39:29.748663 32745 net.cpp:380] im_info_input-data_1_split -> im_info_input-data_1_split_0
I0516 21:39:29.748694 32745 net.cpp:380] im_info_input-data_1_split -> im_info_input-data_1_split_1
I0516 21:39:29.748765 32745 net.cpp:122] Setting up im_info_input-data_1_split
I0516 21:39:29.748790 32745 net.cpp:129] Top shape: 1 3 (3)
I0516 21:39:29.748808 32745 net.cpp:129] Top shape: 1 3 (3)
I0516 21:39:29.748826 32745 net.cpp:137] Memory required for data: 21600052
I0516 21:39:29.748842 32745 layer_factory.hpp:77] Creating layer gt_boxes_input-data_2_split
I0516 21:39:29.748865 32745 net.cpp:84] Creating Layer gt_boxes_input-data_2_split
I0516 21:39:29.748884 32745 net.cpp:406] gt_boxes_input-data_2_split <- gt_boxes
I0516 21:39:29.748903 32745 net.cpp:380] gt_boxes_input-data_2_split -> gt_boxes_input-data_2_split_0
I0516 21:39:29.748925 32745 net.cpp:380] gt_boxes_input-data_2_split -> gt_boxes_input-data_2_split_1
I0516 21:39:29.748996 32745 net.cpp:122] Setting up gt_boxes_input-data_2_split
I0516 21:39:29.749020 32745 net.cpp:129] Top shape: 1 4 (4)
I0516 21:39:29.749040 32745 net.cpp:129] Top shape: 1 4 (4)
I0516 21:39:29.749058 32745 net.cpp:137] Memory required for data: 21600084
I0516 21:39:29.749073 32745 layer_factory.hpp:77] Creating layer conv1_1
I0516 21:39:29.749099 32745 net.cpp:84] Creating Layer conv1_1
I0516 21:39:29.749116 32745 net.cpp:406] conv1_1 <- data_input-data_0_split_0
I0516 21:39:29.749135 32745 net.cpp:380] conv1_1 -> conv1_1
I0516 21:39:30.040985 32745 net.cpp:122] Setting up conv1_1
I0516 21:39:30.041050 32745 net.cpp:129] Top shape: 1 64 600 1000 (38400000)
I0516 21:39:30.041069 32745 net.cpp:137] Memory required for data: 175200084
I0516 21:39:30.041097 32745 layer_factory.hpp:77] Creating layer relu1_1
I0516 21:39:30.041121 32745 net.cpp:84] Creating Layer relu1_1
I0516 21:39:30.041136 32745 net.cpp:406] relu1_1 <- conv1_1
I0516 21:39:30.041153 32745 net.cpp:367] relu1_1 -> conv1_1 (in-place)
I0516 21:39:30.041741 32745 net.cpp:122] Setting up relu1_1
I0516 21:39:30.041771 32745 net.cpp:129] Top shape: 1 64 600 1000 (38400000)
I0516 21:39:30.041788 32745 net.cpp:137] Memory required for data: 328800084
I0516 21:39:30.041805 32745 layer_factory.hpp:77] Creating layer conv1_2
I0516 21:39:30.041828 32745 net.cpp:84] Creating Layer conv1_2
I0516 21:39:30.041846 32745 net.cpp:406] conv1_2 <- conv1_1
I0516 21:39:30.041868 32745 net.cpp:380] conv1_2 -> conv1_2
I0516 21:39:30.048822 32745 net.cpp:122] Setting up conv1_2
I0516 21:39:30.048859 32745 net.cpp:129] Top shape: 1 64 600 1000 (38400000)
I0516 21:39:30.048877 32745 net.cpp:137] Memory required for data: 482400084
I0516 21:39:30.048902 32745 layer_factory.hpp:77] Creating layer relu1_2
I0516 21:39:30.048923 32745 net.cpp:84] Creating Layer relu1_2
I0516 21:39:30.048941 32745 net.cpp:406] relu1_2 <- conv1_2
I0516 21:39:30.048960 32745 net.cpp:367] relu1_2 -> conv1_2 (in-place)
I0516 21:39:30.050335 32745 net.cpp:122] Setting up relu1_2
I0516 21:39:30.050365 32745 net.cpp:129] Top shape: 1 64 600 1000 (38400000)
I0516 21:39:30.050384 32745 net.cpp:137] Memory required for data: 636000084
I0516 21:39:30.050400 32745 layer_factory.hpp:77] Creating layer pool1
I0516 21:39:30.050424 32745 net.cpp:84] Creating Layer pool1
I0516 21:39:30.050442 32745 net.cpp:406] pool1 <- conv1_2
I0516 21:39:30.050463 32745 net.cpp:380] pool1 -> pool1
I0516 21:39:30.050545 32745 net.cpp:122] Setting up pool1
I0516 21:39:30.050570 32745 net.cpp:129] Top shape: 1 64 300 500 (9600000)
I0516 21:39:30.050585 32745 net.cpp:137] Memory required for data: 674400084
I0516 21:39:30.050601 32745 layer_factory.hpp:77] Creating layer conv2_1
I0516 21:39:30.050623 32745 net.cpp:84] Creating Layer conv2_1
I0516 21:39:30.050640 32745 net.cpp:406] conv2_1 <- pool1
I0516 21:39:30.050662 32745 net.cpp:380] conv2_1 -> conv2_1
I0516 21:39:30.056813 32745 net.cpp:122] Setting up conv2_1
I0516 21:39:30.056845 32745 net.cpp:129] Top shape: 1 128 300 500 (19200000)
I0516 21:39:30.056864 32745 net.cpp:137] Memory required for data: 751200084
I0516 21:39:30.056886 32745 layer_factory.hpp:77] Creating layer relu2_1
I0516 21:39:30.056910 32745 net.cpp:84] Creating Layer relu2_1
I0516 21:39:30.056936 32745 net.cpp:406] relu2_1 <- conv2_1
I0516 21:39:30.056959 32745 net.cpp:367] relu2_1 -> conv2_1 (in-place)
I0516 21:39:30.058312 32745 net.cpp:122] Setting up relu2_1
I0516 21:39:30.058339 32745 net.cpp:129] Top shape: 1 128 300 500 (19200000)
I0516 21:39:30.058357 32745 net.cpp:137] Memory required for data: 828000084
I0516 21:39:30.058372 32745 layer_factory.hpp:77] Creating layer conv2_2
I0516 21:39:30.058395 32745 net.cpp:84] Creating Layer conv2_2
I0516 21:39:30.058419 32745 net.cpp:406] conv2_2 <- conv2_1
I0516 21:39:30.058444 32745 net.cpp:380] conv2_2 -> conv2_2
I0516 21:39:30.060520 32745 net.cpp:122] Setting up conv2_2
I0516 21:39:30.060552 32745 net.cpp:129] Top shape: 1 128 300 500 (19200000)
I0516 21:39:30.060570 32745 net.cpp:137] Memory required for data: 904800084
I0516 21:39:30.060591 32745 layer_factory.hpp:77] Creating layer relu2_2
I0516 21:39:30.060612 32745 net.cpp:84] Creating Layer relu2_2
I0516 21:39:30.060628 32745 net.cpp:406] relu2_2 <- conv2_2
I0516 21:39:30.060649 32745 net.cpp:367] relu2_2 -> conv2_2 (in-place)
I0516 21:39:30.060871 32745 net.cpp:122] Setting up relu2_2
I0516 21:39:30.060899 32745 net.cpp:129] Top shape: 1 128 300 500 (19200000)
I0516 21:39:30.060914 32745 net.cpp:137] Memory required for data: 981600084
I0516 21:39:30.060930 32745 layer_factory.hpp:77] Creating layer pool2
I0516 21:39:30.060950 32745 net.cpp:84] Creating Layer pool2
I0516 21:39:30.060967 32745 net.cpp:406] pool2 <- conv2_2
I0516 21:39:30.060989 32745 net.cpp:380] pool2 -> pool2
I0516 21:39:30.061079 32745 net.cpp:122] Setting up pool2
I0516 21:39:30.061102 32745 net.cpp:129] Top shape: 1 128 150 250 (4800000)
I0516 21:39:30.061120 32745 net.cpp:137] Memory required for data: 1000800084
I0516 21:39:30.061134 32745 layer_factory.hpp:77] Creating layer conv3_1
I0516 21:39:30.061158 32745 net.cpp:84] Creating Layer conv3_1
I0516 21:39:30.061177 32745 net.cpp:406] conv3_1 <- pool2
I0516 21:39:30.061197 32745 net.cpp:380] conv3_1 -> conv3_1
I0516 21:39:30.064308 32745 net.cpp:122] Setting up conv3_1
I0516 21:39:30.064347 32745 net.cpp:129] Top shape: 1 256 150 250 (9600000)
I0516 21:39:30.064364 32745 net.cpp:137] Memory required for data: 1039200084
I0516 21:39:30.064391 32745 layer_factory.hpp:77] Creating layer relu3_1
I0516 21:39:30.064414 32745 net.cpp:84] Creating Layer relu3_1
I0516 21:39:30.064431 32745 net.cpp:406] relu3_1 <- conv3_1
I0516 21:39:30.064451 32745 net.cpp:367] relu3_1 -> conv3_1 (in-place)
I0516 21:39:30.064666 32745 net.cpp:122] Setting up relu3_1
I0516 21:39:30.064693 32745 net.cpp:129] Top shape: 1 256 150 250 (9600000)
I0516 21:39:30.064710 32745 net.cpp:137] Memory required for data: 1077600084
I0516 21:39:30.064726 32745 layer_factory.hpp:77] Creating layer conv3_2
I0516 21:39:30.064754 32745 net.cpp:84] Creating Layer conv3_2
I0516 21:39:30.064771 32745 net.cpp:406] conv3_2 <- conv3_1
I0516 21:39:30.064792 32745 net.cpp:380] conv3_2 -> conv3_2
I0516 21:39:30.068176 32745 net.cpp:122] Setting up conv3_2
I0516 21:39:30.068209 32745 net.cpp:129] Top shape: 1 256 150 250 (9600000)
I0516 21:39:30.068228 32745 net.cpp:137] Memory required for data: 1116000084
I0516 21:39:30.068248 32745 layer_factory.hpp:77] Creating layer relu3_2
I0516 21:39:30.068269 32745 net.cpp:84] Creating Layer relu3_2
I0516 21:39:30.068286 32745 net.cpp:406] relu3_2 <- conv3_2
I0516 21:39:30.068305 32745 net.cpp:367] relu3_2 -> conv3_2 (in-place)
I0516 21:39:30.068521 32745 net.cpp:122] Setting up relu3_2
I0516 21:39:30.068547 32745 net.cpp:129] Top shape: 1 256 150 250 (9600000)
I0516 21:39:30.068563 32745 net.cpp:137] Memory required for data: 1154400084
I0516 21:39:30.068579 32745 layer_factory.hpp:77] Creating layer conv3_3
I0516 21:39:30.068604 32745 net.cpp:84] Creating Layer conv3_3
I0516 21:39:30.068624 32745 net.cpp:406] conv3_3 <- conv3_2
I0516 21:39:30.068642 32745 net.cpp:380] conv3_3 -> conv3_3
I0516 21:39:30.072507 32745 net.cpp:122] Setting up conv3_3
I0516 21:39:30.072540 32745 net.cpp:129] Top shape: 1 256 150 250 (9600000)
I0516 21:39:30.072558 32745 net.cpp:137] Memory required for data: 1192800084
I0516 21:39:30.072608 32745 layer_factory.hpp:77] Creating layer relu3_3
I0516 21:39:30.072633 32745 net.cpp:84] Creating Layer relu3_3
I0516 21:39:30.072651 32745 net.cpp:406] relu3_3 <- conv3_3
I0516 21:39:30.072670 32745 net.cpp:367] relu3_3 -> conv3_3 (in-place)
I0516 21:39:30.073285 32745 net.cpp:122] Setting up relu3_3
I0516 21:39:30.073313 32745 net.cpp:129] Top shape: 1 256 150 250 (9600000)
I0516 21:39:30.073330 32745 net.cpp:137] Memory required for data: 1231200084
I0516 21:39:30.073352 32745 layer_factory.hpp:77] Creating layer pool3
I0516 21:39:30.073374 32745 net.cpp:84] Creating Layer pool3
I0516 21:39:30.073392 32745 net.cpp:406] pool3 <- conv3_3
I0516 21:39:30.073413 32745 net.cpp:380] pool3 -> pool3
I0516 21:39:30.073508 32745 net.cpp:122] Setting up pool3
I0516 21:39:30.073532 32745 net.cpp:129] Top shape: 1 256 75 125 (2400000)
I0516 21:39:30.073549 32745 net.cpp:137] Memory required for data: 1240800084
I0516 21:39:30.073563 32745 layer_factory.hpp:77] Creating layer conv4_1
I0516 21:39:30.073587 32745 net.cpp:84] Creating Layer conv4_1
I0516 21:39:30.073606 32745 net.cpp:406] conv4_1 <- pool3
I0516 21:39:30.073628 32745 net.cpp:380] conv4_1 -> conv4_1
I0516 21:39:30.079828 32745 net.cpp:122] Setting up conv4_1
I0516 21:39:30.079871 32745 net.cpp:129] Top shape: 1 512 75 125 (4800000)
I0516 21:39:30.079888 32745 net.cpp:137] Memory required for data: 1260000084
I0516 21:39:30.079907 32745 layer_factory.hpp:77] Creating layer relu4_1
I0516 21:39:30.079926 32745 net.cpp:84] Creating Layer relu4_1
I0516 21:39:30.079943 32745 net.cpp:406] relu4_1 <- conv4_1
I0516 21:39:30.079965 32745 net.cpp:367] relu4_1 -> conv4_1 (in-place)
I0516 21:39:30.080580 32745 net.cpp:122] Setting up relu4_1
I0516 21:39:30.080610 32745 net.cpp:129] Top shape: 1 512 75 125 (4800000)
I0516 21:39:30.080626 32745 net.cpp:137] Memory required for data: 1279200084
I0516 21:39:30.080642 32745 layer_factory.hpp:77] Creating layer conv4_2
I0516 21:39:30.080668 32745 net.cpp:84] Creating Layer conv4_2
I0516 21:39:30.080687 32745 net.cpp:406] conv4_2 <- conv4_1
I0516 21:39:30.080710 32745 net.cpp:380] conv4_2 -> conv4_2
I0516 21:39:30.087704 32745 net.cpp:122] Setting up conv4_2
I0516 21:39:30.087766 32745 net.cpp:129] Top shape: 1 512 75 125 (4800000)
I0516 21:39:30.087785 32745 net.cpp:137] Memory required for data: 1298400084
I0516 21:39:30.087811 32745 layer_factory.hpp:77] Creating layer relu4_2
I0516 21:39:30.087833 32745 net.cpp:84] Creating Layer relu4_2
I0516 21:39:30.087851 32745 net.cpp:406] relu4_2 <- conv4_2
I0516 21:39:30.087872 32745 net.cpp:367] relu4_2 -> conv4_2 (in-place)
I0516 21:39:30.088100 32745 net.cpp:122] Setting up relu4_2
I0516 21:39:30.088126 32745 net.cpp:129] Top shape: 1 512 75 125 (4800000)
I0516 21:39:30.088143 32745 net.cpp:137] Memory required for data: 1317600084
I0516 21:39:30.088158 32745 layer_factory.hpp:77] Creating layer conv4_3
I0516 21:39:30.088184 32745 net.cpp:84] Creating Layer conv4_3
I0516 21:39:30.088202 32745 net.cpp:406] conv4_3 <- conv4_2
I0516 21:39:30.088224 32745 net.cpp:380] conv4_3 -> conv4_3
I0516 21:39:30.095741 32745 net.cpp:122] Setting up conv4_3
I0516 21:39:30.095788 32745 net.cpp:129] Top shape: 1 512 75 125 (4800000)
I0516 21:39:30.095804 32745 net.cpp:137] Memory required for data: 1336800084
I0516 21:39:30.095824 32745 layer_factory.hpp:77] Creating layer relu4_3
I0516 21:39:30.095846 32745 net.cpp:84] Creating Layer relu4_3
I0516 21:39:30.095866 32745 net.cpp:406] relu4_3 <- conv4_3
I0516 21:39:30.095885 32745 net.cpp:367] relu4_3 -> conv4_3 (in-place)
I0516 21:39:30.096101 32745 net.cpp:122] Setting up relu4_3
I0516 21:39:30.096127 32745 net.cpp:129] Top shape: 1 512 75 125 (4800000)
I0516 21:39:30.096144 32745 net.cpp:137] Memory required for data: 1356000084
I0516 21:39:30.096161 32745 layer_factory.hpp:77] Creating layer pool4
I0516 21:39:30.096184 32745 net.cpp:84] Creating Layer pool4
I0516 21:39:30.096201 32745 net.cpp:406] pool4 <- conv4_3
I0516 21:39:30.096221 32745 net.cpp:380] pool4 -> pool4
I0516 21:39:30.096312 32745 net.cpp:122] Setting up pool4
I0516 21:39:30.096343 32745 net.cpp:129] Top shape: 1 512 38 63 (1225728)
I0516 21:39:30.096360 32745 net.cpp:137] Memory required for data: 1360902996
I0516 21:39:30.096376 32745 layer_factory.hpp:77] Creating layer conv5_1
I0516 21:39:30.096402 32745 net.cpp:84] Creating Layer conv5_1
I0516 21:39:30.096421 32745 net.cpp:406] conv5_1 <- pool4
I0516 21:39:30.096444 32745 net.cpp:380] conv5_1 -> conv5_1
I0516 21:39:30.102965 32745 net.cpp:122] Setting up conv5_1
I0516 21:39:30.103030 32745 net.cpp:129] Top shape: 1 512 38 63 (1225728)
I0516 21:39:30.103049 32745 net.cpp:137] Memory required for data: 1365805908
I0516 21:39:30.103070 32745 layer_factory.hpp:77] Creating layer relu5_1
I0516 21:39:30.103090 32745 net.cpp:84] Creating Layer relu5_1
I0516 21:39:30.103106 32745 net.cpp:406] relu5_1 <- conv5_1
I0516 21:39:30.103127 32745 net.cpp:367] relu5_1 -> conv5_1 (in-place)
I0516 21:39:30.103366 32745 net.cpp:122] Setting up relu5_1
I0516 21:39:30.103394 32745 net.cpp:129] Top shape: 1 512 38 63 (1225728)
I0516 21:39:30.103411 32745 net.cpp:137] Memory required for data: 1370708820
I0516 21:39:30.103427 32745 layer_factory.hpp:77] Creating layer conv5_2
I0516 21:39:30.103453 32745 net.cpp:84] Creating Layer conv5_2
I0516 21:39:30.103472 32745 net.cpp:406] conv5_2 <- conv5_1
I0516 21:39:30.103494 32745 net.cpp:380] conv5_2 -> conv5_2
I0516 21:39:30.109755 32745 net.cpp:122] Setting up conv5_2
I0516 21:39:30.109782 32745 net.cpp:129] Top shape: 1 512 38 63 (1225728)
I0516 21:39:30.109787 32745 net.cpp:137] Memory required for data: 1375611732
I0516 21:39:30.109797 32745 layer_factory.hpp:77] Creating layer relu5_2
I0516 21:39:30.109809 32745 net.cpp:84] Creating Layer relu5_2
I0516 21:39:30.109827 32745 net.cpp:406] relu5_2 <- conv5_2
I0516 21:39:30.109849 32745 net.cpp:367] relu5_2 -> conv5_2 (in-place)
I0516 21:39:30.110052 32745 net.cpp:122] Setting up relu5_2
I0516 21:39:30.110065 32745 net.cpp:129] Top shape: 1 512 38 63 (1225728)
I0516 21:39:30.110070 32745 net.cpp:137] Memory required for data: 1380514644
I0516 21:39:30.110075 32745 layer_factory.hpp:77] Creating layer conv5_3
I0516 21:39:30.110106 32745 net.cpp:84] Creating Layer conv5_3
I0516 21:39:30.110126 32745 net.cpp:406] conv5_3 <- conv5_2
I0516 21:39:30.110148 32745 net.cpp:380] conv5_3 -> conv5_3
I0516 21:39:30.115134 32745 net.cpp:122] Setting up conv5_3
I0516 21:39:30.115164 32745 net.cpp:129] Top shape: 1 512 38 63 (1225728)
I0516 21:39:30.115170 32745 net.cpp:137] Memory required for data: 1385417556
I0516 21:39:30.115180 32745 layer_factory.hpp:77] Creating layer relu5_3
I0516 21:39:30.115190 32745 net.cpp:84] Creating Layer relu5_3
I0516 21:39:30.115208 32745 net.cpp:406] relu5_3 <- conv5_3
I0516 21:39:30.115228 32745 net.cpp:367] relu5_3 -> conv5_3 (in-place)
I0516 21:39:30.115708 32745 net.cpp:122] Setting up relu5_3
I0516 21:39:30.115725 32745 net.cpp:129] Top shape: 1 512 38 63 (1225728)
I0516 21:39:30.115731 32745 net.cpp:137] Memory required for data: 1390320468
I0516 21:39:30.115736 32745 layer_factory.hpp:77] Creating layer conv5_3_relu5_3_0_split
I0516 21:39:30.115743 32745 net.cpp:84] Creating Layer conv5_3_relu5_3_0_split
I0516 21:39:30.115762 32745 net.cpp:406] conv5_3_relu5_3_0_split <- conv5_3
I0516 21:39:30.115782 32745 net.cpp:380] conv5_3_relu5_3_0_split -> conv5_3_relu5_3_0_split_0
I0516 21:39:30.115803 32745 net.cpp:380] conv5_3_relu5_3_0_split -> conv5_3_relu5_3_0_split_1
I0516 21:39:30.115900 32745 net.cpp:122] Setting up conv5_3_relu5_3_0_split
I0516 21:39:30.115913 32745 net.cpp:129] Top shape: 1 512 38 63 (1225728)
I0516 21:39:30.115919 32745 net.cpp:129] Top shape: 1 512 38 63 (1225728)
I0516 21:39:30.115936 32745 net.cpp:137] Memory required for data: 1400126292
I0516 21:39:30.115952 32745 layer_factory.hpp:77] Creating layer rpn_conv/3x3
I0516 21:39:30.115978 32745 net.cpp:84] Creating Layer rpn_conv/3x3
I0516 21:39:30.115998 32745 net.cpp:406] rpn_conv/3x3 <- conv5_3_relu5_3_0_split_0
I0516 21:39:30.116019 32745 net.cpp:380] rpn_conv/3x3 -> rpn/output
I0516 21:39:30.176601 32745 net.cpp:122] Setting up rpn_conv/3x3
I0516 21:39:30.176633 32745 net.cpp:129] Top shape: 1 512 38 63 (1225728)
I0516 21:39:30.176638 32745 net.cpp:137] Memory required for data: 1405029204
I0516 21:39:30.176650 32745 layer_factory.hpp:77] Creating layer rpn_relu/3x3
I0516 21:39:30.176662 32745 net.cpp:84] Creating Layer rpn_relu/3x3
I0516 21:39:30.176668 32745 net.cpp:406] rpn_relu/3x3 <- rpn/output
I0516 21:39:30.176692 32745 net.cpp:367] rpn_relu/3x3 -> rpn/output (in-place)
I0516 21:39:30.177513 32745 net.cpp:122] Setting up rpn_relu/3x3
I0516 21:39:30.177527 32745 net.cpp:129] Top shape: 1 512 38 63 (1225728)
I0516 21:39:30.177532 32745 net.cpp:137] Memory required for data: 1409932116
I0516 21:39:30.177537 32745 layer_factory.hpp:77] Creating layer rpn/output_rpn_relu/3x3_0_split
I0516 21:39:30.177547 32745 net.cpp:84] Creating Layer rpn/output_rpn_relu/3x3_0_split
I0516 21:39:30.177567 32745 net.cpp:406] rpn/output_rpn_relu/3x3_0_split <- rpn/output
I0516 21:39:30.177589 32745 net.cpp:380] rpn/output_rpn_relu/3x3_0_split -> rpn/output_rpn_relu/3x3_0_split_0
I0516 21:39:30.177613 32745 net.cpp:380] rpn/output_rpn_relu/3x3_0_split -> rpn/output_rpn_relu/3x3_0_split_1
I0516 21:39:30.177707 32745 net.cpp:122] Setting up rpn/output_rpn_relu/3x3_0_split
I0516 21:39:30.177719 32745 net.cpp:129] Top shape: 1 512 38 63 (1225728)
I0516 21:39:30.177726 32745 net.cpp:129] Top shape: 1 512 38 63 (1225728)
I0516 21:39:30.177729 32745 net.cpp:137] Memory required for data: 1419737940
I0516 21:39:30.177734 32745 layer_factory.hpp:77] Creating layer rpn_cls_score
I0516 21:39:30.177763 32745 net.cpp:84] Creating Layer rpn_cls_score
I0516 21:39:30.177784 32745 net.cpp:406] rpn_cls_score <- rpn/output_rpn_relu/3x3_0_split_0
I0516 21:39:30.177805 32745 net.cpp:380] rpn_cls_score -> rpn_cls_score
I0516 21:39:30.179445 32745 net.cpp:122] Setting up rpn_cls_score
I0516 21:39:30.179460 32745 net.cpp:129] Top shape: 1 18 38 63 (43092)
I0516 21:39:30.179464 32745 net.cpp:137] Memory required for data: 1419910308
I0516 21:39:30.179473 32745 layer_factory.hpp:77] Creating layer rpn_cls_score_rpn_cls_score_0_split
I0516 21:39:30.179496 32745 net.cpp:84] Creating Layer rpn_cls_score_rpn_cls_score_0_split
I0516 21:39:30.179514 32745 net.cpp:406] rpn_cls_score_rpn_cls_score_0_split <- rpn_cls_score
I0516 21:39:30.179533 32745 net.cpp:380] rpn_cls_score_rpn_cls_score_0_split -> rpn_cls_score_rpn_cls_score_0_split_0
I0516 21:39:30.179560 32745 net.cpp:380] rpn_cls_score_rpn_cls_score_0_split -> rpn_cls_score_rpn_cls_score_0_split_1
I0516 21:39:30.179646 32745 net.cpp:122] Setting up rpn_cls_score_rpn_cls_score_0_split
I0516 21:39:30.179661 32745 net.cpp:129] Top shape: 1 18 38 63 (43092)
I0516 21:39:30.179666 32745 net.cpp:129] Top shape: 1 18 38 63 (43092)
I0516 21:39:30.179682 32745 net.cpp:137] Memory required for data: 1420255044
I0516 21:39:30.179698 32745 layer_factory.hpp:77] Creating layer rpn_bbox_pred
I0516 21:39:30.179723 32745 net.cpp:84] Creating Layer rpn_bbox_pred
I0516 21:39:30.179744 32745 net.cpp:406] rpn_bbox_pred <- rpn/output_rpn_relu/3x3_0_split_1
I0516 21:39:30.179764 32745 net.cpp:380] rpn_bbox_pred -> rpn_bbox_pred
I0516 21:39:30.181767 32745 net.cpp:122] Setting up rpn_bbox_pred
I0516 21:39:30.181782 32745 net.cpp:129] Top shape: 1 36 38 63 (86184)
I0516 21:39:30.181787 32745 net.cpp:137] Memory required for data: 1420599780
I0516 21:39:30.181794 32745 layer_factory.hpp:77] Creating layer rpn_bbox_pred_rpn_bbox_pred_0_split
I0516 21:39:30.181818 32745 net.cpp:84] Creating Layer rpn_bbox_pred_rpn_bbox_pred_0_split
I0516 21:39:30.181836 32745 net.cpp:406] rpn_bbox_pred_rpn_bbox_pred_0_split <- rpn_bbox_pred
I0516 21:39:30.181856 32745 net.cpp:380] rpn_bbox_pred_rpn_bbox_pred_0_split -> rpn_bbox_pred_rpn_bbox_pred_0_split_0
I0516 21:39:30.181880 32745 net.cpp:380] rpn_bbox_pred_rpn_bbox_pred_0_split -> rpn_bbox_pred_rpn_bbox_pred_0_split_1
I0516 21:39:30.181972 32745 net.cpp:122] Setting up rpn_bbox_pred_rpn_bbox_pred_0_split
I0516 21:39:30.181984 32745 net.cpp:129] Top shape: 1 36 38 63 (86184)
I0516 21:39:30.181990 32745 net.cpp:129] Top shape: 1 36 38 63 (86184)
I0516 21:39:30.181995 32745 net.cpp:137] Memory required for data: 1421289252
I0516 21:39:30.181999 32745 layer_factory.hpp:77] Creating layer rpn_cls_score_reshape
I0516 21:39:30.182016 32745 net.cpp:84] Creating Layer rpn_cls_score_reshape
I0516 21:39:30.182024 32745 net.cpp:406] rpn_cls_score_reshape <- rpn_cls_score_rpn_cls_score_0_split_0
I0516 21:39:30.182034 32745 net.cpp:380] rpn_cls_score_reshape -> rpn_cls_score_reshape
I0516 21:39:30.182085 32745 net.cpp:122] Setting up rpn_cls_score_reshape
I0516 21:39:30.182098 32745 net.cpp:129] Top shape: 1 2 342 63 (43092)
I0516 21:39:30.182102 32745 net.cpp:137] Memory required for data: 1421461620
I0516 21:39:30.182106 32745 layer_factory.hpp:77] Creating layer rpn_cls_score_reshape_rpn_cls_score_reshape_0_split
I0516 21:39:30.182116 32745 net.cpp:84] Creating Layer rpn_cls_score_reshape_rpn_cls_score_reshape_0_split
I0516 21:39:30.182121 32745 net.cpp:406] rpn_cls_score_reshape_rpn_cls_score_reshape_0_split <- rpn_cls_score_reshape
I0516 21:39:30.182127 32745 net.cpp:380] rpn_cls_score_reshape_rpn_cls_score_reshape_0_split -> rpn_cls_score_reshape_rpn_cls_score_reshape_0_split_0
I0516 21:39:30.182137 32745 net.cpp:380] rpn_cls_score_reshape_rpn_cls_score_reshape_0_split -> rpn_cls_score_reshape_rpn_cls_score_reshape_0_split_1
I0516 21:39:30.182221 32745 net.cpp:122] Setting up rpn_cls_score_reshape_rpn_cls_score_reshape_0_split
I0516 21:39:30.182234 32745 net.cpp:129] Top shape: 1 2 342 63 (43092)
I0516 21:39:30.182240 32745 net.cpp:129] Top shape: 1 2 342 63 (43092)
I0516 21:39:30.182243 32745 net.cpp:137] Memory required for data: 1421806356
I0516 21:39:30.182248 32745 layer_factory.hpp:77] Creating layer rpn-data
I0516 21:39:30.182670 32745 net.cpp:84] Creating Layer rpn-data
I0516 21:39:30.182682 32745 net.cpp:406] rpn-data <- rpn_cls_score_rpn_cls_score_0_split_1
I0516 21:39:30.182690 32745 net.cpp:406] rpn-data <- gt_boxes_input-data_2_split_0
I0516 21:39:30.182696 32745 net.cpp:406] rpn-data <- im_info_input-data_1_split_0
I0516 21:39:30.182703 32745 net.cpp:406] rpn-data <- data_input-data_0_split_1
I0516 21:39:30.182723 32745 net.cpp:380] rpn-data -> rpn_labels
I0516 21:39:30.182747 32745 net.cpp:380] rpn-data -> rpn_bbox_targets
I0516 21:39:30.182770 32745 net.cpp:380] rpn-data -> rpn_bbox_inside_weights
I0516 21:39:30.182795 32745 net.cpp:380] rpn-data -> rpn_bbox_outside_weights
I0516 21:39:30.183493 32745 net.cpp:122] Setting up rpn-data
I0516 21:39:30.183508 32745 net.cpp:129] Top shape: 1 1 342 63 (21546)
I0516 21:39:30.183516 32745 net.cpp:129] Top shape: 1 36 38 63 (86184)
I0516 21:39:30.183521 32745 net.cpp:129] Top shape: 1 36 38 63 (86184)
I0516 21:39:30.183539 32745 net.cpp:129] Top shape: 1 36 38 63 (86184)
I0516 21:39:30.183557 32745 net.cpp:137] Memory required for data: 1422926748
I0516 21:39:30.183571 32745 layer_factory.hpp:77] Creating layer rpn_loss_cls
I0516 21:39:30.183591 32745 net.cpp:84] Creating Layer rpn_loss_cls
I0516 21:39:30.183610 32745 net.cpp:406] rpn_loss_cls <- rpn_cls_score_reshape_rpn_cls_score_reshape_0_split_0
I0516 21:39:30.183629 32745 net.cpp:406] rpn_loss_cls <- rpn_labels
…
I0516 21:39:30.185223 32745 net.cpp:129] Top shape: (1)
I0516 21:39:30.185227 32745 net.cpp:132]     with loss weight 1
I0516 21:39:30.185235 32745 net.cpp:137] Memory required for data: 1422926756
I0516 21:39:30.185240 32745 layer_factory.hpp:77] Creating layer rpn_cls_prob
I0516 21:39:30.185259 32745 net.cpp:84] Creating Layer rpn_cls_prob
I0516 21:39:30.185279 32745 net.cpp:406] rpn_cls_prob <- rpn_cls_score_reshape_rpn_cls_score_reshape_0_split_1
I0516 21:39:30.185302 32745 net.cpp:380] rpn_cls_prob -> rpn_cls_prob
I0516 21:39:30.185567 32745 net.cpp:122] Setting up rpn_cls_prob
I0516 21:39:30.185580 32745 net.cpp:129] Top shape: 1 2 342 63 (43092)
I0516 21:39:30.185585 32745 net.cpp:137] Memory required for data: 1423099124
I0516 21:39:30.185590 32745 layer_factory.hpp:77] Creating layer rpn_cls_prob_reshape
I0516 21:39:30.185612 32745 net.cpp:84] Creating Layer rpn_cls_prob_reshape
I0516 21:39:30.185632 32745 net.cpp:406] rpn_cls_prob_reshape <- rpn_cls_prob
I0516 21:39:30.185652 32745 net.cpp:380] rpn_cls_prob_reshape -> rpn_cls_prob_reshape
I0516 21:39:30.185719 32745 net.cpp:122] Setting up rpn_cls_prob_reshape
I0516 21:39:30.185730 32745 net.cpp:129] Top shape: 1 18 38 63 (43092)
I0516 21:39:30.185735 32745 net.cpp:137] Memory required for data: 1423271492
I0516 21:39:30.185740 32745 layer_factory.hpp:77] Creating layer proposal
I0516 21:39:30.186422 32745 net.cpp:84] Creating Layer proposal
I0516 21:39:30.186434 32745 net.cpp:406] proposal <- rpn_cls_prob_reshape
I0516 21:39:30.186441 32745 net.cpp:406] proposal <- rpn_bbox_pred_rpn_bbox_pred_0_split_1
I0516 21:39:30.186447 32745 net.cpp:406] proposal <- im_info_input-data_1_split_1
I0516 21:39:30.186468 32745 net.cpp:380] proposal -> rpn_rois
I0516 21:39:30.187201 32745 net.cpp:122] Setting up proposal
I0516 21:39:30.187216 32745 net.cpp:129] Top shape: 1 5 (5)
I0516 21:39:30.187221 32745 net.cpp:137] Memory required for data: 1423271512
I0516 21:39:30.187225 32745 layer_factory.hpp:77] Creating layer roi-data
I0516 21:39:30.187374 32745 net.cpp:84] Creating Layer roi-data
I0516 21:39:30.187386 32745 net.cpp:406] roi-data <- rpn_rois
I0516 21:39:30.187392 32745 net.cpp:406] roi-data <- gt_boxes_input-data_2_split_1
I0516 21:39:30.187402 32745 net.cpp:380] roi-data -> rois
I0516 21:39:30.187424 32745 net.cpp:380] roi-data -> labels
I0516 21:39:30.187449 32745 net.cpp:380] roi-data -> bbox_targets
I0516 21:39:30.187472 32745 net.cpp:380] roi-data -> bbox_inside_weights
I0516 21:39:30.187495 32745 net.cpp:380] roi-data -> bbox_outside_weights
I0516 21:39:30.187882 32745 net.cpp:122] Setting up roi-data
I0516 21:39:30.187896 32745 net.cpp:129] Top shape: 1 5 (5)
I0516 21:39:30.187902 32745 net.cpp:129] Top shape: 1 1 (1)
I0516 21:39:30.187907 32745 net.cpp:129] Top shape: 1 8 (8)
I0516 21:39:30.187912 32745 net.cpp:129] Top shape: 1 8 (8)
I0516 21:39:30.187932 32745 net.cpp:129] Top shape: 1 8 (8)
I0516 21:39:30.187948 32745 net.cpp:137] Memory required for data: 1423271632
I0516 21:39:30.187963 32745 layer_factory.hpp:77] Creating layer roi_pool5
I0516 21:39:30.187988 32745 net.cpp:84] Creating Layer roi_pool5
I0516 21:39:30.188009 32745 net.cpp:406] roi_pool5 <- conv5_3_relu5_3_0_split_1
I0516 21:39:30.188027 32745 net.cpp:406] roi_pool5 <- rois
I0516 21:39:30.188046 32745 net.cpp:380] roi_pool5 -> pool5
I0516 21:39:30.188073 32745 roi_pooling_layer.cpp:30] Spatial scale: 0.0625
I0516 21:39:30.188164 32745 net.cpp:122] Setting up roi_pool5
I0516 21:39:30.188176 32745 net.cpp:129] Top shape: 1 512 7 7 (25088)
I0516 21:39:30.188180 32745 net.cpp:137] Memory required for data: 1423371984
I0516 21:39:30.188185 32745 layer_factory.hpp:77] Creating layer fc6
I0516 21:39:30.188206 32745 net.cpp:84] Creating Layer fc6
I0516 21:39:30.188225 32745 net.cpp:406] fc6 <- pool5
I0516 21:39:30.188243 32745 net.cpp:380] fc6 -> fc6
I0516 21:39:30.398628 32745 net.cpp:122] Setting up fc6
I0516 21:39:30.398710 32745 net.cpp:129] Top shape: 1 4096 (4096)
I0516 21:39:30.398727 32745 net.cpp:137] Memory required for data: 1423388368
I0516 21:39:30.398766 32745 layer_factory.hpp:77] Creating layer relu6
I0516 21:39:30.398790 32745 net.cpp:84] Creating Layer relu6
I0516 21:39:30.398808 32745 net.cpp:406] relu6 <- fc6
I0516 21:39:30.398826 32745 net.cpp:367] relu6 -> fc6 (in-place)
I0516 21:39:30.399121 32745 net.cpp:122] Setting up relu6
I0516 21:39:30.399148 32745 net.cpp:129] Top shape: 1 4096 (4096)
I0516 21:39:30.399176 32745 net.cpp:137] Memory required for data: 1423404752
I0516 21:39:30.399199 32745 layer_factory.hpp:77] Creating layer drop6
I0516 21:39:30.399225 32745 net.cpp:84] Creating Layer drop6
I0516 21:39:30.399243 32745 net.cpp:406] drop6 <- fc6
I0516 21:39:30.399262 32745 net.cpp:367] drop6 -> fc6 (in-place)
I0516 21:39:30.399327 32745 net.cpp:122] Setting up drop6
I0516 21:39:30.399349 32745 net.cpp:129] Top shape: 1 4096 (4096)
I0516 21:39:30.399366 32745 net.cpp:137] Memory required for data: 1423421136
I0516 21:39:30.399381 32745 layer_factory.hpp:77] Creating layer fc7
I0516 21:39:30.399405 32745 net.cpp:84] Creating Layer fc7
I0516 21:39:30.399422 32745 net.cpp:406] fc7 <- fc6
I0516 21:39:30.399441 32745 net.cpp:380] fc7 -> fc7
I0516 21:39:30.435703 32745 net.cpp:122] Setting up fc7
I0516 21:39:30.435776 32745 net.cpp:129] Top shape: 1 4096 (4096)
I0516 21:39:30.435794 32745 net.cpp:137] Memory required for data: 1423437520
I0516 21:39:30.435816 32745 layer_factory.hpp:77] Creating layer relu7
I0516 21:39:30.435842 32745 net.cpp:84] Creating Layer relu7
I0516 21:39:30.435858 32745 net.cpp:406] relu7 <- fc7
I0516 21:39:30.435873 32745 net.cpp:367] relu7 -> fc7 (in-place)
I0516 21:39:30.438623 32745 net.cpp:122] Setting up relu7
I0516 21:39:30.438653 32745 net.cpp:129] Top shape: 1 4096 (4096)
I0516 21:39:30.438670 32745 net.cpp:137] Memory required for data: 1423453904
I0516 21:39:30.438686 32745 layer_factory.hpp:77] Creating layer drop7
I0516 21:39:30.438709 32745 net.cpp:84] Creating Layer drop7
I0516 21:39:30.438727 32745 net.cpp:406] drop7 <- fc7
I0516 21:39:30.438747 32745 net.cpp:367] drop7 -> fc7 (in-place)
I0516 21:39:30.438812 32745 net.cpp:122] Setting up drop7
I0516 21:39:30.438839 32745 net.cpp:129] Top shape: 1 4096 (4096)
I0516 21:39:30.438858 32745 net.cpp:137] Memory required for data: 1423470288
I0516 21:39:30.438874 32745 layer_factory.hpp:77] Creating layer fc7_drop7_0_split
I0516 21:39:30.438891 32745 net.cpp:84] Creating Layer fc7_drop7_0_split
I0516 21:39:30.438908 32745 net.cpp:406] fc7_drop7_0_split <- fc7
I0516 21:39:30.438926 32745 net.cpp:380] fc7_drop7_0_split -> fc7_drop7_0_split_0
I0516 21:39:30.438949 32745 net.cpp:380] fc7_drop7_0_split -> fc7_drop7_0_split_1
I0516 21:39:30.439040 32745 net.cpp:122] Setting up fc7_drop7_0_split
I0516 21:39:30.439064 32745 net.cpp:129] Top shape: 1 4096 (4096)
I0516 21:39:30.439082 32745 net.cpp:129] Top shape: 1 4096 (4096)
I0516 21:39:30.439098 32745 net.cpp:137] Memory required for data: 1423503056
I0516 21:39:30.439115 32745 layer_factory.hpp:77] Creating layer cls_score
I0516 21:39:30.439138 32745 net.cpp:84] Creating Layer cls_score
I0516 21:39:30.439162 32745 net.cpp:406] cls_score <- fc7_drop7_0_split_0
I0516 21:39:30.439188 32745 net.cpp:380] cls_score -> cls_score
I0516 21:39:30.439668 32745 net.cpp:122] Setting up cls_score
I0516 21:39:30.439693 32745 net.cpp:129] Top shape: 1 2 (2)
I0516 21:39:30.439710 32745 net.cpp:137] Memory required for data: 1423503064
I0516 21:39:30.439730 32745 layer_factory.hpp:77] Creating layer bbox_pred
I0516 21:39:30.439754 32745 net.cpp:84] Creating Layer bbox_pred
I0516 21:39:30.439774 32745 net.cpp:406] bbox_pred <- fc7_drop7_0_split_1
I0516 21:39:30.439792 32745 net.cpp:380] bbox_pred -> bbox_pred
I0516 21:39:30.441078 32745 net.cpp:122] Setting up bbox_pred
I0516 21:39:30.441103 32745 net.cpp:129] Top shape: 1 8 (8)
I0516 21:39:30.441120 32745 net.cpp:137] Memory required for data: 1423503096
I0516 21:39:30.441139 32745 layer_factory.hpp:77] Creating layer loss_cls
I0516 21:39:30.441160 32745 net.cpp:84] Creating Layer loss_cls
I0516 21:39:30.441174 32745 net.cpp:406] loss_cls <- cls_score
I0516 21:39:30.441198 32745 net.cpp:406] loss_cls <- labels
I0516 21:39:30.441215 32745 net.cpp:380] loss_cls -> loss_cls
…
I0517 03:49:14.730499   494 upgrade_proto.cpp:70] Successfully upgraded file specified using deprecated input fields.
W0517 03:49:14.730502   494 upgrade_proto.cpp:72] Note that future Caffe releases will only support input layers and not input fields.
I0517 03:49:14.730741   494 net.cpp:51] Initializing net from parameters: 
name: "VGG_ILSVRC_16_layers"
state {
  phase: TEST
  level: 0
}
layer {
  name: "input"
  type: "Input"
  top: "data"
  top: "im_info"
  input_param {
    shape {
      dim: 1
      dim: 3
      dim: 224
      dim: 224
    }
    shape {
      dim: 1
      dim: 3
    }
  }
}
layer {
  name: "conv1_1"
  type: "Convolution"
  bottom: "data"
  top: "conv1_1"
  param {
    lr_mult: 0
    decay_mult: 0
  }
  param {
    lr_mult: 0
    decay_mult: 0
  }
  convolution_param {
    num_output: 64
    pad: 1
    kernel_size: 3
  }
}
layer {
  name: "relu1_1"
  type: "ReLU"
  bottom: "conv1_1"
  top: "conv1_1"
}
layer {
  name: "conv1_2"
  type: "Convolution"
  bottom: "conv1_1"
  top: "conv1_2"
  param {
    lr_mult: 0
    decay_mult: 0
  }
  param {
    lr_mult: 0
    decay_mult: 0
  }
  convolution_param {
    num_output: 64
    pad: 1
    kernel_size: 3
  }
}
layer {
  name: "relu1_2"
  type: "ReLU"
  bottom: "conv1_2"
  top: "conv1_2"
}
layer {
  name: "pool1"
  type: "Pooling"
  bottom: "conv1_2"
  top: "pool1"
  pooling_param {
    pool: MAX
    kernel_size: 2
    stride: 2
  }
}
layer {
  name: "conv2_1"
  type: "Convolution"
  bottom: "pool1"
  top: "conv2_1"
  param {
    lr_mult: 0
    decay_mult: 0
  }
  param {
    lr_mult: 0
    decay_mult: 0
  }
  convolution_param {
    num_output: 128
    pad: 1
    kernel_size: 3
  }
}
layer {
  name: "relu2_1"
  type: "ReLU"
  bottom: "conv2_1"
  top: "conv2_1"
}
layer {
  name: "conv2_2"
  type: "Convolution"
  bottom: "conv2_1"
  top: "conv2_2"
  param {
    lr_mult: 0
    decay_mult: 0
  }
  param {
    lr_mult: 0
    decay_mult: 0
  }
  convolution_param {
    num_output: 128
    pad: 1
    kernel_size: 3
  }
}
layer {
  name: "relu2_2"
  type: "ReLU"
  bottom: "conv2_2"
  top: "conv2_2"
}
layer {
  name: "pool2"
  type: "Pooling"
  bottom: "conv2_2"
  top: "pool2"
  pooling_param {
    pool: MAX
    kernel_size: 2
    stride: 2
  }
}
layer {
  name: "conv3_1"
  type: "Convolution"
  bottom: "pool2"
  top: "conv3_1"
  param {
    lr_mult: 1
    decay_mult: 1
  }
  param {
    lr_mult: 2
    decay_mult: 0
  }
  convolution_param {
    num_output: 256
    pad: 1
    kernel_size: 3
  }
}
layer {
  name: "relu3_1"
  type: "ReLU"
  bottom: "conv3_1"
  top: "conv3_1"
}
layer {
  name: "conv3_2"
  type: "Convolution"
  bottom: "conv3_1"
  top: "conv3_2"
  param {
    lr_mult: 1
    decay_mult: 1
  }
  param {
    lr_mult: 2
    decay_mult: 0
  }
  convolution_param {
    num_output: 256
    pad: 1
    kernel_size: 3
  }
}
layer {
  name: "relu3_2"
  type: "ReLU"
  bottom: "conv3_2"
  top: "conv3_2"
}
layer {
  name: "conv3_3"
  type: "Convolution"
  bottom: "conv3_2"
  top: "conv3_3"
  param {
    lr_mult: 1
    decay_mult: 1
  }
  param {
    lr_mult: 2
    decay_mult: 0
  }
  convolution_param {
    num_output: 256
    pad: 1
    kernel_size: 3
  }
}
layer {
  name: "relu3_3"
  type: "ReLU"
  bottom: "conv3_3"
  top: "conv3_3"
}
layer {
  name: "pool3"
  type: "Pooling"
  bottom: "conv3_3"
  top: "pool3"
  pooling_param {
    pool: MAX
    kernel_size: 2
    stride: 2
  }
}
layer {
  name: "conv4_1"
  type: "Convolution"
  bottom: "pool3"
  top: "conv4_1"
  param {
    lr_mult: 1
    decay_mult: 1
  }
  param {
    lr_mult: 2
    decay_mult: 0
  }
  convolution_param {
    num_output: 512
    pad: 1
    kernel_size: 3
  }
}
layer {
  name: "relu4_1"
  type: "ReLU"
  bottom: "conv4_1"
  top: "conv4_1"
}
layer {
  name: "conv4_2"
  type: "Convolution"
  bottom: "conv4_1"
  top: "conv4_2"
  param {
    lr_mult: 1
    decay_mult: 1
  }
  param {
    lr_mult: 2
    decay_mult: 0
  }
  convolution_param {
    num_output: 512
    pad: 1
    kernel_size: 3
  }
}
layer {
  name: "relu4_2"
  type: "ReLU"
  bottom: "conv4_2"
  top: "conv4_2"
}
layer {
  name: "conv4_3"
  type: "Convolution"
  bottom: "conv4_2"
  top: "conv4_3"
  param {
    lr_mult: 1
    decay_mult: 1
  }
  param {
    lr_mult: 2
    decay_mult: 0
  }
  convolution_param {
    num_output: 512
    pad: 1
    kernel_size: 3
  }
}
layer {
  name: "relu4_3"
  type: "ReLU"
  bottom: "conv4_3"
  top: "conv4_3"
}
layer {
  name: "pool4"
  type: "Pooling"
  bottom: "conv4_3"
  top: "pool4"
  pooling_param {
    pool: MAX
    kernel_size: 2
    stride: 2
  }
}
layer {
  name: "conv5_1"
  type: "Convolution"
  bottom: "pool4"
  top: "conv5_1"
  param {
    lr_mult: 1
    decay_mult: 1
  }
  param {
    lr_mult: 2
    decay_mult: 0
  }
  convolution_param {
    num_output: 512
    pad: 1
    kernel_size: 3
  }
}
layer {
  name: "relu5_1"
  type: "ReLU"
  bottom: "conv5_1"
  top: "conv5_1"
}
layer {
  name: "conv5_2"
  type: "Convolution"
  bottom: "conv5_1"
  top: "conv5_2"
  param {
    lr_mult: 1
    decay_mult: 1
  }
  param {
    lr_mult: 2
    decay_mult: 0
  }
  convolution_param {
    num_output: 512
    pad: 1
    kernel_size: 3
  }
}
layer {
  name: "relu5_2"
  type: "ReLU"
  bottom: "conv5_2"
  top: "conv5_2"
}
layer {
  name: "conv5_3"
  type: "Convolution"
  bottom: "conv5_2"
  top: "conv5_3"
  param {
    lr_mult: 1
    decay_mult: 1
  }
  param {
    lr_mult: 2
    decay_mult: 0
  }
  convolution_param {
    num_output: 512
    pad: 1
    kernel_size: 3
  }
}
layer {
  name: "relu5_3"
  type: "ReLU"
  bottom: "conv5_3"
  top: "conv5_3"
}
layer {
  name: "rpn_conv/3x3"
  type: "Convolution"
  bottom: "conv5_3"
  top: "rpn/output"
  param {
    lr_mult: 1
    decay_mult: 1
  }
  param {
    lr_mult: 2
    decay_mult: 0
  }
  convolution_param {
    num_output: 512
    pad: 1
    kernel_size: 3
    stride: 1
    weight_filler {
      type: "gaussian"
      std: 0.01
    }
    bias_filler {
      type: "constant"
      value: 0
    }
  }
}
layer {
  name: "rpn_relu/3x3"
  type: "ReLU"
  bottom: "rpn/output"
  top: "rpn/output"
}
layer {
  name: "rpn_cls_score"
  type: "Convolution"
  bottom: "rpn/output"
  top: "rpn_cls_score"
  param {
    lr_mult: 1
    decay_mult: 1
  }
  param {
    lr_mult: 2
    decay_mult: 0
  }
  convolution_param {
    num_output: 18
    pad: 0
    kernel_size: 1
    stride: 1
    weight_filler {
      type: "gaussian"
      std: 0.01
    }
    bias_filler {
      type: "constant"
      value: 0
    }
  }
}
layer {
  name: "rpn_bbox_pred"
  type: "Convolution"
  bottom: "rpn/output"
  top: "rpn_bbox_pred"
  param {
    lr_mult: 1
    decay_mult: 1
  }
  param {
    lr_mult: 2
    decay_mult: 0
  }
  convolution_param {
    num_output: 36
    pad: 0
    kernel_size: 1
    stride: 1
    weight_filler {
      type: "gaussian"
      std: 0.01
    }
    bias_filler {
      type: "constant"
      value: 0
    }
  }
}
layer {
  name: "rpn_cls_score_reshape"
  type: "Reshape"
  bottom: "rpn_cls_score"
  top: "rpn_cls_score_reshape"
  reshape_param {
    shape {
      dim: 0
      dim: 2
      dim: -1
      dim: 0
    }
  }
}
layer {
  name: "rpn_cls_prob"
  type: "Softmax"
  bottom: "rpn_cls_score_reshape"
  top: "rpn_cls_prob"
}
layer {
  name: "rpn_cls_prob_reshape"
  type: "Reshape"
  bottom: "rpn_cls_prob"
  top: "rpn_cls_prob_reshape"
  reshape_param {
    shape {
      dim: 0
      dim: 18
      dim: -1
      dim: 0
    }
  }
}
layer {
  name: "proposal"
  type: "Python"
  bottom: "rpn_cls_prob_reshape"
  bottom: "rpn_bbox_pred"
  bottom: "im_info"
  top: "rois"
  python_param {
    module: "rpn.proposal_layer"
    layer: "ProposalLayer"
    param_str: "\'feat_stride\': 16"
  }
}
layer {
  name: "roi_pool5"
  type: "ROIPooling"
  bottom: "conv5_3"
  bottom: "rois"
  top: "pool5"
  roi_pooling_param {
    pooled_h: 7
    pooled_w: 7
    spatial_scale: 0.0625
  }
}
layer {
  name: "fc6"
  type: "InnerProduct"
  bottom: "pool5"
  top: "fc6"
  param {
    lr_mult: 1
    decay_mult: 1
  }
  param {
    lr_mult: 2
    decay_mult: 0
  }
  inner_product_param {
    num_output: 4096
  }
}
layer {
  name: "relu6"
  type: "ReLU"
  bottom: "fc6"
  top: "fc6"
}
layer {
  name: "drop6"
  type: "Dropout"
  bottom: "fc6"
  top: "fc6"
  dropout_param {
    dropout_ratio: 0.5
  }
}
layer {
  name: "fc7"
  type: "InnerProduct"
  bottom: "fc6"
  top: "fc7"
  param {
    lr_mult: 1
    decay_mult: 1
  }
  param {
    lr_mult: 2
    decay_mult: 0
  }
  inner_product_param {
    num_output: 4096
  }
}
layer {
  name: "relu7"
  type: "ReLU"
  bottom: "fc7"
  top: "fc7"
}
layer {
  name: "drop7"
  type: "Dropout"
  bottom: "fc7"
  top: "fc7"
  dropout_param {
    dropout_ratio: 0.5
  }
}
layer {
  name: "cls_score"
  type: "InnerProduct"
  bottom: "fc7"
  top: "cls_score"
  param {
    lr_mult: 1
    decay_mult: 1
  }
  param {
    lr_mult: 2
    decay_mult: 0
  }
  inner_product_param {
    num_output: 2
    weight_filler {
      type: "gaussian"
      std: 0.01
    }
    bias_filler {
      type: "constant"
      value: 0
    }
  }
}
layer {
  name: "bbox_pred"
  type: "InnerProduct"
  bottom: "fc7"
  top: "bbox_pred"
  param {
    lr_mult: 1
    decay_mult: 1
  }
  param {
    lr_mult: 2
    decay_mult: 0
  }
  inner_product_param {
    num_output: 8
    weight_filler {
      type: "gaussian"
      std: 0.001
    }
    bias_filler {
      type: "constant"
      value: 0
    }
  }
}
layer {
  name: "cls_prob"
  type: "Softmax"
  bottom: "cls_score"
  top: "cls_prob"
}
I0517 03:49:14.730877   494 layer_factory.hpp:77] Creating layer input
I0517 03:49:14.730895   494 net.cpp:84] Creating Layer input
I0517 03:49:14.730901   494 net.cpp:380] input -> data
I0517 03:49:14.730911   494 net.cpp:380] input -> im_info
I0517 03:49:15.601306   494 net.cpp:122] Setting up input
I0517 03:49:15.601372   494 net.cpp:129] Top shape: 1 3 224 224 (150528)
I0517 03:49:15.601387   494 net.cpp:129] Top shape: 1 3 (3)
I0517 03:49:15.601399   494 net.cpp:137] Memory required for data: 602124
I0517 03:49:15.601414   494 layer_factory.hpp:77] Creating layer conv1_1
I0517 03:49:15.601440   494 net.cpp:84] Creating Layer conv1_1
I0517 03:49:15.601454   494 net.cpp:406] conv1_1 <- data
I0517 03:49:15.601470   494 net.cpp:380] conv1_1 -> conv1_1
I0517 03:49:15.816831   494 net.cpp:122] Setting up conv1_1
I0517 03:49:15.816859   494 net.cpp:129] Top shape: 1 64 224 224 (3211264)
I0517 03:49:15.816865   494 net.cpp:137] Memory required for data: 13447180
I0517 03:49:15.816882   494 layer_factory.hpp:77] Creating layer relu1_1
I0517 03:49:15.816896   494 net.cpp:84] Creating Layer relu1_1
I0517 03:49:15.816903   494 net.cpp:406] relu1_1 <- conv1_1
I0517 03:49:15.816912   494 net.cpp:367] relu1_1 -> conv1_1 (in-place)
I0517 03:49:15.817296   494 net.cpp:122] Setting up relu1_1
I0517 03:49:15.817309   494 net.cpp:129] Top shape: 1 64 224 224 (3211264)
I0517 03:49:15.817314   494 net.cpp:137] Memory required for data: 26292236
I0517 03:49:15.817319   494 layer_factory.hpp:77] Creating layer conv1_2
I0517 03:49:15.817332   494 net.cpp:84] Creating Layer conv1_2
I0517 03:49:15.817337   494 net.cpp:406] conv1_2 <- conv1_1
I0517 03:49:15.817345   494 net.cpp:380] conv1_2 -> conv1_2
I0517 03:49:15.818023   494 net.cpp:122] Setting up conv1_2
I0517 03:49:15.818037   494 net.cpp:129] Top shape: 1 64 224 224 (3211264)
I0517 03:49:15.818042   494 net.cpp:137] Memory required for data: 39137292
I0517 03:49:15.818054   494 layer_factory.hpp:77] Creating layer relu1_2
I0517 03:49:15.818063   494 net.cpp:84] Creating Layer relu1_2
I0517 03:49:15.818069   494 net.cpp:406] relu1_2 <- conv1_2
I0517 03:49:15.818078   494 net.cpp:367] relu1_2 -> conv1_2 (in-place)
I0517 03:49:15.818467   494 net.cpp:122] Setting up relu1_2
I0517 03:49:15.818480   494 net.cpp:129] Top shape: 1 64 224 224 (3211264)
I0517 03:49:15.818486   494 net.cpp:137] Memory required for data: 51982348
I0517 03:49:15.818493   494 layer_factory.hpp:77] Creating layer pool1
I0517 03:49:15.818505   494 net.cpp:84] Creating Layer pool1
I0517 03:49:15.818509   494 net.cpp:406] pool1 <- conv1_2
I0517 03:49:15.818517   494 net.cpp:380] pool1 -> pool1
I0517 03:49:15.818568   494 net.cpp:122] Setting up pool1
I0517 03:49:15.818578   494 net.cpp:129] Top shape: 1 64 112 112 (802816)
I0517 03:49:15.818584   494 net.cpp:137] Memory required for data: 55193612
I0517 03:49:15.818590   494 layer_factory.hpp:77] Creating layer conv2_1
I0517 03:49:15.818600   494 net.cpp:84] Creating Layer conv2_1
I0517 03:49:15.818605   494 net.cpp:406] conv2_1 <- pool1
I0517 03:49:15.818615   494 net.cpp:380] conv2_1 -> conv2_1
I0517 03:49:15.821921   494 net.cpp:122] Setting up conv2_1
I0517 03:49:15.821936   494 net.cpp:129] Top shape: 1 128 112 112 (1605632)
I0517 03:49:15.821941   494 net.cpp:137] Memory required for data: 61616140
I0517 03:49:15.821952   494 layer_factory.hpp:77] Creating layer relu2_1
I0517 03:49:15.821961   494 net.cpp:84] Creating Layer relu2_1
I0517 03:49:15.821967   494 net.cpp:406] relu2_1 <- conv2_1
I0517 03:49:15.821977   494 net.cpp:367] relu2_1 -> conv2_1 (in-place)
I0517 03:49:15.822125   494 net.cpp:122] Setting up relu2_1
I0517 03:49:15.822136   494 net.cpp:129] Top shape: 1 128 112 112 (1605632)
I0517 03:49:15.822141   494 net.cpp:137] Memory required for data: 68038668
I0517 03:49:15.822147   494 layer_factory.hpp:77] Creating layer conv2_2
I0517 03:49:15.822160   494 net.cpp:84] Creating Layer conv2_2
I0517 03:49:15.822166   494 net.cpp:406] conv2_2 <- conv2_1
I0517 03:49:15.822175   494 net.cpp:380] conv2_2 -> conv2_2
I0517 03:49:15.823974   494 net.cpp:122] Setting up conv2_2
I0517 03:49:15.823988   494 net.cpp:129] Top shape: 1 128 112 112 (1605632)
I0517 03:49:15.823994   494 net.cpp:137] Memory required for data: 74461196
I0517 03:49:15.824004   494 layer_factory.hpp:77] Creating layer relu2_2
I0517 03:49:15.824013   494 net.cpp:84] Creating Layer relu2_2
I0517 03:49:15.824020   494 net.cpp:406] relu2_2 <- conv2_2
I0517 03:49:15.824028   494 net.cpp:367] relu2_2 -> conv2_2 (in-place)
I0517 03:49:15.824172   494 net.cpp:122] Setting up relu2_2
I0517 03:49:15.824185   494 net.cpp:129] Top shape: 1 128 112 112 (1605632)
I0517 03:49:15.824192   494 net.cpp:137] Memory required for data: 80883724
I0517 03:49:15.824198   494 layer_factory.hpp:77] Creating layer pool2
I0517 03:49:15.824206   494 net.cpp:84] Creating Layer pool2
I0517 03:49:15.824211   494 net.cpp:406] pool2 <- conv2_2
I0517 03:49:15.824218   494 net.cpp:380] pool2 -> pool2
I0517 03:49:15.824272   494 net.cpp:122] Setting up pool2
I0517 03:49:15.824281   494 net.cpp:129] Top shape: 1 128 56 56 (401408)
I0517 03:49:15.824285   494 net.cpp:137] Memory required for data: 82489356
I0517 03:49:15.824290   494 layer_factory.hpp:77] Creating layer conv3_1
I0517 03:49:15.824303   494 net.cpp:84] Creating Layer conv3_1
I0517 03:49:15.824308   494 net.cpp:406] conv3_1 <- pool2
I0517 03:49:15.824321   494 net.cpp:380] conv3_1 -> conv3_1
I0517 03:49:15.825630   494 net.cpp:122] Setting up conv3_1
I0517 03:49:15.825644   494 net.cpp:129] Top shape: 1 256 56 56 (802816)
I0517 03:49:15.825649   494 net.cpp:137] Memory required for data: 85700620
I0517 03:49:15.825662   494 layer_factory.hpp:77] Creating layer relu3_1
I0517 03:49:15.825671   494 net.cpp:84] Creating Layer relu3_1
I0517 03:49:15.825677   494 net.cpp:406] relu3_1 <- conv3_1
I0517 03:49:15.825685   494 net.cpp:367] relu3_1 -> conv3_1 (in-place)
I0517 03:49:15.825830   494 net.cpp:122] Setting up relu3_1
I0517 03:49:15.825842   494 net.cpp:129] Top shape: 1 256 56 56 (802816)
I0517 03:49:15.825848   494 net.cpp:137] Memory required for data: 88911884
I0517 03:49:15.825855   494 layer_factory.hpp:77] Creating layer conv3_2
I0517 03:49:15.825865   494 net.cpp:84] Creating Layer conv3_2
I0517 03:49:15.825870   494 net.cpp:406] conv3_2 <- conv3_1
I0517 03:49:15.825881   494 net.cpp:380] conv3_2 -> conv3_2
I0517 03:49:15.828230   494 net.cpp:122] Setting up conv3_2
I0517 03:49:15.828245   494 net.cpp:129] Top shape: 1 256 56 56 (802816)
I0517 03:49:15.828251   494 net.cpp:137] Memory required for data: 92123148
I0517 03:49:15.828261   494 layer_factory.hpp:77] Creating layer relu3_2
I0517 03:49:15.828272   494 net.cpp:84] Creating Layer relu3_2
I0517 03:49:15.828279   494 net.cpp:406] relu3_2 <- conv3_2
I0517 03:49:15.828287   494 net.cpp:367] relu3_2 -> conv3_2 (in-place)
I0517 03:49:15.828447   494 net.cpp:122] Setting up relu3_2
I0517 03:49:15.828459   494 net.cpp:129] Top shape: 1 256 56 56 (802816)
I0517 03:49:15.828466   494 net.cpp:137] Memory required for data: 95334412
I0517 03:49:15.828472   494 layer_factory.hpp:77] Creating layer conv3_3
I0517 03:49:15.828482   494 net.cpp:84] Creating Layer conv3_3
I0517 03:49:15.828488   494 net.cpp:406] conv3_3 <- conv3_2
I0517 03:49:15.828498   494 net.cpp:380] conv3_3 -> conv3_3
I0517 03:49:15.831377   494 net.cpp:122] Setting up conv3_3
I0517 03:49:15.831393   494 net.cpp:129] Top shape: 1 256 56 56 (802816)
I0517 03:49:15.831398   494 net.cpp:137] Memory required for data: 98545676
I0517 03:49:15.831408   494 layer_factory.hpp:77] Creating layer relu3_3
I0517 03:49:15.831419   494 net.cpp:84] Creating Layer relu3_3
I0517 03:49:15.831425   494 net.cpp:406] relu3_3 <- conv3_3
I0517 03:49:15.831437   494 net.cpp:367] relu3_3 -> conv3_3 (in-place)
I0517 03:49:15.831840   494 net.cpp:122] Setting up relu3_3
I0517 03:49:15.831852   494 net.cpp:129] Top shape: 1 256 56 56 (802816)
I0517 03:49:15.831857   494 net.cpp:137] Memory required for data: 101756940
I0517 03:49:15.831862   494 layer_factory.hpp:77] Creating layer pool3
I0517 03:49:15.831871   494 net.cpp:84] Creating Layer pool3
I0517 03:49:15.831877   494 net.cpp:406] pool3 <- conv3_3
I0517 03:49:15.831888   494 net.cpp:380] pool3 -> pool3
I0517 03:49:15.831944   494 net.cpp:122] Setting up pool3
I0517 03:49:15.831954   494 net.cpp:129] Top shape: 1 256 28 28 (200704)
I0517 03:49:15.831959   494 net.cpp:137] Memory required for data: 102559756
I0517 03:49:15.831964   494 layer_factory.hpp:77] Creating layer conv4_1
I0517 03:49:15.831975   494 net.cpp:84] Creating Layer conv4_1
I0517 03:49:15.831980   494 net.cpp:406] conv4_1 <- pool3
I0517 03:49:15.831989   494 net.cpp:380] conv4_1 -> conv4_1
I0517 03:49:15.835644   494 net.cpp:122] Setting up conv4_1
I0517 03:49:15.835659   494 net.cpp:129] Top shape: 1 512 28 28 (401408)
I0517 03:49:15.835664   494 net.cpp:137] Memory required for data: 104165388
I0517 03:49:15.835674   494 layer_factory.hpp:77] Creating layer relu4_1
I0517 03:49:15.835685   494 net.cpp:84] Creating Layer relu4_1
I0517 03:49:15.835690   494 net.cpp:406] relu4_1 <- conv4_1
I0517 03:49:15.835698   494 net.cpp:367] relu4_1 -> conv4_1 (in-place)
I0517 03:49:15.836093   494 net.cpp:122] Setting up relu4_1
I0517 03:49:15.836107   494 net.cpp:129] Top shape: 1 512 28 28 (401408)
I0517 03:49:15.836112   494 net.cpp:137] Memory required for data: 105771020
I0517 03:49:15.836117   494 layer_factory.hpp:77] Creating layer conv4_2
I0517 03:49:15.836128   494 net.cpp:84] Creating Layer conv4_2
I0517 03:49:15.836134   494 net.cpp:406] conv4_2 <- conv4_1
I0517 03:49:15.836144   494 net.cpp:380] conv4_2 -> conv4_2
I0517 03:49:15.841423   494 net.cpp:122] Setting up conv4_2
I0517 03:49:15.841445   494 net.cpp:129] Top shape: 1 512 28 28 (401408)
I0517 03:49:15.841450   494 net.cpp:137] Memory required for data: 107376652
I0517 03:49:15.841467   494 layer_factory.hpp:77] Creating layer relu4_2
I0517 03:49:15.841478   494 net.cpp:84] Creating Layer relu4_2
I0517 03:49:15.841485   494 net.cpp:406] relu4_2 <- conv4_2
I0517 03:49:15.841495   494 net.cpp:367] relu4_2 -> conv4_2 (in-place)
I0517 03:49:15.841644   494 net.cpp:122] Setting up relu4_2
I0517 03:49:15.841655   494 net.cpp:129] Top shape: 1 512 28 28 (401408)
I0517 03:49:15.841660   494 net.cpp:137] Memory required for data: 108982284
I0517 03:49:15.841665   494 layer_factory.hpp:77] Creating layer conv4_3
I0517 03:49:15.841676   494 net.cpp:84] Creating Layer conv4_3
I0517 03:49:15.841682   494 net.cpp:406] conv4_3 <- conv4_2
I0517 03:49:15.841691   494 net.cpp:380] conv4_3 -> conv4_3
I0517 03:49:15.846566   494 net.cpp:122] Setting up conv4_3
I0517 03:49:15.846586   494 net.cpp:129] Top shape: 1 512 28 28 (401408)
I0517 03:49:15.846591   494 net.cpp:137] Memory required for data: 110587916
I0517 03:49:15.846601   494 layer_factory.hpp:77] Creating layer relu4_3
I0517 03:49:15.846611   494 net.cpp:84] Creating Layer relu4_3
I0517 03:49:15.846619   494 net.cpp:406] relu4_3 <- conv4_3
I0517 03:49:15.846629   494 net.cpp:367] relu4_3 -> conv4_3 (in-place)
I0517 03:49:15.846773   494 net.cpp:122] Setting up relu4_3
I0517 03:49:15.846784   494 net.cpp:129] Top shape: 1 512 28 28 (401408)
I0517 03:49:15.846788   494 net.cpp:137] Memory required for data: 112193548
I0517 03:49:15.846793   494 layer_factory.hpp:77] Creating layer pool4
I0517 03:49:15.846803   494 net.cpp:84] Creating Layer pool4
I0517 03:49:15.846809   494 net.cpp:406] pool4 <- conv4_3
I0517 03:49:15.846819   494 net.cpp:380] pool4 -> pool4
I0517 03:49:15.846874   494 net.cpp:122] Setting up pool4
I0517 03:49:15.846884   494 net.cpp:129] Top shape: 1 512 14 14 (100352)
I0517 03:49:15.846889   494 net.cpp:137] Memory required for data: 112594956
I0517 03:49:15.846894   494 layer_factory.hpp:77] Creating layer conv5_1
I0517 03:49:15.846907   494 net.cpp:84] Creating Layer conv5_1
I0517 03:49:15.846912   494 net.cpp:406] conv5_1 <- pool4
I0517 03:49:15.846920   494 net.cpp:380] conv5_1 -> conv5_1
I0517 03:49:15.851404   494 net.cpp:122] Setting up conv5_1
I0517 03:49:15.851424   494 net.cpp:129] Top shape: 1 512 14 14 (100352)
I0517 03:49:15.851430   494 net.cpp:137] Memory required for data: 112996364
I0517 03:49:15.851449   494 layer_factory.hpp:77] Creating layer relu5_1
I0517 03:49:15.851459   494 net.cpp:84] Creating Layer relu5_1
I0517 03:49:15.851466   494 net.cpp:406] relu5_1 <- conv5_1
I0517 03:49:15.851476   494 net.cpp:367] relu5_1 -> conv5_1 (in-place)
I0517 03:49:15.851634   494 net.cpp:122] Setting up relu5_1
I0517 03:49:15.851644   494 net.cpp:129] Top shape: 1 512 14 14 (100352)
I0517 03:49:15.851649   494 net.cpp:137] Memory required for data: 113397772
I0517 03:49:15.851655   494 layer_factory.hpp:77] Creating layer conv5_2
I0517 03:49:15.851667   494 net.cpp:84] Creating Layer conv5_2
I0517 03:49:15.851673   494 net.cpp:406] conv5_2 <- conv5_1
I0517 03:49:15.851683   494 net.cpp:380] conv5_2 -> conv5_2
I0517 03:49:15.858676   494 net.cpp:122] Setting up conv5_2
I0517 03:49:15.858696   494 net.cpp:129] Top shape: 1 512 14 14 (100352)
I0517 03:49:15.858701   494 net.cpp:137] Memory required for data: 113799180
I0517 03:49:15.858711   494 layer_factory.hpp:77] Creating layer relu5_2
I0517 03:49:15.858721   494 net.cpp:84] Creating Layer relu5_2
I0517 03:49:15.858727   494 net.cpp:406] relu5_2 <- conv5_2
I0517 03:49:15.858738   494 net.cpp:367] relu5_2 -> conv5_2 (in-place)
I0517 03:49:15.858898   494 net.cpp:122] Setting up relu5_2
I0517 03:49:15.858911   494 net.cpp:129] Top shape: 1 512 14 14 (100352)
I0517 03:49:15.858914   494 net.cpp:137] Memory required for data: 114200588
I0517 03:49:15.858922   494 layer_factory.hpp:77] Creating layer conv5_3
I0517 03:49:15.858933   494 net.cpp:84] Creating Layer conv5_3
I0517 03:49:15.858939   494 net.cpp:406] conv5_3 <- conv5_2
I0517 03:49:15.858948   494 net.cpp:380] conv5_3 -> conv5_3
I0517 03:49:15.864277   494 net.cpp:122] Setting up conv5_3
I0517 03:49:15.864296   494 net.cpp:129] Top shape: 1 512 14 14 (100352)
I0517 03:49:15.864301   494 net.cpp:137] Memory required for data: 114601996
I0517 03:49:15.864311   494 layer_factory.hpp:77] Creating layer relu5_3
I0517 03:49:15.864331   494 net.cpp:84] Creating Layer relu5_3
I0517 03:49:15.864338   494 net.cpp:406] relu5_3 <- conv5_3
I0517 03:49:15.864347   494 net.cpp:367] relu5_3 -> conv5_3 (in-place)
I0517 03:49:15.864759   494 net.cpp:122] Setting up relu5_3
I0517 03:49:15.864773   494 net.cpp:129] Top shape: 1 512 14 14 (100352)
I0517 03:49:15.864778   494 net.cpp:137] Memory required for data: 115003404
I0517 03:49:15.864783   494 layer_factory.hpp:77] Creating layer conv5_3_relu5_3_0_split
I0517 03:49:15.864792   494 net.cpp:84] Creating Layer conv5_3_relu5_3_0_split
I0517 03:49:15.864799   494 net.cpp:406] conv5_3_relu5_3_0_split <- conv5_3
I0517 03:49:15.864805   494 net.cpp:380] conv5_3_relu5_3_0_split -> conv5_3_relu5_3_0_split_0
I0517 03:49:15.864814   494 net.cpp:380] conv5_3_relu5_3_0_split -> conv5_3_relu5_3_0_split_1
I0517 03:49:15.864878   494 net.cpp:122] Setting up conv5_3_relu5_3_0_split
I0517 03:49:15.864887   494 net.cpp:129] Top shape: 1 512 14 14 (100352)
I0517 03:49:15.864893   494 net.cpp:129] Top shape: 1 512 14 14 (100352)
I0517 03:49:15.864898   494 net.cpp:137] Memory required for data: 115806220
I0517 03:49:15.864903   494 layer_factory.hpp:77] Creating layer rpn_conv/3x3
I0517 03:49:15.864920   494 net.cpp:84] Creating Layer rpn_conv/3x3
I0517 03:49:15.864925   494 net.cpp:406] rpn_conv/3x3 <- conv5_3_relu5_3_0_split_0
I0517 03:49:15.864934   494 net.cpp:380] rpn_conv/3x3 -> rpn/output
I0517 03:49:15.927211   494 net.cpp:122] Setting up rpn_conv/3x3
I0517 03:49:15.927243   494 net.cpp:129] Top shape: 1 512 14 14 (100352)
I0517 03:49:15.927248   494 net.cpp:137] Memory required for data: 116207628
I0517 03:49:15.927260   494 layer_factory.hpp:77] Creating layer rpn_relu/3x3
I0517 03:49:15.927279   494 net.cpp:84] Creating Layer rpn_relu/3x3
I0517 03:49:15.927287   494 net.cpp:406] rpn_relu/3x3 <- rpn/output
I0517 03:49:15.927300   494 net.cpp:367] rpn_relu/3x3 -> rpn/output (in-place)
I0517 03:49:15.927846   494 net.cpp:122] Setting up rpn_relu/3x3
I0517 03:49:15.927860   494 net.cpp:129] Top shape: 1 512 14 14 (100352)
I0517 03:49:15.927865   494 net.cpp:137] Memory required for data: 116609036
I0517 03:49:15.927870   494 layer_factory.hpp:77] Creating layer rpn/output_rpn_relu/3x3_0_split
I0517 03:49:15.927882   494 net.cpp:84] Creating Layer rpn/output_rpn_relu/3x3_0_split
I0517 03:49:15.927889   494 net.cpp:406] rpn/output_rpn_relu/3x3_0_split <- rpn/output
I0517 03:49:15.927899   494 net.cpp:380] rpn/output_rpn_relu/3x3_0_split -> rpn/output_rpn_relu/3x3_0_split_0
I0517 03:49:15.927909   494 net.cpp:380] rpn/output_rpn_relu/3x3_0_split -> rpn/output_rpn_relu/3x3_0_split_1
I0517 03:49:15.927974   494 net.cpp:122] Setting up rpn/output_rpn_relu/3x3_0_split
I0517 03:49:15.927983   494 net.cpp:129] Top shape: 1 512 14 14 (100352)
I0517 03:49:15.927989   494 net.cpp:129] Top shape: 1 512 14 14 (100352)
I0517 03:49:15.927994   494 net.cpp:137] Memory required for data: 117411852
I0517 03:49:15.927999   494 layer_factory.hpp:77] Creating layer rpn_cls_score
I0517 03:49:15.928016   494 net.cpp:84] Creating Layer rpn_cls_score
I0517 03:49:15.928022   494 net.cpp:406] rpn_cls_score <- rpn/output_rpn_relu/3x3_0_split_0
I0517 03:49:15.928032   494 net.cpp:380] rpn_cls_score -> rpn_cls_score
I0517 03:49:15.929558   494 net.cpp:122] Setting up rpn_cls_score
I0517 03:49:15.929571   494 net.cpp:129] Top shape: 1 18 14 14 (3528)
I0517 03:49:15.929576   494 net.cpp:137] Memory required for data: 117425964
I0517 03:49:15.929589   494 layer_factory.hpp:77] Creating layer rpn_bbox_pred
I0517 03:49:15.929605   494 net.cpp:84] Creating Layer rpn_bbox_pred
I0517 03:49:15.929610   494 net.cpp:406] rpn_bbox_pred <- rpn/output_rpn_relu/3x3_0_split_1
I0517 03:49:15.929620   494 net.cpp:380] rpn_bbox_pred -> rpn_bbox_pred
I0517 03:49:15.930819   494 net.cpp:122] Setting up rpn_bbox_pred
I0517 03:49:15.930832   494 net.cpp:129] Top shape: 1 36 14 14 (7056)
I0517 03:49:15.930838   494 net.cpp:137] Memory required for data: 117454188
I0517 03:49:15.930848   494 layer_factory.hpp:77] Creating layer rpn_cls_score_reshape
I0517 03:49:15.930865   494 net.cpp:84] Creating Layer rpn_cls_score_reshape
I0517 03:49:15.930871   494 net.cpp:406] rpn_cls_score_reshape <- rpn_cls_score
I0517 03:49:15.930881   494 net.cpp:380] rpn_cls_score_reshape -> rpn_cls_score_reshape
I0517 03:49:15.930922   494 net.cpp:122] Setting up rpn_cls_score_reshape
I0517 03:49:15.930932   494 net.cpp:129] Top shape: 1 2 126 14 (3528)
I0517 03:49:15.930938   494 net.cpp:137] Memory required for data: 117468300
I0517 03:49:15.930943   494 layer_factory.hpp:77] Creating layer rpn_cls_prob
I0517 03:49:15.930953   494 net.cpp:84] Creating Layer rpn_cls_prob
I0517 03:49:15.930959   494 net.cpp:406] rpn_cls_prob <- rpn_cls_score_reshape
I0517 03:49:15.930966   494 net.cpp:380] rpn_cls_prob -> rpn_cls_prob
I0517 03:49:15.931469   494 net.cpp:122] Setting up rpn_cls_prob
I0517 03:49:15.931483   494 net.cpp:129] Top shape: 1 2 126 14 (3528)
I0517 03:49:15.931489   494 net.cpp:137] Memory required for data: 117482412
I0517 03:49:15.931494   494 layer_factory.hpp:77] Creating layer rpn_cls_prob_reshape
I0517 03:49:15.931504   494 net.cpp:84] Creating Layer rpn_cls_prob_reshape
I0517 03:49:15.931510   494 net.cpp:406] rpn_cls_prob_reshape <- rpn_cls_prob
I0517 03:49:15.931521   494 net.cpp:380] rpn_cls_prob_reshape -> rpn_cls_prob_reshape
I0517 03:49:15.931560   494 net.cpp:122] Setting up rpn_cls_prob_reshape
I0517 03:49:15.931568   494 net.cpp:129] Top shape: 1 18 14 14 (3528)
I0517 03:49:15.931573   494 net.cpp:137] Memory required for data: 117496524
I0517 03:49:15.931578   494 layer_factory.hpp:77] Creating layer proposal
I0517 03:49:15.931973   494 net.cpp:84] Creating Layer proposal
I0517 03:49:15.931987   494 net.cpp:406] proposal <- rpn_cls_prob_reshape
I0517 03:49:15.931993   494 net.cpp:406] proposal <- rpn_bbox_pred
I0517 03:49:15.932001   494 net.cpp:406] proposal <- im_info
I0517 03:49:15.932010   494 net.cpp:380] proposal -> rois
I0517 03:49:15.932605   494 net.cpp:122] Setting up proposal
I0517 03:49:15.932618   494 net.cpp:129] Top shape: 1 5 (5)
I0517 03:49:15.932624   494 net.cpp:137] Memory required for data: 117496544
I0517 03:49:15.932629   494 layer_factory.hpp:77] Creating layer roi_pool5
I0517 03:49:15.932644   494 net.cpp:84] Creating Layer roi_pool5
I0517 03:49:15.932651   494 net.cpp:406] roi_pool5 <- conv5_3_relu5_3_0_split_1
I0517 03:49:15.932659   494 net.cpp:406] roi_pool5 <- rois
I0517 03:49:15.932667   494 net.cpp:380] roi_pool5 -> pool5
I0517 03:49:15.932677   494 roi_pooling_layer.cpp:30] Spatial scale: 0.0625
I0517 03:49:15.932737   494 net.cpp:122] Setting up roi_pool5
I0517 03:49:15.932747   494 net.cpp:129] Top shape: 1 512 7 7 (25088)
I0517 03:49:15.932752   494 net.cpp:137] Memory required for data: 117596896
I0517 03:49:15.932759   494 layer_factory.hpp:77] Creating layer fc6
I0517 03:49:15.932768   494 net.cpp:84] Creating Layer fc6
I0517 03:49:15.932775   494 net.cpp:406] fc6 <- pool5
I0517 03:49:15.932785   494 net.cpp:380] fc6 -> fc6
I0517 03:49:16.107755   494 net.cpp:122] Setting up fc6
I0517 03:49:16.107792   494 net.cpp:129] Top shape: 1 4096 (4096)
I0517 03:49:16.107797   494 net.cpp:137] Memory required for data: 117613280
I0517 03:49:16.107817   494 layer_factory.hpp:77] Creating layer relu6
I0517 03:49:16.107831   494 net.cpp:84] Creating Layer relu6
I0517 03:49:16.107838   494 net.cpp:406] relu6 <- fc6
I0517 03:49:16.107851   494 net.cpp:367] relu6 -> fc6 (in-place)
I0517 03:49:16.108064   494 net.cpp:122] Setting up relu6
I0517 03:49:16.108077   494 net.cpp:129] Top shape: 1 4096 (4096)
I0517 03:49:16.108081   494 net.cpp:137] Memory required for data: 117629664
I0517 03:49:16.108086   494 layer_factory.hpp:77] Creating layer drop6
I0517 03:49:16.108104   494 net.cpp:84] Creating Layer drop6
I0517 03:49:16.108110   494 net.cpp:406] drop6 <- fc6
I0517 03:49:16.108119   494 net.cpp:367] drop6 -> fc6 (in-place)
I0517 03:49:16.108157   494 net.cpp:122] Setting up drop6
I0517 03:49:16.108165   494 net.cpp:129] Top shape: 1 4096 (4096)
I0517 03:49:16.108170   494 net.cpp:137] Memory required for data: 117646048
I0517 03:49:16.108175   494 layer_factory.hpp:77] Creating layer fc7
I0517 03:49:16.108188   494 net.cpp:84] Creating Layer fc7
I0517 03:49:16.108193   494 net.cpp:406] fc7 <- fc6
I0517 03:49:16.108201   494 net.cpp:380] fc7 -> fc7
I0517 03:49:16.138373   494 net.cpp:122] Setting up fc7
I0517 03:49:16.138412   494 net.cpp:129] Top shape: 1 4096 (4096)
I0517 03:49:16.138418   494 net.cpp:137] Memory required for data: 117662432
I0517 03:49:16.138430   494 layer_factory.hpp:77] Creating layer relu7
I0517 03:49:16.138442   494 net.cpp:84] Creating Layer relu7
I0517 03:49:16.138451   494 net.cpp:406] relu7 <- fc7
I0517 03:49:16.138460   494 net.cpp:367] relu7 -> fc7 (in-place)
I0517 03:49:16.138677   494 net.cpp:122] Setting up relu7
I0517 03:49:16.138689   494 net.cpp:129] Top shape: 1 4096 (4096)
I0517 03:49:16.138695   494 net.cpp:137] Memory required for data: 117678816
I0517 03:49:16.138700   494 layer_factory.hpp:77] Creating layer drop7
I0517 03:49:16.138710   494 net.cpp:84] Creating Layer drop7
I0517 03:49:16.138715   494 net.cpp:406] drop7 <- fc7
I0517 03:49:16.138726   494 net.cpp:367] drop7 -> fc7 (in-place)
I0517 03:49:16.138766   494 net.cpp:122] Setting up drop7
I0517 03:49:16.138774   494 net.cpp:129] Top shape: 1 4096 (4096)
I0517 03:49:16.138778   494 net.cpp:137] Memory required for data: 117695200
I0517 03:49:16.138784   494 layer_factory.hpp:77] Creating layer fc7_drop7_0_split
I0517 03:49:16.138793   494 net.cpp:84] Creating Layer fc7_drop7_0_split
I0517 03:49:16.138799   494 net.cpp:406] fc7_drop7_0_split <- fc7
I0517 03:49:16.138808   494 net.cpp:380] fc7_drop7_0_split -> fc7_drop7_0_split_0
I0517 03:49:16.138816   494 net.cpp:380] fc7_drop7_0_split -> fc7_drop7_0_split_1
I0517 03:49:16.138865   494 net.cpp:122] Setting up fc7_drop7_0_split
I0517 03:49:16.138875   494 net.cpp:129] Top shape: 1 4096 (4096)
I0517 03:49:16.138880   494 net.cpp:129] Top shape: 1 4096 (4096)
I0517 03:49:16.138885   494 net.cpp:137] Memory required for data: 117727968
I0517 03:49:16.138890   494 layer_factory.hpp:77] Creating layer cls_score
I0517 03:49:16.138901   494 net.cpp:84] Creating Layer cls_score
I0517 03:49:16.138907   494 net.cpp:406] cls_score <- fc7_drop7_0_split_0
I0517 03:49:16.138917   494 net.cpp:380] cls_score -> cls_score
I0517 03:49:16.139266   494 net.cpp:122] Setting up cls_score
I0517 03:49:16.139277   494 net.cpp:129] Top shape: 1 2 (2)
I0517 03:49:16.139281   494 net.cpp:137] Memory required for data: 117727976
I0517 03:49:16.139289   494 layer_factory.hpp:77] Creating layer bbox_pred
I0517 03:49:16.139299   494 net.cpp:84] Creating Layer bbox_pred
I0517 03:49:16.139304   494 net.cpp:406] bbox_pred <- fc7_drop7_0_split_1
I0517 03:49:16.139315   494 net.cpp:380] bbox_pred -> bbox_pred
I0517 03:49:16.140550   494 net.cpp:122] Setting up bbox_pred
I0517 03:49:16.140578   494 net.cpp:129] Top shape: 1 8 (8)
I0517 03:49:16.140581   494 net.cpp:137] Memory required for data: 117728008
I0517 03:49:16.140589   494 layer_factory.hpp:77] Creating layer cls_prob
I0517 03:49:16.140599   494 net.cpp:84] Creating Layer cls_prob
I0517 03:49:16.140606   494 net.cpp:406] cls_prob <- cls_score
I0517 03:49:16.140614   494 net.cpp:380] cls_prob -> cls_prob
I0517 03:49:16.141268   494 net.cpp:122] Setting up cls_prob
I0517 03:49:16.141291   494 net.cpp:129] Top shape: 1 2 (2)
I0517 03:49:16.141295   494 net.cpp:137] Memory required for data: 117728016
I0517 03:49:16.141299   494 net.cpp:200] cls_prob does not need backward computation.
I0517 03:49:16.141301   494 net.cpp:200] bbox_pred does not need backward computation.
I0517 03:49:16.141304   494 net.cpp:200] cls_score does not need backward computation.
I0517 03:49:16.141307   494 net.cpp:200] fc7_drop7_0_split does not need backward computation.
…
