…
snapshot_prefix: "vgg16_faster_rcnn"
average_loss: 100
iter_size: 2
I0519 18:39:43.005005  3749 solver.cpp:77] Creating training net from train_net file: models/voc_person/VGG16/faster_rcnn_end2end/train.prototxt
I0519 18:39:43.005901  3749 net.cpp:51] Initializing net from parameters: 
name: "VGG_ILSVRC_16_layers"
state {
  phase: TRAIN
}
layer {
  name: "input-data"
  type: "Python"
  top: "data"
  top: "im_info"
  top: "gt_boxes"
  python_param {
    module: "roi_data_layer.layer"
    layer: "RoIDataLayer"
    param_str: "\'num_classes\': 2"
  }
}
layer {
  name: "conv1_1"
  type: "Convolution"
  bottom: "data"
  top: "conv1_1"
  param {
    lr_mult: 0
    decay_mult: 0
  }
  param {
    lr_mult: 0
    decay_mult: 0
  }
  convolution_param {
    num_output: 64
    pad: 1
    kernel_size: 3
  }
}
layer {
  name: "relu1_1"
  type: "ReLU"
  bottom: "conv1_1"
  top: "conv1_1"
}
layer {
  name: "conv1_2"
  type: "Convolution"
  bottom: "conv1_1"
  top: "conv1_2"
  param {
    lr_mult: 0
    decay_mult: 0
  }
  param {
    lr_mult: 0
    decay_mult: 0
  }
  convolution_param {
    num_output: 64
    pad: 1
    kernel_size: 3
  }
}
layer {
  name: "relu1_2"
  type: "ReLU"
  bottom: "conv1_2"
  top: "conv1_2"
}
layer {
  name: "pool1"
  type: "Pooling"
  bottom: "conv1_2"
  top: "pool1"
  pooling_param {
    pool: MAX
    kernel_size: 2
    stride: 2
  }
}
layer {
  name: "conv2_1"
  type: "Convolution"
  bottom: "pool1"
  top: "conv2_1"
  param {
    lr_mult: 0
    decay_mult: 0
  }
  param {
    lr_mult: 0
    decay_mult: 0
  }
  convolution_param {
    num_output: 128
    pad: 1
    kernel_size: 3
  }
}
layer {
  name: "relu2_1"
  type: "ReLU"
  bottom: "conv2_1"
  top: "conv2_1"
}
layer {
  name: "conv2_2"
  type: "Convolution"
  bottom: "conv2_1"
  top: "conv2_2"
  param {
    lr_mult: 0
    decay_mult: 0
  }
  param {
    lr_mult: 0
    decay_mult: 0
  }
  convolution_param {
    num_output: 128
    pad: 1
    kernel_size: 3
  }
}
layer {
  name: "relu2_2"
  type: "ReLU"
  bottom: "conv2_2"
  top: "conv2_2"
}
layer {
  name: "pool2"
  type: "Pooling"
  bottom: "conv2_2"
  top: "pool2"
  pooling_param {
    pool: MAX
    kernel_size: 2
    stride: 2
  }
}
layer {
  name: "conv3_1"
  type: "Convolution"
  bottom: "pool2"
  top: "conv3_1"
  param {
    lr_mult: 1
  }
  param {
    lr_mult: 2
  }
  convolution_param {
    num_output: 256
    pad: 1
    kernel_size: 3
  }
}
layer {
  name: "relu3_1"
  type: "ReLU"
  bottom: "conv3_1"
  top: "conv3_1"
}
layer {
  name: "conv3_2"
  type: "Convolution"
  bottom: "conv3_1"
  top: "conv3_2"
  param {
    lr_mult: 1
  }
  param {
    lr_mult: 2
  }
  convolution_param {
    num_output: 256
    pad: 1
    kernel_size: 3
  }
}
layer {
  name: "relu3_2"
  type: "ReLU"
  bottom: "conv3_2"
  top: "conv3_2"
}
layer {
  name: "conv3_3"
  type: "Convolution"
  bottom: "conv3_2"
  top: "conv3_3"
  param {
    lr_mult: 1
  }
  param {
    lr_mult: 2
  }
  convolution_param {
    num_output: 256
    pad: 1
    kernel_size: 3
  }
}
layer {
  name: "relu3_3"
  type: "ReLU"
  bottom: "conv3_3"
  top: "conv3_3"
}
layer {
  name: "pool3"
  type: "Pooling"
  bottom: "conv3_3"
  top: "pool3"
  pooling_param {
    pool: MAX
    kernel_size: 2
    stride: 2
  }
}
layer {
  name: "conv4_1"
  type: "Convolution"
  bottom: "pool3"
  top: "conv4_1"
  param {
    lr_mult: 1
  }
  param {
    lr_mult: 2
  }
  convolution_param {
    num_output: 512
    pad: 1
    kernel_size: 3
  }
}
layer {
  name: "relu4_1"
  type: "ReLU"
  bottom: "conv4_1"
  top: "conv4_1"
}
layer {
  name: "conv4_2"
  type: "Convolution"
  bottom: "conv4_1"
  top: "conv4_2"
  param {
    lr_mult: 1
  }
  param {
    lr_mult: 2
  }
  convolution_param {
    num_output: 512
    pad: 1
    kernel_size: 3
  }
}
layer {
  name: "relu4_2"
  type: "ReLU"
  bottom: "conv4_2"
  top: "conv4_2"
}
layer {
  name: "conv4_3"
  type: "Convolution"
  bottom: "conv4_2"
  top: "conv4_3"
  param {
    lr_mult: 1
  }
  param {
    lr_mult: 2
  }
  convolution_param {
    num_output: 512
    pad: 1
    kernel_size: 3
  }
}
layer {
  name: "relu4_3"
  type: "ReLU"
  bottom: "conv4_3"
  top: "conv4_3"
}
layer {
  name: "pool4"
  type: "Pooling"
  bottom: "conv4_3"
  top: "pool4"
  pooling_param {
    pool: MAX
    kernel_size: 2
    stride: 2
  }
}
layer {
  name: "conv5_1"
  type: "Convolution"
  bottom: "pool4"
  top: "conv5_1"
  param {
    lr_mult: 1
  }
  param {
    lr_mult: 2
  }
  convolution_param {
    num_output: 512
    pad: 1
    kernel_size: 3
  }
}
layer {
  name: "relu5_1"
  type: "ReLU"
  bottom: "conv5_1"
  top: "conv5_1"
}
layer {
  name: "conv5_2"
  type: "Convolution"
  bottom: "conv5_1"
  top: "conv5_2"
  param {
    lr_mult: 1
  }
  param {
    lr_mult: 2
  }
  convolution_param {
    num_output: 512
    pad: 1
    kernel_size: 3
  }
}
layer {
  name: "relu5_2"
  type: "ReLU"
  bottom: "conv5_2"
  top: "conv5_2"
}
layer {
  name: "conv5_3"
  type: "Convolution"
  bottom: "conv5_2"
  top: "conv5_3"
  param {
    lr_mult: 1
  }
  param {
    lr_mult: 2
  }
  convolution_param {
    num_output: 512
    pad: 1
    kernel_size: 3
  }
}
layer {
  name: "relu5_3"
  type: "ReLU"
  bottom: "conv5_3"
  top: "conv5_3"
}
layer {
  name: "rpn_conv/3x3"
  type: "Convolution"
  bottom: "conv5_3"
  top: "rpn/output"
  param {
    lr_mult: 1
  }
  param {
    lr_mult: 2
  }
  convolution_param {
    num_output: 512
    pad: 1
    kernel_size: 3
    stride: 1
    weight_filler {
      type: "gaussian"
      std: 0.01
    }
    bias_filler {
      type: "constant"
      value: 0
    }
  }
}
layer {
  name: "rpn_relu/3x3"
  type: "ReLU"
  bottom: "rpn/output"
  top: "rpn/output"
}
layer {
  name: "rpn_cls_score"
  type: "Convolution"
  bottom: "rpn/output"
  top: "rpn_cls_score"
  param {
    lr_mult: 1
  }
  param {
    lr_mult: 2
  }
  convolution_param {
    num_output: 18
    pad: 0
    kernel_size: 1
    stride: 1
    weight_filler {
      type: "gaussian"
      std: 0.01
    }
    bias_filler {
      type: "constant"
      value: 0
    }
  }
}
layer {
  name: "rpn_bbox_pred"
  type: "Convolution"
  bottom: "rpn/output"
  top: "rpn_bbox_pred"
  param {
    lr_mult: 1
  }
  param {
    lr_mult: 2
  }
  convolution_param {
    num_output: 36
    pad: 0
    kernel_size: 1
    stride: 1
    weight_filler {
      type: "gaussian"
      std: 0.01
    }
    bias_filler {
      type: "constant"
      value: 0
    }
  }
}
layer {
  name: "rpn_cls_score_reshape"
  type: "Reshape"
  bottom: "rpn_cls_score"
  top: "rpn_cls_score_reshape"
  reshape_param {
    shape {
      dim: 0
      dim: 2
      dim: -1
      dim: 0
    }
  }
}
layer {
  name: "rpn-data"
  type: "Python"
  bottom: "rpn_cls_score"
  bottom: "gt_boxes"
  bottom: "im_info"
  bottom: "data"
  top: "rpn_labels"
  top: "rpn_bbox_targets"
  top: "rpn_bbox_inside_weights"
  top: "rpn_bbox_outside_weights"
  python_param {
    module: "rpn.anchor_target_layer"
    layer: "AnchorTargetLayer"
    param_str: "\'feat_stride\': 16"
  }
}
layer {
  name: "rpn_loss_cls"
  type: "SoftmaxWithLoss"
  bottom: "rpn_cls_score_reshape"
  bottom: "rpn_labels"
  top: "rpn_cls_loss"
  loss_weight: 1
  propagate_down: true
  propagate_down: false
  loss_param {
    ignore_label: -1
    normalize: true
  }
}
layer {
  name: "rpn_loss_bbox"
  type: "SmoothL1Loss"
  bottom: "rpn_bbox_pred"
  bottom: "rpn_bbox_targets"
  bottom: "rpn_bbox_inside_weights"
  bottom: "rpn_bbox_outside_weights"
  top: "rpn_loss_bbox"
  loss_weight: 1
  smooth_l1_loss_param {
    sigma: 3
  }
}
layer {
  name: "rpn_cls_prob"
  type: "Softmax"
  bottom: "rpn_cls_score_reshape"
  top: "rpn_cls_prob"
}
layer {
  name: "rpn_cls_prob_reshape"
  type: "Reshape"
  bottom: "rpn_cls_prob"
  top: "rpn_cls_prob_reshape"
  reshape_param {
    shape {
      dim: 0
      dim: 18
      dim: -1
      dim: 0
    }
  }
}
layer {
  name: "proposal"
  type: "Python"
  bottom: "rpn_cls_prob_reshape"
  bottom: "rpn_bbox_pred"
  bottom: "im_info"
  top: "rpn_rois"
  python_param {
    module: "rpn.proposal_layer"
    layer: "ProposalLayer"
    param_str: "\'feat_stride\': 16"
  }
}
layer {
  name: "roi-data"
  type: "Python"
  bottom: "rpn_rois"
  bottom: "gt_boxes"
  top: "rois"
  top: "labels"
  top: "bbox_targets"
  top: "bbox_inside_weights"
  top: "bbox_outside_weights"
  python_param {
    module: "rpn.proposal_target_layer"
    layer: "ProposalTargetLayer"
    param_str: "\'num_classes\': 2"
  }
}
layer {
  name: "roi_pool5"
  type: "ROIPooling"
  bottom: "conv5_3"
  bottom: "rois"
  top: "pool5"
  roi_pooling_param {
    pooled_h: 7
    pooled_w: 7
    spatial_scale: 0.0625
  }
}
layer {
  name: "fc6"
  type: "InnerProduct"
  bottom: "pool5"
  top: "fc6"
  param {
    lr_mult: 1
  }
  param {
    lr_mult: 2
  }
  inner_product_param {
    num_output: 4096
  }
}
layer {
  name: "relu6"
  type: "ReLU"
  bottom: "fc6"
  top: "fc6"
}
layer {
  name: "drop6"
  type: "Dropout"
  bottom: "fc6"
  top: "fc6"
  dropout_param {
    dropout_ratio: 0.5
  }
}
layer {
  name: "fc7"
  type: "InnerProduct"
  bottom: "fc6"
  top: "fc7"
  param {
    lr_mult: 1
  }
  param {
    lr_mult: 2
  }
  inner_product_param {
    num_output: 4096
  }
}
layer {
  name: "relu7"
  type: "ReLU"
  bottom: "fc7"
  top: "fc7"
}
layer {
  name: "drop7"
  type: "Dropout"
  bottom: "fc7"
  top: "fc7"
  dropout_param {
    dropout_ratio: 0.5
  }
}
layer {
  name: "cls_score"
  type: "InnerProduct"
  bottom: "fc7"
  top: "cls_score"
  param {
    lr_mult: 1
  }
  param {
    lr_mult: 2
  }
  inner_product_param {
    num_output: 2
    weight_filler {
      type: "gaussian"
      std: 0.01
    }
    bias_filler {
      type: "constant"
      value: 0
    }
  }
}
layer {
  name: "bbox_pred"
  type: "InnerProduct"
  bottom: "fc7"
  top: "bbox_pred"
  param {
    lr_mult: 1
  }
  param {
    lr_mult: 2
  }
  inner_product_param {
    num_output: 8
    weight_filler {
      type: "gaussian"
      std: 0.001
    }
    bias_filler {
      type: "constant"
      value: 0
    }
  }
}
layer {
  name: "loss_cls"
  type: "SoftmaxWithLoss"
  bottom: "cls_score"
  bottom: "labels"
  top: "loss_cls"
  loss_weight: 1
  propagate_down: true
  propagate_down: false
}
layer {
  name: "loss_bbox"
  type: "SmoothL1Loss"
  bottom: "bbox_pred"
  bottom: "bbox_targets"
  bottom: "bbox_inside_weights"
  bottom: "bbox_outside_weights"
  top: "loss_bbox"
  loss_weight: 1
}
I0519 18:39:43.006114  3749 layer_factory.hpp:77] Creating layer input-data
I0519 18:39:43.044970  3749 net.cpp:84] Creating Layer input-data
I0519 18:39:43.044996  3749 net.cpp:380] input-data -> data
I0519 18:39:43.045009  3749 net.cpp:380] input-data -> im_info
I0519 18:39:43.045017  3749 net.cpp:380] input-data -> gt_boxes
RoiDataLayer: name_to_top: {'gt_boxes': 2, 'data': 0, 'im_info': 1}
I0519 18:39:43.696581  3749 net.cpp:122] Setting up input-data
I0519 18:39:43.696614  3749 net.cpp:129] Top shape: 1 3 300 1000 (900000)
I0519 18:39:43.696621  3749 net.cpp:129] Top shape: 1 3 (3)
I0519 18:39:43.696629  3749 net.cpp:129] Top shape: 1 4 (4)
I0519 18:39:43.696633  3749 net.cpp:137] Memory required for data: 3600028
I0519 18:39:43.696643  3749 layer_factory.hpp:77] Creating layer data_input-data_0_split
I0519 18:39:43.696660  3749 net.cpp:84] Creating Layer data_input-data_0_split
I0519 18:39:43.696667  3749 net.cpp:406] data_input-data_0_split <- data
I0519 18:39:43.696676  3749 net.cpp:380] data_input-data_0_split -> data_input-data_0_split_0
I0519 18:39:43.696688  3749 net.cpp:380] data_input-data_0_split -> data_input-data_0_split_1
I0519 18:39:43.696733  3749 net.cpp:122] Setting up data_input-data_0_split
I0519 18:39:43.696743  3749 net.cpp:129] Top shape: 1 3 300 1000 (900000)
I0519 18:39:43.696748  3749 net.cpp:129] Top shape: 1 3 300 1000 (900000)
I0519 18:39:43.696753  3749 net.cpp:137] Memory required for data: 10800028
I0519 18:39:43.696766  3749 layer_factory.hpp:77] Creating layer im_info_input-data_1_split
I0519 18:39:43.696774  3749 net.cpp:84] Creating Layer im_info_input-data_1_split
I0519 18:39:43.696780  3749 net.cpp:406] im_info_input-data_1_split <- im_info
I0519 18:39:43.696787  3749 net.cpp:380] im_info_input-data_1_split -> im_info_input-data_1_split_0
I0519 18:39:43.696796  3749 net.cpp:380] im_info_input-data_1_split -> im_info_input-data_1_split_1
I0519 18:39:43.696835  3749 net.cpp:122] Setting up im_info_input-data_1_split
I0519 18:39:43.696842  3749 net.cpp:129] Top shape: 1 3 (3)
I0519 18:39:43.696848  3749 net.cpp:129] Top shape: 1 3 (3)
I0519 18:39:43.696853  3749 net.cpp:137] Memory required for data: 10800052
I0519 18:39:43.696858  3749 layer_factory.hpp:77] Creating layer gt_boxes_input-data_2_split
I0519 18:39:43.696864  3749 net.cpp:84] Creating Layer gt_boxes_input-data_2_split
I0519 18:39:43.696871  3749 net.cpp:406] gt_boxes_input-data_2_split <- gt_boxes
I0519 18:39:43.696877  3749 net.cpp:380] gt_boxes_input-data_2_split -> gt_boxes_input-data_2_split_0
I0519 18:39:43.696884  3749 net.cpp:380] gt_boxes_input-data_2_split -> gt_boxes_input-data_2_split_1
I0519 18:39:43.696921  3749 net.cpp:122] Setting up gt_boxes_input-data_2_split
I0519 18:39:43.696928  3749 net.cpp:129] Top shape: 1 4 (4)
I0519 18:39:43.696934  3749 net.cpp:129] Top shape: 1 4 (4)
I0519 18:39:43.696939  3749 net.cpp:137] Memory required for data: 10800084
I0519 18:39:43.696943  3749 layer_factory.hpp:77] Creating layer conv1_1
I0519 18:39:43.696955  3749 net.cpp:84] Creating Layer conv1_1
I0519 18:39:43.696960  3749 net.cpp:406] conv1_1 <- data_input-data_0_split_0
I0519 18:39:43.696966  3749 net.cpp:380] conv1_1 -> conv1_1
I0519 18:39:43.859434  3749 net.cpp:122] Setting up conv1_1
I0519 18:39:43.859462  3749 net.cpp:129] Top shape: 1 64 300 1000 (19200000)
I0519 18:39:43.859468  3749 net.cpp:137] Memory required for data: 87600084
I0519 18:39:43.859484  3749 layer_factory.hpp:77] Creating layer relu1_1
I0519 18:39:43.859498  3749 net.cpp:84] Creating Layer relu1_1
I0519 18:39:43.859505  3749 net.cpp:406] relu1_1 <- conv1_1
I0519 18:39:43.859514  3749 net.cpp:367] relu1_1 -> conv1_1 (in-place)
I0519 18:39:43.859887  3749 net.cpp:122] Setting up relu1_1
I0519 18:39:43.859900  3749 net.cpp:129] Top shape: 1 64 300 1000 (19200000)
I0519 18:39:43.859905  3749 net.cpp:137] Memory required for data: 164400084
I0519 18:39:43.859910  3749 layer_factory.hpp:77] Creating layer conv1_2
I0519 18:39:43.859922  3749 net.cpp:84] Creating Layer conv1_2
I0519 18:39:43.859928  3749 net.cpp:406] conv1_2 <- conv1_1
I0519 18:39:43.859936  3749 net.cpp:380] conv1_2 -> conv1_2
I0519 18:39:43.862206  3749 net.cpp:122] Setting up conv1_2
I0519 18:39:43.862221  3749 net.cpp:129] Top shape: 1 64 300 1000 (19200000)
I0519 18:39:43.862226  3749 net.cpp:137] Memory required for data: 241200084
I0519 18:39:43.862236  3749 layer_factory.hpp:77] Creating layer relu1_2
I0519 18:39:43.862244  3749 net.cpp:84] Creating Layer relu1_2
I0519 18:39:43.862251  3749 net.cpp:406] relu1_2 <- conv1_2
I0519 18:39:43.862258  3749 net.cpp:367] relu1_2 -> conv1_2 (in-place)
I0519 18:39:43.862638  3749 net.cpp:122] Setting up relu1_2
I0519 18:39:43.862651  3749 net.cpp:129] Top shape: 1 64 300 1000 (19200000)
I0519 18:39:43.862656  3749 net.cpp:137] Memory required for data: 318000084
I0519 18:39:43.862661  3749 layer_factory.hpp:77] Creating layer pool1
I0519 18:39:43.862673  3749 net.cpp:84] Creating Layer pool1
I0519 18:39:43.862678  3749 net.cpp:406] pool1 <- conv1_2
I0519 18:39:43.862686  3749 net.cpp:380] pool1 -> pool1
I0519 18:39:43.862740  3749 net.cpp:122] Setting up pool1
I0519 18:39:43.862748  3749 net.cpp:129] Top shape: 1 64 150 500 (4800000)
I0519 18:39:43.862752  3749 net.cpp:137] Memory required for data: 337200084
I0519 18:39:43.862757  3749 layer_factory.hpp:77] Creating layer conv2_1
I0519 18:39:43.862768  3749 net.cpp:84] Creating Layer conv2_1
I0519 18:39:43.862773  3749 net.cpp:406] conv2_1 <- pool1
I0519 18:39:43.862782  3749 net.cpp:380] conv2_1 -> conv2_1
I0519 18:39:43.863993  3749 net.cpp:122] Setting up conv2_1
I0519 18:39:43.864007  3749 net.cpp:129] Top shape: 1 128 150 500 (9600000)
I0519 18:39:43.864012  3749 net.cpp:137] Memory required for data: 375600084
I0519 18:39:43.864023  3749 layer_factory.hpp:77] Creating layer relu2_1
I0519 18:39:43.864032  3749 net.cpp:84] Creating Layer relu2_1
I0519 18:39:43.864037  3749 net.cpp:406] relu2_1 <- conv2_1
I0519 18:39:43.864045  3749 net.cpp:367] relu2_1 -> conv2_1 (in-place)
I0519 18:39:43.864186  3749 net.cpp:122] Setting up relu2_1
I0519 18:39:43.864197  3749 net.cpp:129] Top shape: 1 128 150 500 (9600000)
I0519 18:39:43.864202  3749 net.cpp:137] Memory required for data: 414000084
I0519 18:39:43.864207  3749 layer_factory.hpp:77] Creating layer conv2_2
I0519 18:39:43.864219  3749 net.cpp:84] Creating Layer conv2_2
I0519 18:39:43.864224  3749 net.cpp:406] conv2_2 <- conv2_1
I0519 18:39:43.864233  3749 net.cpp:380] conv2_2 -> conv2_2
I0519 18:39:43.865535  3749 net.cpp:122] Setting up conv2_2
I0519 18:39:43.865548  3749 net.cpp:129] Top shape: 1 128 150 500 (9600000)
I0519 18:39:43.865553  3749 net.cpp:137] Memory required for data: 452400084
I0519 18:39:43.865561  3749 layer_factory.hpp:77] Creating layer relu2_2
I0519 18:39:43.865571  3749 net.cpp:84] Creating Layer relu2_2
I0519 18:39:43.865576  3749 net.cpp:406] relu2_2 <- conv2_2
I0519 18:39:43.865586  3749 net.cpp:367] relu2_2 -> conv2_2 (in-place)
I0519 18:39:43.865726  3749 net.cpp:122] Setting up relu2_2
I0519 18:39:43.865736  3749 net.cpp:129] Top shape: 1 128 150 500 (9600000)
I0519 18:39:43.865741  3749 net.cpp:137] Memory required for data: 490800084
I0519 18:39:43.865747  3749 layer_factory.hpp:77] Creating layer pool2
I0519 18:39:43.865756  3749 net.cpp:84] Creating Layer pool2
I0519 18:39:43.865761  3749 net.cpp:406] pool2 <- conv2_2
I0519 18:39:43.865772  3749 net.cpp:380] pool2 -> pool2
I0519 18:39:43.865824  3749 net.cpp:122] Setting up pool2
I0519 18:39:43.865833  3749 net.cpp:129] Top shape: 1 128 75 250 (2400000)
I0519 18:39:43.865836  3749 net.cpp:137] Memory required for data: 500400084
I0519 18:39:43.865841  3749 layer_factory.hpp:77] Creating layer conv3_1
I0519 18:39:43.865852  3749 net.cpp:84] Creating Layer conv3_1
I0519 18:39:43.865857  3749 net.cpp:406] conv3_1 <- pool2
I0519 18:39:43.865865  3749 net.cpp:380] conv3_1 -> conv3_1
I0519 18:39:43.867933  3749 net.cpp:122] Setting up conv3_1
I0519 18:39:43.867947  3749 net.cpp:129] Top shape: 1 256 75 250 (4800000)
I0519 18:39:43.867954  3749 net.cpp:137] Memory required for data: 519600084
I0519 18:39:43.867966  3749 layer_factory.hpp:77] Creating layer relu3_1
I0519 18:39:43.867974  3749 net.cpp:84] Creating Layer relu3_1
I0519 18:39:43.867980  3749 net.cpp:406] relu3_1 <- conv3_1
I0519 18:39:43.867987  3749 net.cpp:367] relu3_1 -> conv3_1 (in-place)
I0519 18:39:43.868134  3749 net.cpp:122] Setting up relu3_1
I0519 18:39:43.868144  3749 net.cpp:129] Top shape: 1 256 75 250 (4800000)
I0519 18:39:43.868147  3749 net.cpp:137] Memory required for data: 538800084
I0519 18:39:43.868155  3749 layer_factory.hpp:77] Creating layer conv3_2
I0519 18:39:43.868167  3749 net.cpp:84] Creating Layer conv3_2
I0519 18:39:43.868172  3749 net.cpp:406] conv3_2 <- conv3_1
I0519 18:39:43.868181  3749 net.cpp:380] conv3_2 -> conv3_2
I0519 18:39:43.870462  3749 net.cpp:122] Setting up conv3_2
I0519 18:39:43.870477  3749 net.cpp:129] Top shape: 1 256 75 250 (4800000)
I0519 18:39:43.870482  3749 net.cpp:137] Memory required for data: 558000084
I0519 18:39:43.870491  3749 layer_factory.hpp:77] Creating layer relu3_2
I0519 18:39:43.870501  3749 net.cpp:84] Creating Layer relu3_2
I0519 18:39:43.870507  3749 net.cpp:406] relu3_2 <- conv3_2
I0519 18:39:43.870517  3749 net.cpp:367] relu3_2 -> conv3_2 (in-place)
I0519 18:39:43.870657  3749 net.cpp:122] Setting up relu3_2
I0519 18:39:43.870667  3749 net.cpp:129] Top shape: 1 256 75 250 (4800000)
I0519 18:39:43.870672  3749 net.cpp:137] Memory required for data: 577200084
I0519 18:39:43.870678  3749 layer_factory.hpp:77] Creating layer conv3_3
I0519 18:39:43.870689  3749 net.cpp:84] Creating Layer conv3_3
I0519 18:39:43.870694  3749 net.cpp:406] conv3_3 <- conv3_2
I0519 18:39:43.870703  3749 net.cpp:380] conv3_3 -> conv3_3
I0519 18:39:43.873023  3749 net.cpp:122] Setting up conv3_3
I0519 18:39:43.873039  3749 net.cpp:129] Top shape: 1 256 75 250 (4800000)
I0519 18:39:43.873044  3749 net.cpp:137] Memory required for data: 596400084
I0519 18:39:43.873052  3749 layer_factory.hpp:77] Creating layer relu3_3
I0519 18:39:43.873062  3749 net.cpp:84] Creating Layer relu3_3
I0519 18:39:43.873069  3749 net.cpp:406] relu3_3 <- conv3_3
I0519 18:39:43.873075  3749 net.cpp:367] relu3_3 -> conv3_3 (in-place)
I0519 18:39:43.873466  3749 net.cpp:122] Setting up relu3_3
I0519 18:39:43.873479  3749 net.cpp:129] Top shape: 1 256 75 250 (4800000)
I0519 18:39:43.873484  3749 net.cpp:137] Memory required for data: 615600084
I0519 18:39:43.873489  3749 layer_factory.hpp:77] Creating layer pool3
I0519 18:39:43.873498  3749 net.cpp:84] Creating Layer pool3
I0519 18:39:43.873505  3749 net.cpp:406] pool3 <- conv3_3
I0519 18:39:43.873512  3749 net.cpp:380] pool3 -> pool3
I0519 18:39:43.873566  3749 net.cpp:122] Setting up pool3
I0519 18:39:43.873575  3749 net.cpp:129] Top shape: 1 256 38 125 (1216000)
I0519 18:39:43.873580  3749 net.cpp:137] Memory required for data: 620464084
I0519 18:39:43.873585  3749 layer_factory.hpp:77] Creating layer conv4_1
I0519 18:39:43.873597  3749 net.cpp:84] Creating Layer conv4_1
I0519 18:39:43.873602  3749 net.cpp:406] conv4_1 <- pool3
I0519 18:39:43.873610  3749 net.cpp:380] conv4_1 -> conv4_1
I0519 18:39:43.878509  3749 net.cpp:122] Setting up conv4_1
I0519 18:39:43.878525  3749 net.cpp:129] Top shape: 1 512 38 125 (2432000)
I0519 18:39:43.878530  3749 net.cpp:137] Memory required for data: 630192084
I0519 18:39:43.878541  3749 layer_factory.hpp:77] Creating layer relu4_1
I0519 18:39:43.878551  3749 net.cpp:84] Creating Layer relu4_1
I0519 18:39:43.878557  3749 net.cpp:406] relu4_1 <- conv4_1
I0519 18:39:43.878564  3749 net.cpp:367] relu4_1 -> conv4_1 (in-place)
I0519 18:39:43.878954  3749 net.cpp:122] Setting up relu4_1
I0519 18:39:43.878968  3749 net.cpp:129] Top shape: 1 512 38 125 (2432000)
I0519 18:39:43.878973  3749 net.cpp:137] Memory required for data: 639920084
I0519 18:39:43.878978  3749 layer_factory.hpp:77] Creating layer conv4_2
I0519 18:39:43.878989  3749 net.cpp:84] Creating Layer conv4_2
I0519 18:39:43.878994  3749 net.cpp:406] conv4_2 <- conv4_1
I0519 18:39:43.879004  3749 net.cpp:380] conv4_2 -> conv4_2
I0519 18:39:43.883522  3749 net.cpp:122] Setting up conv4_2
I0519 18:39:43.883538  3749 net.cpp:129] Top shape: 1 512 38 125 (2432000)
I0519 18:39:43.883543  3749 net.cpp:137] Memory required for data: 649648084
I0519 18:39:43.883556  3749 layer_factory.hpp:77] Creating layer relu4_2
I0519 18:39:43.883566  3749 net.cpp:84] Creating Layer relu4_2
I0519 18:39:43.883574  3749 net.cpp:406] relu4_2 <- conv4_2
I0519 18:39:43.883581  3749 net.cpp:367] relu4_2 -> conv4_2 (in-place)
I0519 18:39:43.883729  3749 net.cpp:122] Setting up relu4_2
I0519 18:39:43.883739  3749 net.cpp:129] Top shape: 1 512 38 125 (2432000)
I0519 18:39:43.883744  3749 net.cpp:137] Memory required for data: 659376084
I0519 18:39:43.883750  3749 layer_factory.hpp:77] Creating layer conv4_3
I0519 18:39:43.883761  3749 net.cpp:84] Creating Layer conv4_3
I0519 18:39:43.883766  3749 net.cpp:406] conv4_3 <- conv4_2
I0519 18:39:43.883775  3749 net.cpp:380] conv4_3 -> conv4_3
I0519 18:39:43.888164  3749 net.cpp:122] Setting up conv4_3
I0519 18:39:43.888183  3749 net.cpp:129] Top shape: 1 512 38 125 (2432000)
I0519 18:39:43.888190  3749 net.cpp:137] Memory required for data: 669104084
I0519 18:39:43.888197  3749 layer_factory.hpp:77] Creating layer relu4_3
I0519 18:39:43.888207  3749 net.cpp:84] Creating Layer relu4_3
I0519 18:39:43.888213  3749 net.cpp:406] relu4_3 <- conv4_3
I0519 18:39:43.888221  3749 net.cpp:367] relu4_3 -> conv4_3 (in-place)
I0519 18:39:43.888382  3749 net.cpp:122] Setting up relu4_3
I0519 18:39:43.888396  3749 net.cpp:129] Top shape: 1 512 38 125 (2432000)
I0519 18:39:43.888401  3749 net.cpp:137] Memory required for data: 678832084
I0519 18:39:43.888406  3749 layer_factory.hpp:77] Creating layer pool4
I0519 18:39:43.888415  3749 net.cpp:84] Creating Layer pool4
I0519 18:39:43.888422  3749 net.cpp:406] pool4 <- conv4_3
I0519 18:39:43.888428  3749 net.cpp:380] pool4 -> pool4
I0519 18:39:43.888485  3749 net.cpp:122] Setting up pool4
I0519 18:39:43.888495  3749 net.cpp:129] Top shape: 1 512 19 63 (612864)
I0519 18:39:43.888499  3749 net.cpp:137] Memory required for data: 681283540
I0519 18:39:43.888504  3749 layer_factory.hpp:77] Creating layer conv5_1
I0519 18:39:43.888512  3749 net.cpp:84] Creating Layer conv5_1
I0519 18:39:43.888517  3749 net.cpp:406] conv5_1 <- pool4
I0519 18:39:43.888526  3749 net.cpp:380] conv5_1 -> conv5_1
I0519 18:39:43.892786  3749 net.cpp:122] Setting up conv5_1
I0519 18:39:43.892802  3749 net.cpp:129] Top shape: 1 512 19 63 (612864)
I0519 18:39:43.892807  3749 net.cpp:137] Memory required for data: 683734996
I0519 18:39:43.892814  3749 layer_factory.hpp:77] Creating layer relu5_1
I0519 18:39:43.892823  3749 net.cpp:84] Creating Layer relu5_1
I0519 18:39:43.892830  3749 net.cpp:406] relu5_1 <- conv5_1
I0519 18:39:43.892838  3749 net.cpp:367] relu5_1 -> conv5_1 (in-place)
I0519 18:39:43.892987  3749 net.cpp:122] Setting up relu5_1
I0519 18:39:43.892997  3749 net.cpp:129] Top shape: 1 512 19 63 (612864)
I0519 18:39:43.893002  3749 net.cpp:137] Memory required for data: 686186452
I0519 18:39:43.893007  3749 layer_factory.hpp:77] Creating layer conv5_2
I0519 18:39:43.893019  3749 net.cpp:84] Creating Layer conv5_2
I0519 18:39:43.893024  3749 net.cpp:406] conv5_2 <- conv5_1
I0519 18:39:43.893033  3749 net.cpp:380] conv5_2 -> conv5_2
I0519 18:39:43.897327  3749 net.cpp:122] Setting up conv5_2
I0519 18:39:43.897346  3749 net.cpp:129] Top shape: 1 512 19 63 (612864)
I0519 18:39:43.897351  3749 net.cpp:137] Memory required for data: 688637908
I0519 18:39:43.897359  3749 layer_factory.hpp:77] Creating layer relu5_2
I0519 18:39:43.897368  3749 net.cpp:84] Creating Layer relu5_2
I0519 18:39:43.897377  3749 net.cpp:406] relu5_2 <- conv5_2
I0519 18:39:43.897385  3749 net.cpp:367] relu5_2 -> conv5_2 (in-place)
I0519 18:39:43.897531  3749 net.cpp:122] Setting up relu5_2
I0519 18:39:43.897541  3749 net.cpp:129] Top shape: 1 512 19 63 (612864)
I0519 18:39:43.897547  3749 net.cpp:137] Memory required for data: 691089364
I0519 18:39:43.897550  3749 layer_factory.hpp:77] Creating layer conv5_3
I0519 18:39:43.897565  3749 net.cpp:84] Creating Layer conv5_3
I0519 18:39:43.897572  3749 net.cpp:406] conv5_3 <- conv5_2
I0519 18:39:43.897578  3749 net.cpp:380] conv5_3 -> conv5_3
I0519 18:39:43.901834  3749 net.cpp:122] Setting up conv5_3
I0519 18:39:43.901849  3749 net.cpp:129] Top shape: 1 512 19 63 (612864)
I0519 18:39:43.901854  3749 net.cpp:137] Memory required for data: 693540820
I0519 18:39:43.901861  3749 layer_factory.hpp:77] Creating layer relu5_3
I0519 18:39:43.901872  3749 net.cpp:84] Creating Layer relu5_3
I0519 18:39:43.901878  3749 net.cpp:406] relu5_3 <- conv5_3
I0519 18:39:43.901886  3749 net.cpp:367] relu5_3 -> conv5_3 (in-place)
I0519 18:39:43.902293  3749 net.cpp:122] Setting up relu5_3
I0519 18:39:43.902307  3749 net.cpp:129] Top shape: 1 512 19 63 (612864)
I0519 18:39:43.902312  3749 net.cpp:137] Memory required for data: 695992276
I0519 18:39:43.902317  3749 layer_factory.hpp:77] Creating layer conv5_3_relu5_3_0_split
I0519 18:39:43.902324  3749 net.cpp:84] Creating Layer conv5_3_relu5_3_0_split
I0519 18:39:43.902330  3749 net.cpp:406] conv5_3_relu5_3_0_split <- conv5_3
I0519 18:39:43.902338  3749 net.cpp:380] conv5_3_relu5_3_0_split -> conv5_3_relu5_3_0_split_0
I0519 18:39:43.902348  3749 net.cpp:380] conv5_3_relu5_3_0_split -> conv5_3_relu5_3_0_split_1
I0519 18:39:43.902403  3749 net.cpp:122] Setting up conv5_3_relu5_3_0_split
I0519 18:39:43.902412  3749 net.cpp:129] Top shape: 1 512 19 63 (612864)
I0519 18:39:43.902420  3749 net.cpp:129] Top shape: 1 512 19 63 (612864)
I0519 18:39:43.902426  3749 net.cpp:137] Memory required for data: 700895188
I0519 18:39:43.902429  3749 layer_factory.hpp:77] Creating layer rpn_conv/3x3
I0519 18:39:43.902442  3749 net.cpp:84] Creating Layer rpn_conv/3x3
I0519 18:39:43.902447  3749 net.cpp:406] rpn_conv/3x3 <- conv5_3_relu5_3_0_split_0
I0519 18:39:43.902457  3749 net.cpp:380] rpn_conv/3x3 -> rpn/output
I0519 18:39:43.959895  3749 net.cpp:122] Setting up rpn_conv/3x3
I0519 18:39:43.959928  3749 net.cpp:129] Top shape: 1 512 19 63 (612864)
I0519 18:39:43.959933  3749 net.cpp:137] Memory required for data: 703346644
I0519 18:39:43.959942  3749 layer_factory.hpp:77] Creating layer rpn_relu/3x3
I0519 18:39:43.959954  3749 net.cpp:84] Creating Layer rpn_relu/3x3
I0519 18:39:43.959964  3749 net.cpp:406] rpn_relu/3x3 <- rpn/output
I0519 18:39:43.959972  3749 net.cpp:367] rpn_relu/3x3 -> rpn/output (in-place)
I0519 18:39:43.960507  3749 net.cpp:122] Setting up rpn_relu/3x3
I0519 18:39:43.960520  3749 net.cpp:129] Top shape: 1 512 19 63 (612864)
I0519 18:39:43.960525  3749 net.cpp:137] Memory required for data: 705798100
I0519 18:39:43.960531  3749 layer_factory.hpp:77] Creating layer rpn/output_rpn_relu/3x3_0_split
I0519 18:39:43.960538  3749 net.cpp:84] Creating Layer rpn/output_rpn_relu/3x3_0_split
I0519 18:39:43.960556  3749 net.cpp:406] rpn/output_rpn_relu/3x3_0_split <- rpn/output
I0519 18:39:43.960566  3749 net.cpp:380] rpn/output_rpn_relu/3x3_0_split -> rpn/output_rpn_relu/3x3_0_split_0
I0519 18:39:43.960575  3749 net.cpp:380] rpn/output_rpn_relu/3x3_0_split -> rpn/output_rpn_relu/3x3_0_split_1
I0519 18:39:43.960633  3749 net.cpp:122] Setting up rpn/output_rpn_relu/3x3_0_split
I0519 18:39:43.960640  3749 net.cpp:129] Top shape: 1 512 19 63 (612864)
I0519 18:39:43.960646  3749 net.cpp:129] Top shape: 1 512 19 63 (612864)
I0519 18:39:43.960651  3749 net.cpp:137] Memory required for data: 710701012
I0519 18:39:43.960655  3749 layer_factory.hpp:77] Creating layer rpn_cls_score
I0519 18:39:43.960669  3749 net.cpp:84] Creating Layer rpn_cls_score
I0519 18:39:43.960675  3749 net.cpp:406] rpn_cls_score <- rpn/output_rpn_relu/3x3_0_split_0
I0519 18:39:43.960682  3749 net.cpp:380] rpn_cls_score -> rpn_cls_score
I0519 18:39:43.962179  3749 net.cpp:122] Setting up rpn_cls_score
I0519 18:39:43.962193  3749 net.cpp:129] Top shape: 1 18 19 63 (21546)
I0519 18:39:43.962198  3749 net.cpp:137] Memory required for data: 710787196
I0519 18:39:43.962208  3749 layer_factory.hpp:77] Creating layer rpn_cls_score_rpn_cls_score_0_split
I0519 18:39:43.962218  3749 net.cpp:84] Creating Layer rpn_cls_score_rpn_cls_score_0_split
I0519 18:39:43.962224  3749 net.cpp:406] rpn_cls_score_rpn_cls_score_0_split <- rpn_cls_score
I0519 18:39:43.962231  3749 net.cpp:380] rpn_cls_score_rpn_cls_score_0_split -> rpn_cls_score_rpn_cls_score_0_split_0
I0519 18:39:43.962246  3749 net.cpp:380] rpn_cls_score_rpn_cls_score_0_split -> rpn_cls_score_rpn_cls_score_0_split_1
I0519 18:39:43.962303  3749 net.cpp:122] Setting up rpn_cls_score_rpn_cls_score_0_split
I0519 18:39:43.962313  3749 net.cpp:129] Top shape: 1 18 19 63 (21546)
I0519 18:39:43.962321  3749 net.cpp:129] Top shape: 1 18 19 63 (21546)
I0519 18:39:43.962326  3749 net.cpp:137] Memory required for data: 710959564
I0519 18:39:43.962329  3749 layer_factory.hpp:77] Creating layer rpn_bbox_pred
I0519 18:39:43.962342  3749 net.cpp:84] Creating Layer rpn_bbox_pred
I0519 18:39:43.962347  3749 net.cpp:406] rpn_bbox_pred <- rpn/output_rpn_relu/3x3_0_split_1
I0519 18:39:43.962357  3749 net.cpp:380] rpn_bbox_pred -> rpn_bbox_pred
I0519 18:39:43.963531  3749 net.cpp:122] Setting up rpn_bbox_pred
I0519 18:39:43.963542  3749 net.cpp:129] Top shape: 1 36 19 63 (43092)
I0519 18:39:43.963547  3749 net.cpp:137] Memory required for data: 711131932
I0519 18:39:43.963556  3749 layer_factory.hpp:77] Creating layer rpn_bbox_pred_rpn_bbox_pred_0_split
I0519 18:39:43.963565  3749 net.cpp:84] Creating Layer rpn_bbox_pred_rpn_bbox_pred_0_split
I0519 18:39:43.963570  3749 net.cpp:406] rpn_bbox_pred_rpn_bbox_pred_0_split <- rpn_bbox_pred
I0519 18:39:43.963579  3749 net.cpp:380] rpn_bbox_pred_rpn_bbox_pred_0_split -> rpn_bbox_pred_rpn_bbox_pred_0_split_0
I0519 18:39:43.963589  3749 net.cpp:380] rpn_bbox_pred_rpn_bbox_pred_0_split -> rpn_bbox_pred_rpn_bbox_pred_0_split_1
I0519 18:39:43.963640  3749 net.cpp:122] Setting up rpn_bbox_pred_rpn_bbox_pred_0_split
I0519 18:39:43.963649  3749 net.cpp:129] Top shape: 1 36 19 63 (43092)
I0519 18:39:43.963654  3749 net.cpp:129] Top shape: 1 36 19 63 (43092)
I0519 18:39:43.963660  3749 net.cpp:137] Memory required for data: 711476668
I0519 18:39:43.963663  3749 layer_factory.hpp:77] Creating layer rpn_cls_score_reshape
I0519 18:39:43.963678  3749 net.cpp:84] Creating Layer rpn_cls_score_reshape
I0519 18:39:43.963685  3749 net.cpp:406] rpn_cls_score_reshape <- rpn_cls_score_rpn_cls_score_0_split_0
I0519 18:39:43.963691  3749 net.cpp:380] rpn_cls_score_reshape -> rpn_cls_score_reshape
I0519 18:39:43.963727  3749 net.cpp:122] Setting up rpn_cls_score_reshape
I0519 18:39:43.963735  3749 net.cpp:129] Top shape: 1 2 171 63 (21546)
I0519 18:39:43.963739  3749 net.cpp:137] Memory required for data: 711562852
I0519 18:39:43.963743  3749 layer_factory.hpp:77] Creating layer rpn_cls_score_reshape_rpn_cls_score_reshape_0_split
I0519 18:39:43.963750  3749 net.cpp:84] Creating Layer rpn_cls_score_reshape_rpn_cls_score_reshape_0_split
I0519 18:39:43.963755  3749 net.cpp:406] rpn_cls_score_reshape_rpn_cls_score_reshape_0_split <- rpn_cls_score_reshape
I0519 18:39:43.963762  3749 net.cpp:380] rpn_cls_score_reshape_rpn_cls_score_reshape_0_split -> rpn_cls_score_reshape_rpn_cls_score_reshape_0_split_0
I0519 18:39:43.963771  3749 net.cpp:380] rpn_cls_score_reshape_rpn_cls_score_reshape_0_split -> rpn_cls_score_reshape_rpn_cls_score_reshape_0_split_1
I0519 18:39:43.963817  3749 net.cpp:122] Setting up rpn_cls_score_reshape_rpn_cls_score_reshape_0_split
I0519 18:39:43.963825  3749 net.cpp:129] Top shape: 1 2 171 63 (21546)
I0519 18:39:43.963830  3749 net.cpp:129] Top shape: 1 2 171 63 (21546)
I0519 18:39:43.963835  3749 net.cpp:137] Memory required for data: 711735220
I0519 18:39:43.963840  3749 layer_factory.hpp:77] Creating layer rpn-data
I0519 18:39:43.964222  3749 net.cpp:84] Creating Layer rpn-data
I0519 18:39:43.964234  3749 net.cpp:406] rpn-data <- rpn_cls_score_rpn_cls_score_0_split_1
I0519 18:39:43.964242  3749 net.cpp:406] rpn-data <- gt_boxes_input-data_2_split_0
I0519 18:39:43.964249  3749 net.cpp:406] rpn-data <- im_info_input-data_1_split_0
I0519 18:39:43.964272  3749 net.cpp:406] rpn-data <- data_input-data_0_split_1
I0519 18:39:43.964279  3749 net.cpp:380] rpn-data -> rpn_labels
I0519 18:39:43.964290  3749 net.cpp:380] rpn-data -> rpn_bbox_targets
I0519 18:39:43.964299  3749 net.cpp:380] rpn-data -> rpn_bbox_inside_weights
I0519 18:39:43.964309  3749 net.cpp:380] rpn-data -> rpn_bbox_outside_weights
I0519 18:39:43.964951  3749 net.cpp:122] Setting up rpn-data
I0519 18:39:43.964965  3749 net.cpp:129] Top shape: 1 1 171 63 (10773)
I0519 18:39:43.964972  3749 net.cpp:129] Top shape: 1 36 19 63 (43092)
I0519 18:39:43.964980  3749 net.cpp:129] Top shape: 1 36 19 63 (43092)
I0519 18:39:43.964987  3749 net.cpp:129] Top shape: 1 36 19 63 (43092)
I0519 18:39:43.964993  3749 net.cpp:137] Memory required for data: 712295416
I0519 18:39:43.964998  3749 layer_factory.hpp:77] Creating layer rpn_loss_cls
I0519 18:39:43.965008  3749 net.cpp:84] Creating Layer rpn_loss_cls
I0519 18:39:43.965014  3749 net.cpp:406] rpn_loss_cls <- rpn_cls_score_reshape_rpn_cls_score_reshape_0_split_0
I0519 18:39:43.965021  3749 net.cpp:406] rpn_loss_cls <- rpn_labels
…
I0519 18:39:43.966078  3749 net.cpp:129] Top shape: (1)
I0519 18:39:43.966083  3749 net.cpp:132]     with loss weight 1
I0519 18:39:43.966089  3749 net.cpp:137] Memory required for data: 712295424
I0519 18:39:43.966094  3749 layer_factory.hpp:77] Creating layer rpn_cls_prob
I0519 18:39:43.966101  3749 net.cpp:84] Creating Layer rpn_cls_prob
I0519 18:39:43.966107  3749 net.cpp:406] rpn_cls_prob <- rpn_cls_score_reshape_rpn_cls_score_reshape_0_split_1
I0519 18:39:43.966116  3749 net.cpp:380] rpn_cls_prob -> rpn_cls_prob
I0519 18:39:43.966336  3749 net.cpp:122] Setting up rpn_cls_prob
I0519 18:39:43.966347  3749 net.cpp:129] Top shape: 1 2 171 63 (21546)
I0519 18:39:43.966352  3749 net.cpp:137] Memory required for data: 712381608
I0519 18:39:43.966358  3749 layer_factory.hpp:77] Creating layer rpn_cls_prob_reshape
I0519 18:39:43.966369  3749 net.cpp:84] Creating Layer rpn_cls_prob_reshape
I0519 18:39:43.966375  3749 net.cpp:406] rpn_cls_prob_reshape <- rpn_cls_prob
I0519 18:39:43.966383  3749 net.cpp:380] rpn_cls_prob_reshape -> rpn_cls_prob_reshape
I0519 18:39:43.966418  3749 net.cpp:122] Setting up rpn_cls_prob_reshape
I0519 18:39:43.966428  3749 net.cpp:129] Top shape: 1 18 19 63 (21546)
I0519 18:39:43.966434  3749 net.cpp:137] Memory required for data: 712467792
I0519 18:39:43.966439  3749 layer_factory.hpp:77] Creating layer proposal
I0519 18:39:43.967103  3749 net.cpp:84] Creating Layer proposal
I0519 18:39:43.967115  3749 net.cpp:406] proposal <- rpn_cls_prob_reshape
I0519 18:39:43.967123  3749 net.cpp:406] proposal <- rpn_bbox_pred_rpn_bbox_pred_0_split_1
I0519 18:39:43.967131  3749 net.cpp:406] proposal <- im_info_input-data_1_split_1
I0519 18:39:43.967139  3749 net.cpp:380] proposal -> rpn_rois
I0519 18:39:43.967813  3749 net.cpp:122] Setting up proposal
I0519 18:39:43.967828  3749 net.cpp:129] Top shape: 1 5 (5)
I0519 18:39:43.967833  3749 net.cpp:137] Memory required for data: 712467812
I0519 18:39:43.967838  3749 layer_factory.hpp:77] Creating layer roi-data
I0519 18:39:43.967986  3749 net.cpp:84] Creating Layer roi-data
I0519 18:39:43.967998  3749 net.cpp:406] roi-data <- rpn_rois
I0519 18:39:43.968004  3749 net.cpp:406] roi-data <- gt_boxes_input-data_2_split_1
I0519 18:39:43.968014  3749 net.cpp:380] roi-data -> rois
I0519 18:39:43.968024  3749 net.cpp:380] roi-data -> labels
I0519 18:39:43.968034  3749 net.cpp:380] roi-data -> bbox_targets
I0519 18:39:43.968042  3749 net.cpp:380] roi-data -> bbox_inside_weights
I0519 18:39:43.968050  3749 net.cpp:380] roi-data -> bbox_outside_weights
I0519 18:39:43.968420  3749 net.cpp:122] Setting up roi-data
I0519 18:39:43.968433  3749 net.cpp:129] Top shape: 1 5 (5)
I0519 18:39:43.968441  3749 net.cpp:129] Top shape: 1 1 (1)
I0519 18:39:43.968446  3749 net.cpp:129] Top shape: 1 8 (8)
I0519 18:39:43.968451  3749 net.cpp:129] Top shape: 1 8 (8)
I0519 18:39:43.968458  3749 net.cpp:129] Top shape: 1 8 (8)
I0519 18:39:43.968463  3749 net.cpp:137] Memory required for data: 712467932
I0519 18:39:43.968469  3749 layer_factory.hpp:77] Creating layer roi_pool5
I0519 18:39:43.968483  3749 net.cpp:84] Creating Layer roi_pool5
I0519 18:39:43.968489  3749 net.cpp:406] roi_pool5 <- conv5_3_relu5_3_0_split_1
I0519 18:39:43.968498  3749 net.cpp:406] roi_pool5 <- rois
I0519 18:39:43.968505  3749 net.cpp:380] roi_pool5 -> pool5
I0519 18:39:43.968515  3749 roi_pooling_layer.cpp:30] Spatial scale: 0.0625
I0519 18:39:43.968575  3749 net.cpp:122] Setting up roi_pool5
I0519 18:39:43.968582  3749 net.cpp:129] Top shape: 1 512 7 7 (25088)
I0519 18:39:43.968587  3749 net.cpp:137] Memory required for data: 712568284
I0519 18:39:43.968592  3749 layer_factory.hpp:77] Creating layer fc6
I0519 18:39:43.968603  3749 net.cpp:84] Creating Layer fc6
I0519 18:39:43.968608  3749 net.cpp:406] fc6 <- pool5
I0519 18:39:43.968616  3749 net.cpp:380] fc6 -> fc6
I0519 18:39:44.133975  3749 net.cpp:122] Setting up fc6
I0519 18:39:44.134011  3749 net.cpp:129] Top shape: 1 4096 (4096)
I0519 18:39:44.134016  3749 net.cpp:137] Memory required for data: 712584668
I0519 18:39:44.134037  3749 layer_factory.hpp:77] Creating layer relu6
I0519 18:39:44.134050  3749 net.cpp:84] Creating Layer relu6
I0519 18:39:44.134057  3749 net.cpp:406] relu6 <- fc6
I0519 18:39:44.134065  3749 net.cpp:367] relu6 -> fc6 (in-place)
I0519 18:39:44.134276  3749 net.cpp:122] Setting up relu6
I0519 18:39:44.134287  3749 net.cpp:129] Top shape: 1 4096 (4096)
I0519 18:39:44.134292  3749 net.cpp:137] Memory required for data: 712601052
I0519 18:39:44.134299  3749 layer_factory.hpp:77] Creating layer drop6
I0519 18:39:44.134308  3749 net.cpp:84] Creating Layer drop6
I0519 18:39:44.134315  3749 net.cpp:406] drop6 <- fc6
I0519 18:39:44.134323  3749 net.cpp:367] drop6 -> fc6 (in-place)
I0519 18:39:44.134363  3749 net.cpp:122] Setting up drop6
I0519 18:39:44.134371  3749 net.cpp:129] Top shape: 1 4096 (4096)
I0519 18:39:44.134377  3749 net.cpp:137] Memory required for data: 712617436
I0519 18:39:44.134382  3749 layer_factory.hpp:77] Creating layer fc7
I0519 18:39:44.134392  3749 net.cpp:84] Creating Layer fc7
I0519 18:39:44.134397  3749 net.cpp:406] fc7 <- fc6
I0519 18:39:44.134403  3749 net.cpp:380] fc7 -> fc7
I0519 18:39:44.162950  3749 net.cpp:122] Setting up fc7
I0519 18:39:44.162988  3749 net.cpp:129] Top shape: 1 4096 (4096)
I0519 18:39:44.162992  3749 net.cpp:137] Memory required for data: 712633820
I0519 18:39:44.163003  3749 layer_factory.hpp:77] Creating layer relu7
I0519 18:39:44.163015  3749 net.cpp:84] Creating Layer relu7
I0519 18:39:44.163022  3749 net.cpp:406] relu7 <- fc7
I0519 18:39:44.163031  3749 net.cpp:367] relu7 -> fc7 (in-place)
I0519 18:39:44.163622  3749 net.cpp:122] Setting up relu7
I0519 18:39:44.163635  3749 net.cpp:129] Top shape: 1 4096 (4096)
I0519 18:39:44.163640  3749 net.cpp:137] Memory required for data: 712650204
I0519 18:39:44.163645  3749 layer_factory.hpp:77] Creating layer drop7
I0519 18:39:44.163655  3749 net.cpp:84] Creating Layer drop7
I0519 18:39:44.163661  3749 net.cpp:406] drop7 <- fc7
I0519 18:39:44.163669  3749 net.cpp:367] drop7 -> fc7 (in-place)
I0519 18:39:44.163709  3749 net.cpp:122] Setting up drop7
I0519 18:39:44.163718  3749 net.cpp:129] Top shape: 1 4096 (4096)
I0519 18:39:44.163722  3749 net.cpp:137] Memory required for data: 712666588
I0519 18:39:44.163727  3749 layer_factory.hpp:77] Creating layer fc7_drop7_0_split
I0519 18:39:44.163735  3749 net.cpp:84] Creating Layer fc7_drop7_0_split
I0519 18:39:44.163740  3749 net.cpp:406] fc7_drop7_0_split <- fc7
I0519 18:39:44.163748  3749 net.cpp:380] fc7_drop7_0_split -> fc7_drop7_0_split_0
I0519 18:39:44.163756  3749 net.cpp:380] fc7_drop7_0_split -> fc7_drop7_0_split_1
I0519 18:39:44.163807  3749 net.cpp:122] Setting up fc7_drop7_0_split
I0519 18:39:44.163815  3749 net.cpp:129] Top shape: 1 4096 (4096)
I0519 18:39:44.163820  3749 net.cpp:129] Top shape: 1 4096 (4096)
I0519 18:39:44.163825  3749 net.cpp:137] Memory required for data: 712699356
I0519 18:39:44.163830  3749 layer_factory.hpp:77] Creating layer cls_score
I0519 18:39:44.163839  3749 net.cpp:84] Creating Layer cls_score
I0519 18:39:44.163844  3749 net.cpp:406] cls_score <- fc7_drop7_0_split_0
I0519 18:39:44.163853  3749 net.cpp:380] cls_score -> cls_score
I0519 18:39:44.164185  3749 net.cpp:122] Setting up cls_score
I0519 18:39:44.164193  3749 net.cpp:129] Top shape: 1 2 (2)
I0519 18:39:44.164197  3749 net.cpp:137] Memory required for data: 712699364
I0519 18:39:44.164207  3749 layer_factory.hpp:77] Creating layer bbox_pred
I0519 18:39:44.164216  3749 net.cpp:84] Creating Layer bbox_pred
I0519 18:39:44.164222  3749 net.cpp:406] bbox_pred <- fc7_drop7_0_split_1
I0519 18:39:44.164229  3749 net.cpp:380] bbox_pred -> bbox_pred
I0519 18:39:44.165210  3749 net.cpp:122] Setting up bbox_pred
I0519 18:39:44.165220  3749 net.cpp:129] Top shape: 1 8 (8)
I0519 18:39:44.165225  3749 net.cpp:137] Memory required for data: 712699396
I0519 18:39:44.165231  3749 layer_factory.hpp:77] Creating layer loss_cls
I0519 18:39:44.165241  3749 net.cpp:84] Creating Layer loss_cls
I0519 18:39:44.165246  3749 net.cpp:406] loss_cls <- cls_score
I0519 18:39:44.165254  3749 net.cpp:406] loss_cls <- labels
I0519 18:39:44.165261  3749 net.cpp:380] loss_cls -> loss_cls
…
I0519 21:22:47.042721  3855 upgrade_proto.cpp:70] Successfully upgraded file specified using deprecated input fields.
W0519 21:22:47.042723  3855 upgrade_proto.cpp:72] Note that future Caffe releases will only support input layers and not input fields.
I0519 21:22:47.042968  3855 net.cpp:51] Initializing net from parameters: 
name: "VGG_ILSVRC_16_layers"
state {
  phase: TEST
  level: 0
}
layer {
  name: "input"
  type: "Input"
  top: "data"
  top: "im_info"
  input_param {
    shape {
      dim: 1
      dim: 3
      dim: 224
      dim: 224
    }
    shape {
      dim: 1
      dim: 3
    }
  }
}
layer {
  name: "conv1_1"
  type: "Convolution"
  bottom: "data"
  top: "conv1_1"
  param {
    lr_mult: 0
    decay_mult: 0
  }
  param {
    lr_mult: 0
    decay_mult: 0
  }
  convolution_param {
    num_output: 64
    pad: 1
    kernel_size: 3
  }
}
layer {
  name: "relu1_1"
  type: "ReLU"
  bottom: "conv1_1"
  top: "conv1_1"
}
layer {
  name: "conv1_2"
  type: "Convolution"
  bottom: "conv1_1"
  top: "conv1_2"
  param {
    lr_mult: 0
    decay_mult: 0
  }
  param {
    lr_mult: 0
    decay_mult: 0
  }
  convolution_param {
    num_output: 64
    pad: 1
    kernel_size: 3
  }
}
layer {
  name: "relu1_2"
  type: "ReLU"
  bottom: "conv1_2"
  top: "conv1_2"
}
layer {
  name: "pool1"
  type: "Pooling"
  bottom: "conv1_2"
  top: "pool1"
  pooling_param {
    pool: MAX
    kernel_size: 2
    stride: 2
  }
}
layer {
  name: "conv2_1"
  type: "Convolution"
  bottom: "pool1"
  top: "conv2_1"
  param {
    lr_mult: 0
    decay_mult: 0
  }
  param {
    lr_mult: 0
    decay_mult: 0
  }
  convolution_param {
    num_output: 128
    pad: 1
    kernel_size: 3
  }
}
layer {
  name: "relu2_1"
  type: "ReLU"
  bottom: "conv2_1"
  top: "conv2_1"
}
layer {
  name: "conv2_2"
  type: "Convolution"
  bottom: "conv2_1"
  top: "conv2_2"
  param {
    lr_mult: 0
    decay_mult: 0
  }
  param {
    lr_mult: 0
    decay_mult: 0
  }
  convolution_param {
    num_output: 128
    pad: 1
    kernel_size: 3
  }
}
layer {
  name: "relu2_2"
  type: "ReLU"
  bottom: "conv2_2"
  top: "conv2_2"
}
layer {
  name: "pool2"
  type: "Pooling"
  bottom: "conv2_2"
  top: "pool2"
  pooling_param {
    pool: MAX
    kernel_size: 2
    stride: 2
  }
}
layer {
  name: "conv3_1"
  type: "Convolution"
  bottom: "pool2"
  top: "conv3_1"
  param {
    lr_mult: 1
    decay_mult: 1
  }
  param {
    lr_mult: 2
    decay_mult: 0
  }
  convolution_param {
    num_output: 256
    pad: 1
    kernel_size: 3
  }
}
layer {
  name: "relu3_1"
  type: "ReLU"
  bottom: "conv3_1"
  top: "conv3_1"
}
layer {
  name: "conv3_2"
  type: "Convolution"
  bottom: "conv3_1"
  top: "conv3_2"
  param {
    lr_mult: 1
    decay_mult: 1
  }
  param {
    lr_mult: 2
    decay_mult: 0
  }
  convolution_param {
    num_output: 256
    pad: 1
    kernel_size: 3
  }
}
layer {
  name: "relu3_2"
  type: "ReLU"
  bottom: "conv3_2"
  top: "conv3_2"
}
layer {
  name: "conv3_3"
  type: "Convolution"
  bottom: "conv3_2"
  top: "conv3_3"
  param {
    lr_mult: 1
    decay_mult: 1
  }
  param {
    lr_mult: 2
    decay_mult: 0
  }
  convolution_param {
    num_output: 256
    pad: 1
    kernel_size: 3
  }
}
layer {
  name: "relu3_3"
  type: "ReLU"
  bottom: "conv3_3"
  top: "conv3_3"
}
layer {
  name: "pool3"
  type: "Pooling"
  bottom: "conv3_3"
  top: "pool3"
  pooling_param {
    pool: MAX
    kernel_size: 2
    stride: 2
  }
}
layer {
  name: "conv4_1"
  type: "Convolution"
  bottom: "pool3"
  top: "conv4_1"
  param {
    lr_mult: 1
    decay_mult: 1
  }
  param {
    lr_mult: 2
    decay_mult: 0
  }
  convolution_param {
    num_output: 512
    pad: 1
    kernel_size: 3
  }
}
layer {
  name: "relu4_1"
  type: "ReLU"
  bottom: "conv4_1"
  top: "conv4_1"
}
layer {
  name: "conv4_2"
  type: "Convolution"
  bottom: "conv4_1"
  top: "conv4_2"
  param {
    lr_mult: 1
    decay_mult: 1
  }
  param {
    lr_mult: 2
    decay_mult: 0
  }
  convolution_param {
    num_output: 512
    pad: 1
    kernel_size: 3
  }
}
layer {
  name: "relu4_2"
  type: "ReLU"
  bottom: "conv4_2"
  top: "conv4_2"
}
layer {
  name: "conv4_3"
  type: "Convolution"
  bottom: "conv4_2"
  top: "conv4_3"
  param {
    lr_mult: 1
    decay_mult: 1
  }
  param {
    lr_mult: 2
    decay_mult: 0
  }
  convolution_param {
    num_output: 512
    pad: 1
    kernel_size: 3
  }
}
layer {
  name: "relu4_3"
  type: "ReLU"
  bottom: "conv4_3"
  top: "conv4_3"
}
layer {
  name: "pool4"
  type: "Pooling"
  bottom: "conv4_3"
  top: "pool4"
  pooling_param {
    pool: MAX
    kernel_size: 2
    stride: 2
  }
}
layer {
  name: "conv5_1"
  type: "Convolution"
  bottom: "pool4"
  top: "conv5_1"
  param {
    lr_mult: 1
    decay_mult: 1
  }
  param {
    lr_mult: 2
    decay_mult: 0
  }
  convolution_param {
    num_output: 512
    pad: 1
    kernel_size: 3
  }
}
layer {
  name: "relu5_1"
  type: "ReLU"
  bottom: "conv5_1"
  top: "conv5_1"
}
layer {
  name: "conv5_2"
  type: "Convolution"
  bottom: "conv5_1"
  top: "conv5_2"
  param {
    lr_mult: 1
    decay_mult: 1
  }
  param {
    lr_mult: 2
    decay_mult: 0
  }
  convolution_param {
    num_output: 512
    pad: 1
    kernel_size: 3
  }
}
layer {
  name: "relu5_2"
  type: "ReLU"
  bottom: "conv5_2"
  top: "conv5_2"
}
layer {
  name: "conv5_3"
  type: "Convolution"
  bottom: "conv5_2"
  top: "conv5_3"
  param {
    lr_mult: 1
    decay_mult: 1
  }
  param {
    lr_mult: 2
    decay_mult: 0
  }
  convolution_param {
    num_output: 512
    pad: 1
    kernel_size: 3
  }
}
layer {
  name: "relu5_3"
  type: "ReLU"
  bottom: "conv5_3"
  top: "conv5_3"
}
layer {
  name: "rpn_conv/3x3"
  type: "Convolution"
  bottom: "conv5_3"
  top: "rpn/output"
  param {
    lr_mult: 1
    decay_mult: 1
  }
  param {
    lr_mult: 2
    decay_mult: 0
  }
  convolution_param {
    num_output: 512
    pad: 1
    kernel_size: 3
    stride: 1
    weight_filler {
      type: "gaussian"
      std: 0.01
    }
    bias_filler {
      type: "constant"
      value: 0
    }
  }
}
layer {
  name: "rpn_relu/3x3"
  type: "ReLU"
  bottom: "rpn/output"
  top: "rpn/output"
}
layer {
  name: "rpn_cls_score"
  type: "Convolution"
  bottom: "rpn/output"
  top: "rpn_cls_score"
  param {
    lr_mult: 1
    decay_mult: 1
  }
  param {
    lr_mult: 2
    decay_mult: 0
  }
  convolution_param {
    num_output: 18
    pad: 0
    kernel_size: 1
    stride: 1
    weight_filler {
      type: "gaussian"
      std: 0.01
    }
    bias_filler {
      type: "constant"
      value: 0
    }
  }
}
layer {
  name: "rpn_bbox_pred"
  type: "Convolution"
  bottom: "rpn/output"
  top: "rpn_bbox_pred"
  param {
    lr_mult: 1
    decay_mult: 1
  }
  param {
    lr_mult: 2
    decay_mult: 0
  }
  convolution_param {
    num_output: 36
    pad: 0
    kernel_size: 1
    stride: 1
    weight_filler {
      type: "gaussian"
      std: 0.01
    }
    bias_filler {
      type: "constant"
      value: 0
    }
  }
}
layer {
  name: "rpn_cls_score_reshape"
  type: "Reshape"
  bottom: "rpn_cls_score"
  top: "rpn_cls_score_reshape"
  reshape_param {
    shape {
      dim: 0
      dim: 2
      dim: -1
      dim: 0
    }
  }
}
layer {
  name: "rpn_cls_prob"
  type: "Softmax"
  bottom: "rpn_cls_score_reshape"
  top: "rpn_cls_prob"
}
layer {
  name: "rpn_cls_prob_reshape"
  type: "Reshape"
  bottom: "rpn_cls_prob"
  top: "rpn_cls_prob_reshape"
  reshape_param {
    shape {
      dim: 0
      dim: 18
      dim: -1
      dim: 0
    }
  }
}
layer {
  name: "proposal"
  type: "Python"
  bottom: "rpn_cls_prob_reshape"
  bottom: "rpn_bbox_pred"
  bottom: "im_info"
  top: "rois"
  python_param {
    module: "rpn.proposal_layer"
    layer: "ProposalLayer"
    param_str: "\'feat_stride\': 16"
  }
}
layer {
  name: "roi_pool5"
  type: "ROIPooling"
  bottom: "conv5_3"
  bottom: "rois"
  top: "pool5"
  roi_pooling_param {
    pooled_h: 7
    pooled_w: 7
    spatial_scale: 0.0625
  }
}
layer {
  name: "fc6"
  type: "InnerProduct"
  bottom: "pool5"
  top: "fc6"
  param {
    lr_mult: 1
    decay_mult: 1
  }
  param {
    lr_mult: 2
    decay_mult: 0
  }
  inner_product_param {
    num_output: 4096
  }
}
layer {
  name: "relu6"
  type: "ReLU"
  bottom: "fc6"
  top: "fc6"
}
layer {
  name: "drop6"
  type: "Dropout"
  bottom: "fc6"
  top: "fc6"
  dropout_param {
    dropout_ratio: 0.5
  }
}
layer {
  name: "fc7"
  type: "InnerProduct"
  bottom: "fc6"
  top: "fc7"
  param {
    lr_mult: 1
    decay_mult: 1
  }
  param {
    lr_mult: 2
    decay_mult: 0
  }
  inner_product_param {
    num_output: 4096
  }
}
layer {
  name: "relu7"
  type: "ReLU"
  bottom: "fc7"
  top: "fc7"
}
layer {
  name: "drop7"
  type: "Dropout"
  bottom: "fc7"
  top: "fc7"
  dropout_param {
    dropout_ratio: 0.5
  }
}
layer {
  name: "cls_score"
  type: "InnerProduct"
  bottom: "fc7"
  top: "cls_score"
  param {
    lr_mult: 1
    decay_mult: 1
  }
  param {
    lr_mult: 2
    decay_mult: 0
  }
  inner_product_param {
    num_output: 2
    weight_filler {
      type: "gaussian"
      std: 0.01
    }
    bias_filler {
      type: "constant"
      value: 0
    }
  }
}
layer {
  name: "bbox_pred"
  type: "InnerProduct"
  bottom: "fc7"
  top: "bbox_pred"
  param {
    lr_mult: 1
    decay_mult: 1
  }
  param {
    lr_mult: 2
    decay_mult: 0
  }
  inner_product_param {
    num_output: 8
    weight_filler {
      type: "gaussian"
      std: 0.001
    }
    bias_filler {
      type: "constant"
      value: 0
    }
  }
}
layer {
  name: "cls_prob"
  type: "Softmax"
  bottom: "cls_score"
  top: "cls_prob"
}
I0519 21:22:47.043108  3855 layer_factory.hpp:77] Creating layer input
I0519 21:22:47.043126  3855 net.cpp:84] Creating Layer input
I0519 21:22:47.043133  3855 net.cpp:380] input -> data
I0519 21:22:47.043143  3855 net.cpp:380] input -> im_info
I0519 21:22:47.771821  3855 net.cpp:122] Setting up input
I0519 21:22:47.771850  3855 net.cpp:129] Top shape: 1 3 224 224 (150528)
I0519 21:22:47.771854  3855 net.cpp:129] Top shape: 1 3 (3)
I0519 21:22:47.771857  3855 net.cpp:137] Memory required for data: 602124
I0519 21:22:47.771862  3855 layer_factory.hpp:77] Creating layer conv1_1
I0519 21:22:47.771878  3855 net.cpp:84] Creating Layer conv1_1
I0519 21:22:47.771880  3855 net.cpp:406] conv1_1 <- data
I0519 21:22:47.771886  3855 net.cpp:380] conv1_1 -> conv1_1
I0519 21:22:47.954206  3855 net.cpp:122] Setting up conv1_1
I0519 21:22:47.954236  3855 net.cpp:129] Top shape: 1 64 224 224 (3211264)
I0519 21:22:47.954239  3855 net.cpp:137] Memory required for data: 13447180
I0519 21:22:47.954252  3855 layer_factory.hpp:77] Creating layer relu1_1
I0519 21:22:47.954264  3855 net.cpp:84] Creating Layer relu1_1
I0519 21:22:47.954267  3855 net.cpp:406] relu1_1 <- conv1_1
I0519 21:22:47.954272  3855 net.cpp:367] relu1_1 -> conv1_1 (in-place)
I0519 21:22:47.954677  3855 net.cpp:122] Setting up relu1_1
I0519 21:22:47.954690  3855 net.cpp:129] Top shape: 1 64 224 224 (3211264)
I0519 21:22:47.954694  3855 net.cpp:137] Memory required for data: 26292236
I0519 21:22:47.954696  3855 layer_factory.hpp:77] Creating layer conv1_2
I0519 21:22:47.954705  3855 net.cpp:84] Creating Layer conv1_2
I0519 21:22:47.954708  3855 net.cpp:406] conv1_2 <- conv1_1
I0519 21:22:47.954713  3855 net.cpp:380] conv1_2 -> conv1_2
I0519 21:22:47.955430  3855 net.cpp:122] Setting up conv1_2
I0519 21:22:47.955441  3855 net.cpp:129] Top shape: 1 64 224 224 (3211264)
I0519 21:22:47.955445  3855 net.cpp:137] Memory required for data: 39137292
I0519 21:22:47.955451  3855 layer_factory.hpp:77] Creating layer relu1_2
I0519 21:22:47.955456  3855 net.cpp:84] Creating Layer relu1_2
I0519 21:22:47.955459  3855 net.cpp:406] relu1_2 <- conv1_2
I0519 21:22:47.955463  3855 net.cpp:367] relu1_2 -> conv1_2 (in-place)
I0519 21:22:47.955860  3855 net.cpp:122] Setting up relu1_2
I0519 21:22:47.955873  3855 net.cpp:129] Top shape: 1 64 224 224 (3211264)
I0519 21:22:47.955876  3855 net.cpp:137] Memory required for data: 51982348
I0519 21:22:47.955879  3855 layer_factory.hpp:77] Creating layer pool1
I0519 21:22:47.955886  3855 net.cpp:84] Creating Layer pool1
I0519 21:22:47.955888  3855 net.cpp:406] pool1 <- conv1_2
I0519 21:22:47.955893  3855 net.cpp:380] pool1 -> pool1
I0519 21:22:47.955945  3855 net.cpp:122] Setting up pool1
I0519 21:22:47.955952  3855 net.cpp:129] Top shape: 1 64 112 112 (802816)
I0519 21:22:47.955955  3855 net.cpp:137] Memory required for data: 55193612
I0519 21:22:47.955957  3855 layer_factory.hpp:77] Creating layer conv2_1
I0519 21:22:47.955963  3855 net.cpp:84] Creating Layer conv2_1
I0519 21:22:47.955966  3855 net.cpp:406] conv2_1 <- pool1
I0519 21:22:47.955971  3855 net.cpp:380] conv2_1 -> conv2_1
I0519 21:22:47.958843  3855 net.cpp:122] Setting up conv2_1
I0519 21:22:47.958859  3855 net.cpp:129] Top shape: 1 128 112 112 (1605632)
I0519 21:22:47.958863  3855 net.cpp:137] Memory required for data: 61616140
I0519 21:22:47.958870  3855 layer_factory.hpp:77] Creating layer relu2_1
I0519 21:22:47.958876  3855 net.cpp:84] Creating Layer relu2_1
I0519 21:22:47.958879  3855 net.cpp:406] relu2_1 <- conv2_1
I0519 21:22:47.958884  3855 net.cpp:367] relu2_1 -> conv2_1 (in-place)
I0519 21:22:47.959028  3855 net.cpp:122] Setting up relu2_1
I0519 21:22:47.959038  3855 net.cpp:129] Top shape: 1 128 112 112 (1605632)
I0519 21:22:47.959041  3855 net.cpp:137] Memory required for data: 68038668
I0519 21:22:47.959044  3855 layer_factory.hpp:77] Creating layer conv2_2
I0519 21:22:47.959053  3855 net.cpp:84] Creating Layer conv2_2
I0519 21:22:47.959056  3855 net.cpp:406] conv2_2 <- conv2_1
I0519 21:22:47.959060  3855 net.cpp:380] conv2_2 -> conv2_2
I0519 21:22:47.961719  3855 net.cpp:122] Setting up conv2_2
I0519 21:22:47.961733  3855 net.cpp:129] Top shape: 1 128 112 112 (1605632)
I0519 21:22:47.961736  3855 net.cpp:137] Memory required for data: 74461196
I0519 21:22:47.961742  3855 layer_factory.hpp:77] Creating layer relu2_2
I0519 21:22:47.961748  3855 net.cpp:84] Creating Layer relu2_2
I0519 21:22:47.961751  3855 net.cpp:406] relu2_2 <- conv2_2
I0519 21:22:47.961755  3855 net.cpp:367] relu2_2 -> conv2_2 (in-place)
I0519 21:22:47.961897  3855 net.cpp:122] Setting up relu2_2
I0519 21:22:47.961907  3855 net.cpp:129] Top shape: 1 128 112 112 (1605632)
I0519 21:22:47.961910  3855 net.cpp:137] Memory required for data: 80883724
I0519 21:22:47.961913  3855 layer_factory.hpp:77] Creating layer pool2
I0519 21:22:47.961920  3855 net.cpp:84] Creating Layer pool2
I0519 21:22:47.961922  3855 net.cpp:406] pool2 <- conv2_2
I0519 21:22:47.961927  3855 net.cpp:380] pool2 -> pool2
I0519 21:22:47.961978  3855 net.cpp:122] Setting up pool2
I0519 21:22:47.961985  3855 net.cpp:129] Top shape: 1 128 56 56 (401408)
I0519 21:22:47.961987  3855 net.cpp:137] Memory required for data: 82489356
I0519 21:22:47.961990  3855 layer_factory.hpp:77] Creating layer conv3_1
I0519 21:22:47.961997  3855 net.cpp:84] Creating Layer conv3_1
I0519 21:22:47.961999  3855 net.cpp:406] conv3_1 <- pool2
I0519 21:22:47.962003  3855 net.cpp:380] conv3_1 -> conv3_1
I0519 21:22:47.963372  3855 net.cpp:122] Setting up conv3_1
I0519 21:22:47.963387  3855 net.cpp:129] Top shape: 1 256 56 56 (802816)
I0519 21:22:47.963389  3855 net.cpp:137] Memory required for data: 85700620
I0519 21:22:47.963397  3855 layer_factory.hpp:77] Creating layer relu3_1
I0519 21:22:47.963402  3855 net.cpp:84] Creating Layer relu3_1
I0519 21:22:47.963405  3855 net.cpp:406] relu3_1 <- conv3_1
I0519 21:22:47.963409  3855 net.cpp:367] relu3_1 -> conv3_1 (in-place)
I0519 21:22:47.963551  3855 net.cpp:122] Setting up relu3_1
I0519 21:22:47.963562  3855 net.cpp:129] Top shape: 1 256 56 56 (802816)
I0519 21:22:47.963564  3855 net.cpp:137] Memory required for data: 88911884
I0519 21:22:47.963567  3855 layer_factory.hpp:77] Creating layer conv3_2
I0519 21:22:47.963574  3855 net.cpp:84] Creating Layer conv3_2
I0519 21:22:47.963577  3855 net.cpp:406] conv3_2 <- conv3_1
I0519 21:22:47.963582  3855 net.cpp:380] conv3_2 -> conv3_2
I0519 21:22:47.966073  3855 net.cpp:122] Setting up conv3_2
I0519 21:22:47.966102  3855 net.cpp:129] Top shape: 1 256 56 56 (802816)
I0519 21:22:47.966106  3855 net.cpp:137] Memory required for data: 92123148
I0519 21:22:47.966114  3855 layer_factory.hpp:77] Creating layer relu3_2
I0519 21:22:47.966123  3855 net.cpp:84] Creating Layer relu3_2
I0519 21:22:47.966130  3855 net.cpp:406] relu3_2 <- conv3_2
I0519 21:22:47.966136  3855 net.cpp:367] relu3_2 -> conv3_2 (in-place)
I0519 21:22:47.966286  3855 net.cpp:122] Setting up relu3_2
I0519 21:22:47.966296  3855 net.cpp:129] Top shape: 1 256 56 56 (802816)
I0519 21:22:47.966300  3855 net.cpp:137] Memory required for data: 95334412
I0519 21:22:47.966302  3855 layer_factory.hpp:77] Creating layer conv3_3
I0519 21:22:47.966311  3855 net.cpp:84] Creating Layer conv3_3
I0519 21:22:47.966315  3855 net.cpp:406] conv3_3 <- conv3_2
I0519 21:22:47.966318  3855 net.cpp:380] conv3_3 -> conv3_3
I0519 21:22:47.968897  3855 net.cpp:122] Setting up conv3_3
I0519 21:22:47.968925  3855 net.cpp:129] Top shape: 1 256 56 56 (802816)
I0519 21:22:47.968930  3855 net.cpp:137] Memory required for data: 98545676
I0519 21:22:47.968938  3855 layer_factory.hpp:77] Creating layer relu3_3
I0519 21:22:47.968951  3855 net.cpp:84] Creating Layer relu3_3
I0519 21:22:47.968956  3855 net.cpp:406] relu3_3 <- conv3_3
I0519 21:22:47.968961  3855 net.cpp:367] relu3_3 -> conv3_3 (in-place)
I0519 21:22:47.969383  3855 net.cpp:122] Setting up relu3_3
I0519 21:22:47.969398  3855 net.cpp:129] Top shape: 1 256 56 56 (802816)
I0519 21:22:47.969401  3855 net.cpp:137] Memory required for data: 101756940
I0519 21:22:47.969404  3855 layer_factory.hpp:77] Creating layer pool3
I0519 21:22:47.969411  3855 net.cpp:84] Creating Layer pool3
I0519 21:22:47.969414  3855 net.cpp:406] pool3 <- conv3_3
I0519 21:22:47.969419  3855 net.cpp:380] pool3 -> pool3
I0519 21:22:47.969480  3855 net.cpp:122] Setting up pool3
I0519 21:22:47.969487  3855 net.cpp:129] Top shape: 1 256 28 28 (200704)
I0519 21:22:47.969490  3855 net.cpp:137] Memory required for data: 102559756
I0519 21:22:47.969492  3855 layer_factory.hpp:77] Creating layer conv4_1
I0519 21:22:47.969501  3855 net.cpp:84] Creating Layer conv4_1
I0519 21:22:47.969503  3855 net.cpp:406] conv4_1 <- pool3
I0519 21:22:47.969508  3855 net.cpp:380] conv4_1 -> conv4_1
I0519 21:22:47.973383  3855 net.cpp:122] Setting up conv4_1
I0519 21:22:47.973399  3855 net.cpp:129] Top shape: 1 512 28 28 (401408)
I0519 21:22:47.973402  3855 net.cpp:137] Memory required for data: 104165388
I0519 21:22:47.973410  3855 layer_factory.hpp:77] Creating layer relu4_1
I0519 21:22:47.973417  3855 net.cpp:84] Creating Layer relu4_1
I0519 21:22:47.973420  3855 net.cpp:406] relu4_1 <- conv4_1
I0519 21:22:47.973426  3855 net.cpp:367] relu4_1 -> conv4_1 (in-place)
I0519 21:22:47.973836  3855 net.cpp:122] Setting up relu4_1
I0519 21:22:47.973850  3855 net.cpp:129] Top shape: 1 512 28 28 (401408)
I0519 21:22:47.973852  3855 net.cpp:137] Memory required for data: 105771020
I0519 21:22:47.973856  3855 layer_factory.hpp:77] Creating layer conv4_2
I0519 21:22:47.973863  3855 net.cpp:84] Creating Layer conv4_2
I0519 21:22:47.973867  3855 net.cpp:406] conv4_2 <- conv4_1
I0519 21:22:47.973871  3855 net.cpp:380] conv4_2 -> conv4_2
I0519 21:22:47.978917  3855 net.cpp:122] Setting up conv4_2
I0519 21:22:47.978935  3855 net.cpp:129] Top shape: 1 512 28 28 (401408)
I0519 21:22:47.978937  3855 net.cpp:137] Memory required for data: 107376652
I0519 21:22:47.978950  3855 layer_factory.hpp:77] Creating layer relu4_2
I0519 21:22:47.978955  3855 net.cpp:84] Creating Layer relu4_2
I0519 21:22:47.978960  3855 net.cpp:406] relu4_2 <- conv4_2
I0519 21:22:47.978963  3855 net.cpp:367] relu4_2 -> conv4_2 (in-place)
I0519 21:22:47.979117  3855 net.cpp:122] Setting up relu4_2
I0519 21:22:47.979128  3855 net.cpp:129] Top shape: 1 512 28 28 (401408)
I0519 21:22:47.979131  3855 net.cpp:137] Memory required for data: 108982284
I0519 21:22:47.979135  3855 layer_factory.hpp:77] Creating layer conv4_3
I0519 21:22:47.979142  3855 net.cpp:84] Creating Layer conv4_3
I0519 21:22:47.979156  3855 net.cpp:406] conv4_3 <- conv4_2
I0519 21:22:47.979161  3855 net.cpp:380] conv4_3 -> conv4_3
I0519 21:22:47.988226  3855 net.cpp:122] Setting up conv4_3
I0519 21:22:47.988245  3855 net.cpp:129] Top shape: 1 512 28 28 (401408)
I0519 21:22:47.988248  3855 net.cpp:137] Memory required for data: 110587916
I0519 21:22:47.988262  3855 layer_factory.hpp:77] Creating layer relu4_3
I0519 21:22:47.988270  3855 net.cpp:84] Creating Layer relu4_3
I0519 21:22:47.988273  3855 net.cpp:406] relu4_3 <- conv4_3
I0519 21:22:47.988279  3855 net.cpp:367] relu4_3 -> conv4_3 (in-place)
I0519 21:22:47.988428  3855 net.cpp:122] Setting up relu4_3
I0519 21:22:47.988438  3855 net.cpp:129] Top shape: 1 512 28 28 (401408)
I0519 21:22:47.988441  3855 net.cpp:137] Memory required for data: 112193548
I0519 21:22:47.988445  3855 layer_factory.hpp:77] Creating layer pool4
I0519 21:22:47.988451  3855 net.cpp:84] Creating Layer pool4
I0519 21:22:47.988454  3855 net.cpp:406] pool4 <- conv4_3
I0519 21:22:47.988458  3855 net.cpp:380] pool4 -> pool4
I0519 21:22:47.988513  3855 net.cpp:122] Setting up pool4
I0519 21:22:47.988521  3855 net.cpp:129] Top shape: 1 512 14 14 (100352)
I0519 21:22:47.988524  3855 net.cpp:137] Memory required for data: 112594956
I0519 21:22:47.988526  3855 layer_factory.hpp:77] Creating layer conv5_1
I0519 21:22:47.988535  3855 net.cpp:84] Creating Layer conv5_1
I0519 21:22:47.988538  3855 net.cpp:406] conv5_1 <- pool4
I0519 21:22:47.988543  3855 net.cpp:380] conv5_1 -> conv5_1
I0519 21:22:47.993275  3855 net.cpp:122] Setting up conv5_1
I0519 21:22:47.993294  3855 net.cpp:129] Top shape: 1 512 14 14 (100352)
I0519 21:22:47.993299  3855 net.cpp:137] Memory required for data: 112996364
I0519 21:22:47.993305  3855 layer_factory.hpp:77] Creating layer relu5_1
I0519 21:22:47.993311  3855 net.cpp:84] Creating Layer relu5_1
I0519 21:22:47.993314  3855 net.cpp:406] relu5_1 <- conv5_1
I0519 21:22:47.993319  3855 net.cpp:367] relu5_1 -> conv5_1 (in-place)
I0519 21:22:47.993481  3855 net.cpp:122] Setting up relu5_1
I0519 21:22:47.993491  3855 net.cpp:129] Top shape: 1 512 14 14 (100352)
I0519 21:22:47.993494  3855 net.cpp:137] Memory required for data: 113397772
I0519 21:22:47.993496  3855 layer_factory.hpp:77] Creating layer conv5_2
I0519 21:22:47.993505  3855 net.cpp:84] Creating Layer conv5_2
I0519 21:22:47.993508  3855 net.cpp:406] conv5_2 <- conv5_1
I0519 21:22:47.993512  3855 net.cpp:380] conv5_2 -> conv5_2
I0519 21:22:47.998268  3855 net.cpp:122] Setting up conv5_2
I0519 21:22:47.998286  3855 net.cpp:129] Top shape: 1 512 14 14 (100352)
I0519 21:22:47.998288  3855 net.cpp:137] Memory required for data: 113799180
I0519 21:22:47.998296  3855 layer_factory.hpp:77] Creating layer relu5_2
I0519 21:22:47.998302  3855 net.cpp:84] Creating Layer relu5_2
I0519 21:22:47.998306  3855 net.cpp:406] relu5_2 <- conv5_2
I0519 21:22:47.998311  3855 net.cpp:367] relu5_2 -> conv5_2 (in-place)
I0519 21:22:47.998467  3855 net.cpp:122] Setting up relu5_2
I0519 21:22:47.998477  3855 net.cpp:129] Top shape: 1 512 14 14 (100352)
I0519 21:22:47.998479  3855 net.cpp:137] Memory required for data: 114200588
I0519 21:22:47.998482  3855 layer_factory.hpp:77] Creating layer conv5_3
I0519 21:22:47.998492  3855 net.cpp:84] Creating Layer conv5_3
I0519 21:22:47.998504  3855 net.cpp:406] conv5_3 <- conv5_2
I0519 21:22:47.998508  3855 net.cpp:380] conv5_3 -> conv5_3
I0519 21:22:48.007347  3855 net.cpp:122] Setting up conv5_3
I0519 21:22:48.007374  3855 net.cpp:129] Top shape: 1 512 14 14 (100352)
I0519 21:22:48.007377  3855 net.cpp:137] Memory required for data: 114601996
I0519 21:22:48.007385  3855 layer_factory.hpp:77] Creating layer relu5_3
I0519 21:22:48.007393  3855 net.cpp:84] Creating Layer relu5_3
I0519 21:22:48.007400  3855 net.cpp:406] relu5_3 <- conv5_3
I0519 21:22:48.007405  3855 net.cpp:367] relu5_3 -> conv5_3 (in-place)
I0519 21:22:48.007848  3855 net.cpp:122] Setting up relu5_3
I0519 21:22:48.007861  3855 net.cpp:129] Top shape: 1 512 14 14 (100352)
I0519 21:22:48.007864  3855 net.cpp:137] Memory required for data: 115003404
I0519 21:22:48.007868  3855 layer_factory.hpp:77] Creating layer conv5_3_relu5_3_0_split
I0519 21:22:48.007874  3855 net.cpp:84] Creating Layer conv5_3_relu5_3_0_split
I0519 21:22:48.007876  3855 net.cpp:406] conv5_3_relu5_3_0_split <- conv5_3
I0519 21:22:48.007881  3855 net.cpp:380] conv5_3_relu5_3_0_split -> conv5_3_relu5_3_0_split_0
I0519 21:22:48.007887  3855 net.cpp:380] conv5_3_relu5_3_0_split -> conv5_3_relu5_3_0_split_1
I0519 21:22:48.007954  3855 net.cpp:122] Setting up conv5_3_relu5_3_0_split
I0519 21:22:48.007962  3855 net.cpp:129] Top shape: 1 512 14 14 (100352)
I0519 21:22:48.007966  3855 net.cpp:129] Top shape: 1 512 14 14 (100352)
I0519 21:22:48.007967  3855 net.cpp:137] Memory required for data: 115806220
I0519 21:22:48.007971  3855 layer_factory.hpp:77] Creating layer rpn_conv/3x3
I0519 21:22:48.007985  3855 net.cpp:84] Creating Layer rpn_conv/3x3
I0519 21:22:48.007989  3855 net.cpp:406] rpn_conv/3x3 <- conv5_3_relu5_3_0_split_0
I0519 21:22:48.007997  3855 net.cpp:380] rpn_conv/3x3 -> rpn/output
I0519 21:22:48.121148  3855 net.cpp:122] Setting up rpn_conv/3x3
I0519 21:22:48.121184  3855 net.cpp:129] Top shape: 1 512 14 14 (100352)
I0519 21:22:48.121189  3855 net.cpp:137] Memory required for data: 116207628
I0519 21:22:48.121198  3855 layer_factory.hpp:77] Creating layer rpn_relu/3x3
I0519 21:22:48.121210  3855 net.cpp:84] Creating Layer rpn_relu/3x3
I0519 21:22:48.121215  3855 net.cpp:406] rpn_relu/3x3 <- rpn/output
I0519 21:22:48.121223  3855 net.cpp:367] rpn_relu/3x3 -> rpn/output (in-place)
I0519 21:22:48.121903  3855 net.cpp:122] Setting up rpn_relu/3x3
I0519 21:22:48.121922  3855 net.cpp:129] Top shape: 1 512 14 14 (100352)
I0519 21:22:48.121925  3855 net.cpp:137] Memory required for data: 116609036
I0519 21:22:48.121929  3855 layer_factory.hpp:77] Creating layer rpn/output_rpn_relu/3x3_0_split
I0519 21:22:48.121937  3855 net.cpp:84] Creating Layer rpn/output_rpn_relu/3x3_0_split
I0519 21:22:48.121940  3855 net.cpp:406] rpn/output_rpn_relu/3x3_0_split <- rpn/output
I0519 21:22:48.121945  3855 net.cpp:380] rpn/output_rpn_relu/3x3_0_split -> rpn/output_rpn_relu/3x3_0_split_0
I0519 21:22:48.121953  3855 net.cpp:380] rpn/output_rpn_relu/3x3_0_split -> rpn/output_rpn_relu/3x3_0_split_1
I0519 21:22:48.122028  3855 net.cpp:122] Setting up rpn/output_rpn_relu/3x3_0_split
I0519 21:22:48.122037  3855 net.cpp:129] Top shape: 1 512 14 14 (100352)
I0519 21:22:48.122042  3855 net.cpp:129] Top shape: 1 512 14 14 (100352)
I0519 21:22:48.122045  3855 net.cpp:137] Memory required for data: 117411852
I0519 21:22:48.122048  3855 layer_factory.hpp:77] Creating layer rpn_cls_score
I0519 21:22:48.122063  3855 net.cpp:84] Creating Layer rpn_cls_score
I0519 21:22:48.122071  3855 net.cpp:406] rpn_cls_score <- rpn/output_rpn_relu/3x3_0_split_0
I0519 21:22:48.122076  3855 net.cpp:380] rpn_cls_score -> rpn_cls_score
I0519 21:22:48.129056  3855 net.cpp:122] Setting up rpn_cls_score
I0519 21:22:48.129076  3855 net.cpp:129] Top shape: 1 18 14 14 (3528)
I0519 21:22:48.129079  3855 net.cpp:137] Memory required for data: 117425964
I0519 21:22:48.129086  3855 layer_factory.hpp:77] Creating layer rpn_bbox_pred
I0519 21:22:48.129098  3855 net.cpp:84] Creating Layer rpn_bbox_pred
I0519 21:22:48.129103  3855 net.cpp:406] rpn_bbox_pred <- rpn/output_rpn_relu/3x3_0_split_1
I0519 21:22:48.129112  3855 net.cpp:380] rpn_bbox_pred -> rpn_bbox_pred
I0519 21:22:48.130688  3855 net.cpp:122] Setting up rpn_bbox_pred
I0519 21:22:48.130702  3855 net.cpp:129] Top shape: 1 36 14 14 (7056)
I0519 21:22:48.130707  3855 net.cpp:137] Memory required for data: 117454188
I0519 21:22:48.130713  3855 layer_factory.hpp:77] Creating layer rpn_cls_score_reshape
I0519 21:22:48.130731  3855 net.cpp:84] Creating Layer rpn_cls_score_reshape
I0519 21:22:48.130735  3855 net.cpp:406] rpn_cls_score_reshape <- rpn_cls_score
I0519 21:22:48.130741  3855 net.cpp:380] rpn_cls_score_reshape -> rpn_cls_score_reshape
I0519 21:22:48.130786  3855 net.cpp:122] Setting up rpn_cls_score_reshape
I0519 21:22:48.130795  3855 net.cpp:129] Top shape: 1 2 126 14 (3528)
I0519 21:22:48.130798  3855 net.cpp:137] Memory required for data: 117468300
I0519 21:22:48.130802  3855 layer_factory.hpp:77] Creating layer rpn_cls_prob
I0519 21:22:48.130810  3855 net.cpp:84] Creating Layer rpn_cls_prob
I0519 21:22:48.130813  3855 net.cpp:406] rpn_cls_prob <- rpn_cls_score_reshape
I0519 21:22:48.130818  3855 net.cpp:380] rpn_cls_prob -> rpn_cls_prob
I0519 21:22:48.131454  3855 net.cpp:122] Setting up rpn_cls_prob
I0519 21:22:48.131470  3855 net.cpp:129] Top shape: 1 2 126 14 (3528)
I0519 21:22:48.131474  3855 net.cpp:137] Memory required for data: 117482412
I0519 21:22:48.131477  3855 layer_factory.hpp:77] Creating layer rpn_cls_prob_reshape
I0519 21:22:48.131485  3855 net.cpp:84] Creating Layer rpn_cls_prob_reshape
I0519 21:22:48.131489  3855 net.cpp:406] rpn_cls_prob_reshape <- rpn_cls_prob
I0519 21:22:48.131494  3855 net.cpp:380] rpn_cls_prob_reshape -> rpn_cls_prob_reshape
I0519 21:22:48.131537  3855 net.cpp:122] Setting up rpn_cls_prob_reshape
I0519 21:22:48.131546  3855 net.cpp:129] Top shape: 1 18 14 14 (3528)
I0519 21:22:48.131549  3855 net.cpp:137] Memory required for data: 117496524
I0519 21:22:48.131552  3855 layer_factory.hpp:77] Creating layer proposal
I0519 21:22:48.131995  3855 net.cpp:84] Creating Layer proposal
I0519 21:22:48.132010  3855 net.cpp:406] proposal <- rpn_cls_prob_reshape
I0519 21:22:48.132015  3855 net.cpp:406] proposal <- rpn_bbox_pred
I0519 21:22:48.132020  3855 net.cpp:406] proposal <- im_info
I0519 21:22:48.132026  3855 net.cpp:380] proposal -> rois
I0519 21:22:48.132798  3855 net.cpp:122] Setting up proposal
I0519 21:22:48.132815  3855 net.cpp:129] Top shape: 1 5 (5)
I0519 21:22:48.132819  3855 net.cpp:137] Memory required for data: 117496544
I0519 21:22:48.132823  3855 layer_factory.hpp:77] Creating layer roi_pool5
I0519 21:22:48.132835  3855 net.cpp:84] Creating Layer roi_pool5
I0519 21:22:48.132839  3855 net.cpp:406] roi_pool5 <- conv5_3_relu5_3_0_split_1
I0519 21:22:48.132845  3855 net.cpp:406] roi_pool5 <- rois
I0519 21:22:48.132850  3855 net.cpp:380] roi_pool5 -> pool5
I0519 21:22:48.132858  3855 roi_pooling_layer.cpp:30] Spatial scale: 0.0625
I0519 21:22:48.132927  3855 net.cpp:122] Setting up roi_pool5
I0519 21:22:48.132936  3855 net.cpp:129] Top shape: 1 512 7 7 (25088)
I0519 21:22:48.132939  3855 net.cpp:137] Memory required for data: 117596896
I0519 21:22:48.132942  3855 layer_factory.hpp:77] Creating layer fc6
I0519 21:22:48.132951  3855 net.cpp:84] Creating Layer fc6
I0519 21:22:48.132953  3855 net.cpp:406] fc6 <- pool5
I0519 21:22:48.132958  3855 net.cpp:380] fc6 -> fc6
I0519 21:22:48.323061  3855 net.cpp:122] Setting up fc6
I0519 21:22:48.323099  3855 net.cpp:129] Top shape: 1 4096 (4096)
I0519 21:22:48.323103  3855 net.cpp:137] Memory required for data: 117613280
I0519 21:22:48.323119  3855 layer_factory.hpp:77] Creating layer relu6
I0519 21:22:48.323130  3855 net.cpp:84] Creating Layer relu6
I0519 21:22:48.323134  3855 net.cpp:406] relu6 <- fc6
I0519 21:22:48.323139  3855 net.cpp:367] relu6 -> fc6 (in-place)
I0519 21:22:48.323367  3855 net.cpp:122] Setting up relu6
I0519 21:22:48.323379  3855 net.cpp:129] Top shape: 1 4096 (4096)
I0519 21:22:48.323382  3855 net.cpp:137] Memory required for data: 117629664
I0519 21:22:48.323385  3855 layer_factory.hpp:77] Creating layer drop6
I0519 21:22:48.323398  3855 net.cpp:84] Creating Layer drop6
I0519 21:22:48.323407  3855 net.cpp:406] drop6 <- fc6
I0519 21:22:48.323411  3855 net.cpp:367] drop6 -> fc6 (in-place)
I0519 21:22:48.323449  3855 net.cpp:122] Setting up drop6
I0519 21:22:48.323457  3855 net.cpp:129] Top shape: 1 4096 (4096)
I0519 21:22:48.323458  3855 net.cpp:137] Memory required for data: 117646048
I0519 21:22:48.323462  3855 layer_factory.hpp:77] Creating layer fc7
I0519 21:22:48.323467  3855 net.cpp:84] Creating Layer fc7
I0519 21:22:48.323469  3855 net.cpp:406] fc7 <- fc6
I0519 21:22:48.323474  3855 net.cpp:380] fc7 -> fc7
I0519 21:22:48.353682  3855 net.cpp:122] Setting up fc7
I0519 21:22:48.353718  3855 net.cpp:129] Top shape: 1 4096 (4096)
I0519 21:22:48.353721  3855 net.cpp:137] Memory required for data: 117662432
I0519 21:22:48.353730  3855 layer_factory.hpp:77] Creating layer relu7
I0519 21:22:48.353741  3855 net.cpp:84] Creating Layer relu7
I0519 21:22:48.353745  3855 net.cpp:406] relu7 <- fc7
I0519 21:22:48.353752  3855 net.cpp:367] relu7 -> fc7 (in-place)
I0519 21:22:48.353993  3855 net.cpp:122] Setting up relu7
I0519 21:22:48.354004  3855 net.cpp:129] Top shape: 1 4096 (4096)
I0519 21:22:48.354007  3855 net.cpp:137] Memory required for data: 117678816
I0519 21:22:48.354010  3855 layer_factory.hpp:77] Creating layer drop7
I0519 21:22:48.354017  3855 net.cpp:84] Creating Layer drop7
I0519 21:22:48.354019  3855 net.cpp:406] drop7 <- fc7
I0519 21:22:48.354024  3855 net.cpp:367] drop7 -> fc7 (in-place)
I0519 21:22:48.354063  3855 net.cpp:122] Setting up drop7
I0519 21:22:48.354068  3855 net.cpp:129] Top shape: 1 4096 (4096)
I0519 21:22:48.354069  3855 net.cpp:137] Memory required for data: 117695200
I0519 21:22:48.354073  3855 layer_factory.hpp:77] Creating layer fc7_drop7_0_split
I0519 21:22:48.354079  3855 net.cpp:84] Creating Layer fc7_drop7_0_split
I0519 21:22:48.354081  3855 net.cpp:406] fc7_drop7_0_split <- fc7
I0519 21:22:48.354084  3855 net.cpp:380] fc7_drop7_0_split -> fc7_drop7_0_split_0
I0519 21:22:48.354089  3855 net.cpp:380] fc7_drop7_0_split -> fc7_drop7_0_split_1
I0519 21:22:48.354136  3855 net.cpp:122] Setting up fc7_drop7_0_split
I0519 21:22:48.354143  3855 net.cpp:129] Top shape: 1 4096 (4096)
I0519 21:22:48.354146  3855 net.cpp:129] Top shape: 1 4096 (4096)
I0519 21:22:48.354148  3855 net.cpp:137] Memory required for data: 117727968
I0519 21:22:48.354151  3855 layer_factory.hpp:77] Creating layer cls_score
I0519 21:22:48.354159  3855 net.cpp:84] Creating Layer cls_score
I0519 21:22:48.354162  3855 net.cpp:406] cls_score <- fc7_drop7_0_split_0
I0519 21:22:48.354166  3855 net.cpp:380] cls_score -> cls_score
I0519 21:22:48.354506  3855 net.cpp:122] Setting up cls_score
I0519 21:22:48.354513  3855 net.cpp:129] Top shape: 1 2 (2)
I0519 21:22:48.354516  3855 net.cpp:137] Memory required for data: 117727976
I0519 21:22:48.354521  3855 layer_factory.hpp:77] Creating layer bbox_pred
I0519 21:22:48.354526  3855 net.cpp:84] Creating Layer bbox_pred
I0519 21:22:48.354528  3855 net.cpp:406] bbox_pred <- fc7_drop7_0_split_1
I0519 21:22:48.354532  3855 net.cpp:380] bbox_pred -> bbox_pred
I0519 21:22:48.355500  3855 net.cpp:122] Setting up bbox_pred
I0519 21:22:48.355512  3855 net.cpp:129] Top shape: 1 8 (8)
I0519 21:22:48.355515  3855 net.cpp:137] Memory required for data: 117728008
I0519 21:22:48.355520  3855 layer_factory.hpp:77] Creating layer cls_prob
I0519 21:22:48.355526  3855 net.cpp:84] Creating Layer cls_prob
I0519 21:22:48.355530  3855 net.cpp:406] cls_prob <- cls_score
I0519 21:22:48.355535  3855 net.cpp:380] cls_prob -> cls_prob
I0519 21:22:48.356189  3855 net.cpp:122] Setting up cls_prob
I0519 21:22:48.356204  3855 net.cpp:129] Top shape: 1 2 (2)
I0519 21:22:48.356206  3855 net.cpp:137] Memory required for data: 117728016
I0519 21:22:48.356210  3855 net.cpp:200] cls_prob does not need backward computation.
I0519 21:22:48.356212  3855 net.cpp:200] bbox_pred does not need backward computation.
I0519 21:22:48.356215  3855 net.cpp:200] cls_score does not need backward computation.
I0519 21:22:48.356218  3855 net.cpp:200] fc7_drop7_0_split does not need backward computation.
…
