…
snapshot_prefix: "vgg16_faster_rcnn"
average_loss: 100
iter_size: 2
I0519 17:48:30.185102  3636 solver.cpp:77] Creating training net from train_net file: models/coco_person/VGG16/faster_rcnn_end2end/train.prototxt
I0519 17:48:30.185951  3636 net.cpp:51] Initializing net from parameters: 
name: "VGG_ILSVRC_16_layers"
state {
  phase: TRAIN
}
layer {
  name: "input-data"
  type: "Python"
  top: "data"
  top: "im_info"
  top: "gt_boxes"
  python_param {
    module: "roi_data_layer.layer"
    layer: "RoIDataLayer"
    param_str: "\'num_classes\': 2"
  }
}
layer {
  name: "conv1_1"
  type: "Convolution"
  bottom: "data"
  top: "conv1_1"
  param {
    lr_mult: 0
    decay_mult: 0
  }
  param {
    lr_mult: 0
    decay_mult: 0
  }
  convolution_param {
    num_output: 64
    pad: 1
    kernel_size: 3
  }
}
layer {
  name: "relu1_1"
  type: "ReLU"
  bottom: "conv1_1"
  top: "conv1_1"
}
layer {
  name: "conv1_2"
  type: "Convolution"
  bottom: "conv1_1"
  top: "conv1_2"
  param {
    lr_mult: 0
    decay_mult: 0
  }
  param {
    lr_mult: 0
    decay_mult: 0
  }
  convolution_param {
    num_output: 64
    pad: 1
    kernel_size: 3
  }
}
layer {
  name: "relu1_2"
  type: "ReLU"
  bottom: "conv1_2"
  top: "conv1_2"
}
layer {
  name: "pool1"
  type: "Pooling"
  bottom: "conv1_2"
  top: "pool1"
  pooling_param {
    pool: MAX
    kernel_size: 2
    stride: 2
  }
}
layer {
  name: "conv2_1"
  type: "Convolution"
  bottom: "pool1"
  top: "conv2_1"
  param {
    lr_mult: 0
    decay_mult: 0
  }
  param {
    lr_mult: 0
    decay_mult: 0
  }
  convolution_param {
    num_output: 128
    pad: 1
    kernel_size: 3
  }
}
layer {
  name: "relu2_1"
  type: "ReLU"
  bottom: "conv2_1"
  top: "conv2_1"
}
layer {
  name: "conv2_2"
  type: "Convolution"
  bottom: "conv2_1"
  top: "conv2_2"
  param {
    lr_mult: 0
    decay_mult: 0
  }
  param {
    lr_mult: 0
    decay_mult: 0
  }
  convolution_param {
    num_output: 128
    pad: 1
    kernel_size: 3
  }
}
layer {
  name: "relu2_2"
  type: "ReLU"
  bottom: "conv2_2"
  top: "conv2_2"
}
layer {
  name: "pool2"
  type: "Pooling"
  bottom: "conv2_2"
  top: "pool2"
  pooling_param {
    pool: MAX
    kernel_size: 2
    stride: 2
  }
}
layer {
  name: "conv3_1"
  type: "Convolution"
  bottom: "pool2"
  top: "conv3_1"
  param {
    lr_mult: 1
  }
  param {
    lr_mult: 2
  }
  convolution_param {
    num_output: 256
    pad: 1
    kernel_size: 3
  }
}
layer {
  name: "relu3_1"
  type: "ReLU"
  bottom: "conv3_1"
  top: "conv3_1"
}
layer {
  name: "conv3_2"
  type: "Convolution"
  bottom: "conv3_1"
  top: "conv3_2"
  param {
    lr_mult: 1
  }
  param {
    lr_mult: 2
  }
  convolution_param {
    num_output: 256
    pad: 1
    kernel_size: 3
  }
}
layer {
  name: "relu3_2"
  type: "ReLU"
  bottom: "conv3_2"
  top: "conv3_2"
}
layer {
  name: "conv3_3"
  type: "Convolution"
  bottom: "conv3_2"
  top: "conv3_3"
  param {
    lr_mult: 1
  }
  param {
    lr_mult: 2
  }
  convolution_param {
    num_output: 256
    pad: 1
    kernel_size: 3
  }
}
layer {
  name: "relu3_3"
  type: "ReLU"
  bottom: "conv3_3"
  top: "conv3_3"
}
layer {
  name: "pool3"
  type: "Pooling"
  bottom: "conv3_3"
  top: "pool3"
  pooling_param {
    pool: MAX
    kernel_size: 2
    stride: 2
  }
}
layer {
  name: "conv4_1"
  type: "Convolution"
  bottom: "pool3"
  top: "conv4_1"
  param {
    lr_mult: 1
  }
  param {
    lr_mult: 2
  }
  convolution_param {
    num_output: 512
    pad: 1
    kernel_size: 3
  }
}
layer {
  name: "relu4_1"
  type: "ReLU"
  bottom: "conv4_1"
  top: "conv4_1"
}
layer {
  name: "conv4_2"
  type: "Convolution"
  bottom: "conv4_1"
  top: "conv4_2"
  param {
    lr_mult: 1
  }
  param {
    lr_mult: 2
  }
  convolution_param {
    num_output: 512
    pad: 1
    kernel_size: 3
  }
}
layer {
  name: "relu4_2"
  type: "ReLU"
  bottom: "conv4_2"
  top: "conv4_2"
}
layer {
  name: "conv4_3"
  type: "Convolution"
  bottom: "conv4_2"
  top: "conv4_3"
  param {
    lr_mult: 1
  }
  param {
    lr_mult: 2
  }
  convolution_param {
    num_output: 512
    pad: 1
    kernel_size: 3
  }
}
layer {
  name: "relu4_3"
  type: "ReLU"
  bottom: "conv4_3"
  top: "conv4_3"
}
layer {
  name: "pool4"
  type: "Pooling"
  bottom: "conv4_3"
  top: "pool4"
  pooling_param {
    pool: MAX
    kernel_size: 2
    stride: 2
  }
}
layer {
  name: "conv5_1"
  type: "Convolution"
  bottom: "pool4"
  top: "conv5_1"
  param {
    lr_mult: 1
  }
  param {
    lr_mult: 2
  }
  convolution_param {
    num_output: 512
    pad: 1
    kernel_size: 3
  }
}
layer {
  name: "relu5_1"
  type: "ReLU"
  bottom: "conv5_1"
  top: "conv5_1"
}
layer {
  name: "conv5_2"
  type: "Convolution"
  bottom: "conv5_1"
  top: "conv5_2"
  param {
    lr_mult: 1
  }
  param {
    lr_mult: 2
  }
  convolution_param {
    num_output: 512
    pad: 1
    kernel_size: 3
  }
}
layer {
  name: "relu5_2"
  type: "ReLU"
  bottom: "conv5_2"
  top: "conv5_2"
}
layer {
  name: "conv5_3"
  type: "Convolution"
  bottom: "conv5_2"
  top: "conv5_3"
  param {
    lr_mult: 1
  }
  param {
    lr_mult: 2
  }
  convolution_param {
    num_output: 512
    pad: 1
    kernel_size: 3
  }
}
layer {
  name: "relu5_3"
  type: "ReLU"
  bottom: "conv5_3"
  top: "conv5_3"
}
layer {
  name: "rpn_conv/3x3"
  type: "Convolution"
  bottom: "conv5_3"
  top: "rpn/output"
  param {
    lr_mult: 1
  }
  param {
    lr_mult: 2
  }
  convolution_param {
    num_output: 512
    pad: 1
    kernel_size: 3
    stride: 1
    weight_filler {
      type: "gaussian"
      std: 0.01
    }
    bias_filler {
      type: "constant"
      value: 0
    }
  }
}
layer {
  name: "rpn_relu/3x3"
  type: "ReLU"
  bottom: "rpn/output"
  top: "rpn/output"
}
layer {
  name: "rpn_cls_score"
  type: "Convolution"
  bottom: "rpn/output"
  top: "rpn_cls_score"
  param {
    lr_mult: 1
  }
  param {
    lr_mult: 2
  }
  convolution_param {
    num_output: 24
    pad: 0
    kernel_size: 1
    stride: 1
    weight_filler {
      type: "gaussian"
      std: 0.01
    }
    bias_filler {
      type: "constant"
      value: 0
    }
  }
}
layer {
  name: "rpn_bbox_pred"
  type: "Convolution"
  bottom: "rpn/output"
  top: "rpn_bbox_pred"
  param {
    lr_mult: 1
  }
  param {
    lr_mult: 2
  }
  convolution_param {
    num_output: 48
    pad: 0
    kernel_size: 1
    stride: 1
    weight_filler {
      type: "gaussian"
      std: 0.01
    }
    bias_filler {
      type: "constant"
      value: 0
    }
  }
}
layer {
  name: "rpn_cls_score_reshape"
  type: "Reshape"
  bottom: "rpn_cls_score"
  top: "rpn_cls_score_reshape"
  reshape_param {
    shape {
      dim: 0
      dim: 2
      dim: -1
      dim: 0
    }
  }
}
layer {
  name: "rpn-data"
  type: "Python"
  bottom: "rpn_cls_score"
  bottom: "gt_boxes"
  bottom: "im_info"
  bottom: "data"
  top: "rpn_labels"
  top: "rpn_bbox_targets"
  top: "rpn_bbox_inside_weights"
  top: "rpn_bbox_outside_weights"
  python_param {
    module: "rpn.anchor_target_layer"
    layer: "AnchorTargetLayer"
    param_str: "\'feat_stride\': 16 \n\'scales\': !!python/tuple [4, 8, 16, 32]"
  }
}
layer {
  name: "rpn_loss_cls"
  type: "SoftmaxWithLoss"
  bottom: "rpn_cls_score_reshape"
  bottom: "rpn_labels"
  top: "rpn_cls_loss"
  loss_weight: 1
  propagate_down: true
  propagate_down: false
  loss_param {
    ignore_label: -1
    normalize: true
  }
}
layer {
  name: "rpn_loss_bbox"
  type: "SmoothL1Loss"
  bottom: "rpn_bbox_pred"
  bottom: "rpn_bbox_targets"
  bottom: "rpn_bbox_inside_weights"
  bottom: "rpn_bbox_outside_weights"
  top: "rpn_loss_bbox"
  loss_weight: 1
  smooth_l1_loss_param {
    sigma: 3
  }
}
layer {
  name: "rpn_cls_prob"
  type: "Softmax"
  bottom: "rpn_cls_score_reshape"
  top: "rpn_cls_prob"
}
layer {
  name: "rpn_cls_prob_reshape"
  type: "Reshape"
  bottom: "rpn_cls_prob"
  top: "rpn_cls_prob_reshape"
  reshape_param {
    shape {
      dim: 0
      dim: 24
      dim: -1
      dim: 0
    }
  }
}
layer {
  name: "proposal"
  type: "Python"
  bottom: "rpn_cls_prob_reshape"
  bottom: "rpn_bbox_pred"
  bottom: "im_info"
  top: "rpn_rois"
  python_param {
    module: "rpn.proposal_layer"
    layer: "ProposalLayer"
    param_str: "\'feat_stride\': 16 \n\'scales\': !!python/tuple [4, 8, 16, 32]"
  }
}
layer {
  name: "roi-data"
  type: "Python"
  bottom: "rpn_rois"
  bottom: "gt_boxes"
  top: "rois"
  top: "labels"
  top: "bbox_targets"
  top: "bbox_inside_weights"
  top: "bbox_outside_weights"
  python_param {
    module: "rpn.proposal_target_layer"
    layer: "ProposalTargetLayer"
    param_str: "\'num_classes\': 2"
  }
}
layer {
  name: "roi_pool5"
  type: "ROIPooling"
  bottom: "conv5_3"
  bottom: "rois"
  top: "pool5"
  roi_pooling_param {
    pooled_h: 7
    pooled_w: 7
    spatial_scale: 0.0625
  }
}
layer {
  name: "fc6"
  type: "InnerProduct"
  bottom: "pool5"
  top: "fc6"
  param {
    lr_mult: 1
  }
  param {
    lr_mult: 2
  }
  inner_product_param {
    num_output: 4096
  }
}
layer {
  name: "relu6"
  type: "ReLU"
  bottom: "fc6"
  top: "fc6"
}
layer {
  name: "fc7"
  type: "InnerProduct"
  bottom: "fc6"
  top: "fc7"
  param {
    lr_mult: 1
  }
  param {
    lr_mult: 2
  }
  inner_product_param {
    num_output: 4096
  }
}
layer {
  name: "relu7"
  type: "ReLU"
  bottom: "fc7"
  top: "fc7"
}
layer {
  name: "cls_score"
  type: "InnerProduct"
  bottom: "fc7"
  top: "cls_score"
  param {
    lr_mult: 1
  }
  param {
    lr_mult: 2
  }
  inner_product_param {
    num_output: 2
    weight_filler {
      type: "gaussian"
      std: 0.01
    }
    bias_filler {
      type: "constant"
      value: 0
    }
  }
}
layer {
  name: "bbox_pred"
  type: "InnerProduct"
  bottom: "fc7"
  top: "bbox_pred"
  param {
    lr_mult: 1
  }
  param {
    lr_mult: 2
  }
  inner_product_param {
    num_output: 8
    weight_filler {
      type: "gaussian"
      std: 0.001
    }
    bias_filler {
      type: "constant"
      value: 0
    }
  }
}
layer {
  name: "loss_cls"
  type: "SoftmaxWithLoss"
  bottom: "cls_score"
  bottom: "labels"
  top: "loss_cls"
  loss_weight: 1
  propagate_down: true
  propagate_down: false
}
layer {
  name: "loss_bbox"
  type: "SmoothL1Loss"
  bottom: "bbox_pred"
  bottom: "bbox_targets"
  bottom: "bbox_inside_weights"
  bottom: "bbox_outside_weights"
  top: "loss_bbox"
  loss_weight: 1
}
I0519 17:48:30.186136  3636 layer_factory.hpp:77] Creating layer input-data
I0519 17:48:30.234967  3636 net.cpp:84] Creating Layer input-data
I0519 17:48:30.234995  3636 net.cpp:380] input-data -> data
I0519 17:48:30.235005  3636 net.cpp:380] input-data -> im_info
I0519 17:48:30.235010  3636 net.cpp:380] input-data -> gt_boxes
RoiDataLayer: name_to_top: {'gt_boxes': 2, 'data': 0, 'im_info': 1}
I0519 17:48:30.877037  3636 net.cpp:122] Setting up input-data
I0519 17:48:30.877068  3636 net.cpp:129] Top shape: 1 3 600 1000 (1800000)
I0519 17:48:30.877076  3636 net.cpp:129] Top shape: 1 3 (3)
I0519 17:48:30.877079  3636 net.cpp:129] Top shape: 1 4 (4)
I0519 17:48:30.877082  3636 net.cpp:137] Memory required for data: 7200028
I0519 17:48:30.877089  3636 layer_factory.hpp:77] Creating layer data_input-data_0_split
I0519 17:48:30.877104  3636 net.cpp:84] Creating Layer data_input-data_0_split
I0519 17:48:30.877110  3636 net.cpp:406] data_input-data_0_split <- data
I0519 17:48:30.877116  3636 net.cpp:380] data_input-data_0_split -> data_input-data_0_split_0
I0519 17:48:30.877125  3636 net.cpp:380] data_input-data_0_split -> data_input-data_0_split_1
I0519 17:48:30.877174  3636 net.cpp:122] Setting up data_input-data_0_split
I0519 17:48:30.877182  3636 net.cpp:129] Top shape: 1 3 600 1000 (1800000)
I0519 17:48:30.877184  3636 net.cpp:129] Top shape: 1 3 600 1000 (1800000)
I0519 17:48:30.877187  3636 net.cpp:137] Memory required for data: 21600028
I0519 17:48:30.877189  3636 layer_factory.hpp:77] Creating layer im_info_input-data_1_split
I0519 17:48:30.877193  3636 net.cpp:84] Creating Layer im_info_input-data_1_split
I0519 17:48:30.877197  3636 net.cpp:406] im_info_input-data_1_split <- im_info
I0519 17:48:30.877200  3636 net.cpp:380] im_info_input-data_1_split -> im_info_input-data_1_split_0
I0519 17:48:30.877204  3636 net.cpp:380] im_info_input-data_1_split -> im_info_input-data_1_split_1
I0519 17:48:30.877235  3636 net.cpp:122] Setting up im_info_input-data_1_split
I0519 17:48:30.877240  3636 net.cpp:129] Top shape: 1 3 (3)
I0519 17:48:30.877243  3636 net.cpp:129] Top shape: 1 3 (3)
I0519 17:48:30.877245  3636 net.cpp:137] Memory required for data: 21600052
I0519 17:48:30.877249  3636 layer_factory.hpp:77] Creating layer gt_boxes_input-data_2_split
I0519 17:48:30.877251  3636 net.cpp:84] Creating Layer gt_boxes_input-data_2_split
I0519 17:48:30.877254  3636 net.cpp:406] gt_boxes_input-data_2_split <- gt_boxes
I0519 17:48:30.877259  3636 net.cpp:380] gt_boxes_input-data_2_split -> gt_boxes_input-data_2_split_0
I0519 17:48:30.877262  3636 net.cpp:380] gt_boxes_input-data_2_split -> gt_boxes_input-data_2_split_1
I0519 17:48:30.877292  3636 net.cpp:122] Setting up gt_boxes_input-data_2_split
I0519 17:48:30.877298  3636 net.cpp:129] Top shape: 1 4 (4)
I0519 17:48:30.877301  3636 net.cpp:129] Top shape: 1 4 (4)
I0519 17:48:30.877303  3636 net.cpp:137] Memory required for data: 21600084
I0519 17:48:30.877306  3636 layer_factory.hpp:77] Creating layer conv1_1
I0519 17:48:30.877315  3636 net.cpp:84] Creating Layer conv1_1
I0519 17:48:30.877317  3636 net.cpp:406] conv1_1 <- data_input-data_0_split_0
I0519 17:48:30.877321  3636 net.cpp:380] conv1_1 -> conv1_1
I0519 17:48:31.038345  3636 net.cpp:122] Setting up conv1_1
I0519 17:48:31.038372  3636 net.cpp:129] Top shape: 1 64 600 1000 (38400000)
I0519 17:48:31.038375  3636 net.cpp:137] Memory required for data: 175200084
I0519 17:48:31.038388  3636 layer_factory.hpp:77] Creating layer relu1_1
I0519 17:48:31.038398  3636 net.cpp:84] Creating Layer relu1_1
I0519 17:48:31.038401  3636 net.cpp:406] relu1_1 <- conv1_1
I0519 17:48:31.038406  3636 net.cpp:367] relu1_1 -> conv1_1 (in-place)
I0519 17:48:31.038797  3636 net.cpp:122] Setting up relu1_1
I0519 17:48:31.038810  3636 net.cpp:129] Top shape: 1 64 600 1000 (38400000)
I0519 17:48:31.038812  3636 net.cpp:137] Memory required for data: 328800084
I0519 17:48:31.038815  3636 layer_factory.hpp:77] Creating layer conv1_2
I0519 17:48:31.038825  3636 net.cpp:84] Creating Layer conv1_2
I0519 17:48:31.038826  3636 net.cpp:406] conv1_2 <- conv1_1
I0519 17:48:31.038831  3636 net.cpp:380] conv1_2 -> conv1_2
I0519 17:48:31.041445  3636 net.cpp:122] Setting up conv1_2
I0519 17:48:31.041458  3636 net.cpp:129] Top shape: 1 64 600 1000 (38400000)
I0519 17:48:31.041461  3636 net.cpp:137] Memory required for data: 482400084
I0519 17:48:31.041468  3636 layer_factory.hpp:77] Creating layer relu1_2
I0519 17:48:31.041473  3636 net.cpp:84] Creating Layer relu1_2
I0519 17:48:31.041476  3636 net.cpp:406] relu1_2 <- conv1_2
I0519 17:48:31.041479  3636 net.cpp:367] relu1_2 -> conv1_2 (in-place)
I0519 17:48:31.041873  3636 net.cpp:122] Setting up relu1_2
I0519 17:48:31.041885  3636 net.cpp:129] Top shape: 1 64 600 1000 (38400000)
I0519 17:48:31.041888  3636 net.cpp:137] Memory required for data: 636000084
I0519 17:48:31.041891  3636 layer_factory.hpp:77] Creating layer pool1
I0519 17:48:31.041899  3636 net.cpp:84] Creating Layer pool1
I0519 17:48:31.041901  3636 net.cpp:406] pool1 <- conv1_2
I0519 17:48:31.041906  3636 net.cpp:380] pool1 -> pool1
I0519 17:48:31.041954  3636 net.cpp:122] Setting up pool1
I0519 17:48:31.041960  3636 net.cpp:129] Top shape: 1 64 300 500 (9600000)
I0519 17:48:31.041962  3636 net.cpp:137] Memory required for data: 674400084
I0519 17:48:31.041965  3636 layer_factory.hpp:77] Creating layer conv2_1
I0519 17:48:31.041970  3636 net.cpp:84] Creating Layer conv2_1
I0519 17:48:31.041973  3636 net.cpp:406] conv2_1 <- pool1
I0519 17:48:31.041977  3636 net.cpp:380] conv2_1 -> conv2_1
I0519 17:48:31.043962  3636 net.cpp:122] Setting up conv2_1
I0519 17:48:31.043974  3636 net.cpp:129] Top shape: 1 128 300 500 (19200000)
I0519 17:48:31.043977  3636 net.cpp:137] Memory required for data: 751200084
I0519 17:48:31.043984  3636 layer_factory.hpp:77] Creating layer relu2_1
I0519 17:48:31.043989  3636 net.cpp:84] Creating Layer relu2_1
I0519 17:48:31.043992  3636 net.cpp:406] relu2_1 <- conv2_1
I0519 17:48:31.043997  3636 net.cpp:367] relu2_1 -> conv2_1 (in-place)
I0519 17:48:31.044138  3636 net.cpp:122] Setting up relu2_1
I0519 17:48:31.044147  3636 net.cpp:129] Top shape: 1 128 300 500 (19200000)
I0519 17:48:31.044150  3636 net.cpp:137] Memory required for data: 828000084
I0519 17:48:31.044152  3636 layer_factory.hpp:77] Creating layer conv2_2
I0519 17:48:31.044158  3636 net.cpp:84] Creating Layer conv2_2
I0519 17:48:31.044162  3636 net.cpp:406] conv2_2 <- conv2_1
I0519 17:48:31.044165  3636 net.cpp:380] conv2_2 -> conv2_2
I0519 17:48:31.045454  3636 net.cpp:122] Setting up conv2_2
I0519 17:48:31.045466  3636 net.cpp:129] Top shape: 1 128 300 500 (19200000)
I0519 17:48:31.045469  3636 net.cpp:137] Memory required for data: 904800084
I0519 17:48:31.045475  3636 layer_factory.hpp:77] Creating layer relu2_2
I0519 17:48:31.045480  3636 net.cpp:84] Creating Layer relu2_2
I0519 17:48:31.045482  3636 net.cpp:406] relu2_2 <- conv2_2
I0519 17:48:31.045486  3636 net.cpp:367] relu2_2 -> conv2_2 (in-place)
I0519 17:48:31.045630  3636 net.cpp:122] Setting up relu2_2
I0519 17:48:31.045639  3636 net.cpp:129] Top shape: 1 128 300 500 (19200000)
I0519 17:48:31.045642  3636 net.cpp:137] Memory required for data: 981600084
I0519 17:48:31.045645  3636 layer_factory.hpp:77] Creating layer pool2
I0519 17:48:31.045650  3636 net.cpp:84] Creating Layer pool2
I0519 17:48:31.045652  3636 net.cpp:406] pool2 <- conv2_2
I0519 17:48:31.045656  3636 net.cpp:380] pool2 -> pool2
I0519 17:48:31.045701  3636 net.cpp:122] Setting up pool2
I0519 17:48:31.045708  3636 net.cpp:129] Top shape: 1 128 150 250 (4800000)
I0519 17:48:31.045711  3636 net.cpp:137] Memory required for data: 1000800084
I0519 17:48:31.045713  3636 layer_factory.hpp:77] Creating layer conv3_1
I0519 17:48:31.045718  3636 net.cpp:84] Creating Layer conv3_1
I0519 17:48:31.045722  3636 net.cpp:406] conv3_1 <- pool2
I0519 17:48:31.045725  3636 net.cpp:380] conv3_1 -> conv3_1
I0519 17:48:31.047806  3636 net.cpp:122] Setting up conv3_1
I0519 17:48:31.047818  3636 net.cpp:129] Top shape: 1 256 150 250 (9600000)
I0519 17:48:31.047821  3636 net.cpp:137] Memory required for data: 1039200084
I0519 17:48:31.047829  3636 layer_factory.hpp:77] Creating layer relu3_1
I0519 17:48:31.047834  3636 net.cpp:84] Creating Layer relu3_1
I0519 17:48:31.047837  3636 net.cpp:406] relu3_1 <- conv3_1
I0519 17:48:31.047842  3636 net.cpp:367] relu3_1 -> conv3_1 (in-place)
I0519 17:48:31.047998  3636 net.cpp:122] Setting up relu3_1
I0519 17:48:31.048008  3636 net.cpp:129] Top shape: 1 256 150 250 (9600000)
I0519 17:48:31.048012  3636 net.cpp:137] Memory required for data: 1077600084
I0519 17:48:31.048013  3636 layer_factory.hpp:77] Creating layer conv3_2
I0519 17:48:31.048022  3636 net.cpp:84] Creating Layer conv3_2
I0519 17:48:31.048024  3636 net.cpp:406] conv3_2 <- conv3_1
I0519 17:48:31.048029  3636 net.cpp:380] conv3_2 -> conv3_2
I0519 17:48:31.050379  3636 net.cpp:122] Setting up conv3_2
I0519 17:48:31.050391  3636 net.cpp:129] Top shape: 1 256 150 250 (9600000)
I0519 17:48:31.050395  3636 net.cpp:137] Memory required for data: 1116000084
I0519 17:48:31.050400  3636 layer_factory.hpp:77] Creating layer relu3_2
I0519 17:48:31.050405  3636 net.cpp:84] Creating Layer relu3_2
I0519 17:48:31.050407  3636 net.cpp:406] relu3_2 <- conv3_2
I0519 17:48:31.050411  3636 net.cpp:367] relu3_2 -> conv3_2 (in-place)
I0519 17:48:31.050564  3636 net.cpp:122] Setting up relu3_2
I0519 17:48:31.050573  3636 net.cpp:129] Top shape: 1 256 150 250 (9600000)
I0519 17:48:31.050575  3636 net.cpp:137] Memory required for data: 1154400084
I0519 17:48:31.050578  3636 layer_factory.hpp:77] Creating layer conv3_3
I0519 17:48:31.050585  3636 net.cpp:84] Creating Layer conv3_3
I0519 17:48:31.050588  3636 net.cpp:406] conv3_3 <- conv3_2
I0519 17:48:31.050592  3636 net.cpp:380] conv3_3 -> conv3_3
I0519 17:48:31.052949  3636 net.cpp:122] Setting up conv3_3
I0519 17:48:31.052963  3636 net.cpp:129] Top shape: 1 256 150 250 (9600000)
I0519 17:48:31.052964  3636 net.cpp:137] Memory required for data: 1192800084
I0519 17:48:31.052970  3636 layer_factory.hpp:77] Creating layer relu3_3
I0519 17:48:31.052975  3636 net.cpp:84] Creating Layer relu3_3
I0519 17:48:31.052978  3636 net.cpp:406] relu3_3 <- conv3_3
I0519 17:48:31.052983  3636 net.cpp:367] relu3_3 -> conv3_3 (in-place)
I0519 17:48:31.053393  3636 net.cpp:122] Setting up relu3_3
I0519 17:48:31.053416  3636 net.cpp:129] Top shape: 1 256 150 250 (9600000)
I0519 17:48:31.053417  3636 net.cpp:137] Memory required for data: 1231200084
I0519 17:48:31.053421  3636 layer_factory.hpp:77] Creating layer pool3
I0519 17:48:31.053436  3636 net.cpp:84] Creating Layer pool3
I0519 17:48:31.053439  3636 net.cpp:406] pool3 <- conv3_3
I0519 17:48:31.053444  3636 net.cpp:380] pool3 -> pool3
I0519 17:48:31.053496  3636 net.cpp:122] Setting up pool3
I0519 17:48:31.053504  3636 net.cpp:129] Top shape: 1 256 75 125 (2400000)
I0519 17:48:31.053506  3636 net.cpp:137] Memory required for data: 1240800084
I0519 17:48:31.053508  3636 layer_factory.hpp:77] Creating layer conv4_1
I0519 17:48:31.053515  3636 net.cpp:84] Creating Layer conv4_1
I0519 17:48:31.053519  3636 net.cpp:406] conv4_1 <- pool3
I0519 17:48:31.053522  3636 net.cpp:380] conv4_1 -> conv4_1
I0519 17:48:31.057870  3636 net.cpp:122] Setting up conv4_1
I0519 17:48:31.057884  3636 net.cpp:129] Top shape: 1 512 75 125 (4800000)
I0519 17:48:31.057888  3636 net.cpp:137] Memory required for data: 1260000084
I0519 17:48:31.057893  3636 layer_factory.hpp:77] Creating layer relu4_1
I0519 17:48:31.057898  3636 net.cpp:84] Creating Layer relu4_1
I0519 17:48:31.057900  3636 net.cpp:406] relu4_1 <- conv4_1
I0519 17:48:31.057905  3636 net.cpp:367] relu4_1 -> conv4_1 (in-place)
I0519 17:48:31.058315  3636 net.cpp:122] Setting up relu4_1
I0519 17:48:31.058348  3636 net.cpp:129] Top shape: 1 512 75 125 (4800000)
I0519 17:48:31.058351  3636 net.cpp:137] Memory required for data: 1279200084
I0519 17:48:31.058354  3636 layer_factory.hpp:77] Creating layer conv4_2
I0519 17:48:31.058363  3636 net.cpp:84] Creating Layer conv4_2
I0519 17:48:31.058367  3636 net.cpp:406] conv4_2 <- conv4_1
I0519 17:48:31.058372  3636 net.cpp:380] conv4_2 -> conv4_2
I0519 17:48:31.062968  3636 net.cpp:122] Setting up conv4_2
I0519 17:48:31.062983  3636 net.cpp:129] Top shape: 1 512 75 125 (4800000)
I0519 17:48:31.062988  3636 net.cpp:137] Memory required for data: 1298400084
I0519 17:48:31.062997  3636 layer_factory.hpp:77] Creating layer relu4_2
I0519 17:48:31.063002  3636 net.cpp:84] Creating Layer relu4_2
I0519 17:48:31.063006  3636 net.cpp:406] relu4_2 <- conv4_2
I0519 17:48:31.063011  3636 net.cpp:367] relu4_2 -> conv4_2 (in-place)
I0519 17:48:31.063170  3636 net.cpp:122] Setting up relu4_2
I0519 17:48:31.063179  3636 net.cpp:129] Top shape: 1 512 75 125 (4800000)
I0519 17:48:31.063182  3636 net.cpp:137] Memory required for data: 1317600084
I0519 17:48:31.063184  3636 layer_factory.hpp:77] Creating layer conv4_3
I0519 17:48:31.063191  3636 net.cpp:84] Creating Layer conv4_3
I0519 17:48:31.063194  3636 net.cpp:406] conv4_3 <- conv4_2
I0519 17:48:31.063199  3636 net.cpp:380] conv4_3 -> conv4_3
I0519 17:48:31.067633  3636 net.cpp:122] Setting up conv4_3
I0519 17:48:31.067649  3636 net.cpp:129] Top shape: 1 512 75 125 (4800000)
I0519 17:48:31.067652  3636 net.cpp:137] Memory required for data: 1336800084
I0519 17:48:31.067658  3636 layer_factory.hpp:77] Creating layer relu4_3
I0519 17:48:31.067665  3636 net.cpp:84] Creating Layer relu4_3
I0519 17:48:31.067669  3636 net.cpp:406] relu4_3 <- conv4_3
I0519 17:48:31.067673  3636 net.cpp:367] relu4_3 -> conv4_3 (in-place)
I0519 17:48:31.067826  3636 net.cpp:122] Setting up relu4_3
I0519 17:48:31.067834  3636 net.cpp:129] Top shape: 1 512 75 125 (4800000)
I0519 17:48:31.067837  3636 net.cpp:137] Memory required for data: 1356000084
I0519 17:48:31.067839  3636 layer_factory.hpp:77] Creating layer pool4
I0519 17:48:31.067847  3636 net.cpp:84] Creating Layer pool4
I0519 17:48:31.067849  3636 net.cpp:406] pool4 <- conv4_3
I0519 17:48:31.067853  3636 net.cpp:380] pool4 -> pool4
I0519 17:48:31.067903  3636 net.cpp:122] Setting up pool4
I0519 17:48:31.067910  3636 net.cpp:129] Top shape: 1 512 38 63 (1225728)
I0519 17:48:31.067912  3636 net.cpp:137] Memory required for data: 1360902996
I0519 17:48:31.067914  3636 layer_factory.hpp:77] Creating layer conv5_1
I0519 17:48:31.067921  3636 net.cpp:84] Creating Layer conv5_1
I0519 17:48:31.067924  3636 net.cpp:406] conv5_1 <- pool4
I0519 17:48:31.067929  3636 net.cpp:380] conv5_1 -> conv5_1
I0519 17:48:31.073369  3636 net.cpp:122] Setting up conv5_1
I0519 17:48:31.073386  3636 net.cpp:129] Top shape: 1 512 38 63 (1225728)
I0519 17:48:31.073390  3636 net.cpp:137] Memory required for data: 1365805908
I0519 17:48:31.073395  3636 layer_factory.hpp:77] Creating layer relu5_1
I0519 17:48:31.073401  3636 net.cpp:84] Creating Layer relu5_1
I0519 17:48:31.073405  3636 net.cpp:406] relu5_1 <- conv5_1
I0519 17:48:31.073410  3636 net.cpp:367] relu5_1 -> conv5_1 (in-place)
I0519 17:48:31.073565  3636 net.cpp:122] Setting up relu5_1
I0519 17:48:31.073573  3636 net.cpp:129] Top shape: 1 512 38 63 (1225728)
I0519 17:48:31.073575  3636 net.cpp:137] Memory required for data: 1370708820
I0519 17:48:31.073578  3636 layer_factory.hpp:77] Creating layer conv5_2
I0519 17:48:31.073585  3636 net.cpp:84] Creating Layer conv5_2
I0519 17:48:31.073588  3636 net.cpp:406] conv5_2 <- conv5_1
I0519 17:48:31.073593  3636 net.cpp:380] conv5_2 -> conv5_2
I0519 17:48:31.077957  3636 net.cpp:122] Setting up conv5_2
I0519 17:48:31.077971  3636 net.cpp:129] Top shape: 1 512 38 63 (1225728)
I0519 17:48:31.077975  3636 net.cpp:137] Memory required for data: 1375611732
I0519 17:48:31.077980  3636 layer_factory.hpp:77] Creating layer relu5_2
I0519 17:48:31.077988  3636 net.cpp:84] Creating Layer relu5_2
I0519 17:48:31.077991  3636 net.cpp:406] relu5_2 <- conv5_2
I0519 17:48:31.077996  3636 net.cpp:367] relu5_2 -> conv5_2 (in-place)
I0519 17:48:31.078151  3636 net.cpp:122] Setting up relu5_2
I0519 17:48:31.078161  3636 net.cpp:129] Top shape: 1 512 38 63 (1225728)
I0519 17:48:31.078162  3636 net.cpp:137] Memory required for data: 1380514644
I0519 17:48:31.078166  3636 layer_factory.hpp:77] Creating layer conv5_3
I0519 17:48:31.078176  3636 net.cpp:84] Creating Layer conv5_3
I0519 17:48:31.078187  3636 net.cpp:406] conv5_3 <- conv5_2
I0519 17:48:31.078193  3636 net.cpp:380] conv5_3 -> conv5_3
I0519 17:48:31.082547  3636 net.cpp:122] Setting up conv5_3
I0519 17:48:31.082563  3636 net.cpp:129] Top shape: 1 512 38 63 (1225728)
I0519 17:48:31.082566  3636 net.cpp:137] Memory required for data: 1385417556
I0519 17:48:31.082572  3636 layer_factory.hpp:77] Creating layer relu5_3
I0519 17:48:31.082578  3636 net.cpp:84] Creating Layer relu5_3
I0519 17:48:31.082581  3636 net.cpp:406] relu5_3 <- conv5_3
I0519 17:48:31.082587  3636 net.cpp:367] relu5_3 -> conv5_3 (in-place)
I0519 17:48:31.083022  3636 net.cpp:122] Setting up relu5_3
I0519 17:48:31.083046  3636 net.cpp:129] Top shape: 1 512 38 63 (1225728)
I0519 17:48:31.083050  3636 net.cpp:137] Memory required for data: 1390320468
I0519 17:48:31.083052  3636 layer_factory.hpp:77] Creating layer conv5_3_relu5_3_0_split
I0519 17:48:31.083057  3636 net.cpp:84] Creating Layer conv5_3_relu5_3_0_split
I0519 17:48:31.083060  3636 net.cpp:406] conv5_3_relu5_3_0_split <- conv5_3
I0519 17:48:31.083065  3636 net.cpp:380] conv5_3_relu5_3_0_split -> conv5_3_relu5_3_0_split_0
I0519 17:48:31.083070  3636 net.cpp:380] conv5_3_relu5_3_0_split -> conv5_3_relu5_3_0_split_1
I0519 17:48:31.083120  3636 net.cpp:122] Setting up conv5_3_relu5_3_0_split
I0519 17:48:31.083127  3636 net.cpp:129] Top shape: 1 512 38 63 (1225728)
I0519 17:48:31.083130  3636 net.cpp:129] Top shape: 1 512 38 63 (1225728)
I0519 17:48:31.083132  3636 net.cpp:137] Memory required for data: 1400126292
I0519 17:48:31.083135  3636 layer_factory.hpp:77] Creating layer rpn_conv/3x3
I0519 17:48:31.083143  3636 net.cpp:84] Creating Layer rpn_conv/3x3
I0519 17:48:31.083147  3636 net.cpp:406] rpn_conv/3x3 <- conv5_3_relu5_3_0_split_0
I0519 17:48:31.083151  3636 net.cpp:380] rpn_conv/3x3 -> rpn/output
I0519 17:48:31.140269  3636 net.cpp:122] Setting up rpn_conv/3x3
I0519 17:48:31.140285  3636 net.cpp:129] Top shape: 1 512 38 63 (1225728)
I0519 17:48:31.140287  3636 net.cpp:137] Memory required for data: 1405029204
I0519 17:48:31.140293  3636 layer_factory.hpp:77] Creating layer rpn_relu/3x3
I0519 17:48:31.140300  3636 net.cpp:84] Creating Layer rpn_relu/3x3
I0519 17:48:31.140303  3636 net.cpp:406] rpn_relu/3x3 <- rpn/output
I0519 17:48:31.140307  3636 net.cpp:367] rpn_relu/3x3 -> rpn/output (in-place)
I0519 17:48:31.141382  3636 net.cpp:122] Setting up rpn_relu/3x3
I0519 17:48:31.141396  3636 net.cpp:129] Top shape: 1 512 38 63 (1225728)
I0519 17:48:31.141399  3636 net.cpp:137] Memory required for data: 1409932116
I0519 17:48:31.141402  3636 layer_factory.hpp:77] Creating layer rpn/output_rpn_relu/3x3_0_split
I0519 17:48:31.141407  3636 net.cpp:84] Creating Layer rpn/output_rpn_relu/3x3_0_split
I0519 17:48:31.141410  3636 net.cpp:406] rpn/output_rpn_relu/3x3_0_split <- rpn/output
I0519 17:48:31.141414  3636 net.cpp:380] rpn/output_rpn_relu/3x3_0_split -> rpn/output_rpn_relu/3x3_0_split_0
I0519 17:48:31.141420  3636 net.cpp:380] rpn/output_rpn_relu/3x3_0_split -> rpn/output_rpn_relu/3x3_0_split_1
I0519 17:48:31.141484  3636 net.cpp:122] Setting up rpn/output_rpn_relu/3x3_0_split
I0519 17:48:31.141491  3636 net.cpp:129] Top shape: 1 512 38 63 (1225728)
I0519 17:48:31.141494  3636 net.cpp:129] Top shape: 1 512 38 63 (1225728)
I0519 17:48:31.141496  3636 net.cpp:137] Memory required for data: 1419737940
I0519 17:48:31.141499  3636 layer_factory.hpp:77] Creating layer rpn_cls_score
I0519 17:48:31.141507  3636 net.cpp:84] Creating Layer rpn_cls_score
I0519 17:48:31.141510  3636 net.cpp:406] rpn_cls_score <- rpn/output_rpn_relu/3x3_0_split_0
I0519 17:48:31.141515  3636 net.cpp:380] rpn_cls_score -> rpn_cls_score
I0519 17:48:31.143123  3636 net.cpp:122] Setting up rpn_cls_score
I0519 17:48:31.143136  3636 net.cpp:129] Top shape: 1 24 38 63 (57456)
I0519 17:48:31.143138  3636 net.cpp:137] Memory required for data: 1419967764
I0519 17:48:31.143143  3636 layer_factory.hpp:77] Creating layer rpn_cls_score_rpn_cls_score_0_split
I0519 17:48:31.143148  3636 net.cpp:84] Creating Layer rpn_cls_score_rpn_cls_score_0_split
I0519 17:48:31.143152  3636 net.cpp:406] rpn_cls_score_rpn_cls_score_0_split <- rpn_cls_score
I0519 17:48:31.143157  3636 net.cpp:380] rpn_cls_score_rpn_cls_score_0_split -> rpn_cls_score_rpn_cls_score_0_split_0
I0519 17:48:31.143165  3636 net.cpp:380] rpn_cls_score_rpn_cls_score_0_split -> rpn_cls_score_rpn_cls_score_0_split_1
I0519 17:48:31.143225  3636 net.cpp:122] Setting up rpn_cls_score_rpn_cls_score_0_split
I0519 17:48:31.143232  3636 net.cpp:129] Top shape: 1 24 38 63 (57456)
I0519 17:48:31.143235  3636 net.cpp:129] Top shape: 1 24 38 63 (57456)
I0519 17:48:31.143237  3636 net.cpp:137] Memory required for data: 1420427412
I0519 17:48:31.143239  3636 layer_factory.hpp:77] Creating layer rpn_bbox_pred
I0519 17:48:31.143249  3636 net.cpp:84] Creating Layer rpn_bbox_pred
I0519 17:48:31.143251  3636 net.cpp:406] rpn_bbox_pred <- rpn/output_rpn_relu/3x3_0_split_1
I0519 17:48:31.143257  3636 net.cpp:380] rpn_bbox_pred -> rpn_bbox_pred
I0519 17:48:31.144578  3636 net.cpp:122] Setting up rpn_bbox_pred
I0519 17:48:31.144589  3636 net.cpp:129] Top shape: 1 48 38 63 (114912)
I0519 17:48:31.144593  3636 net.cpp:137] Memory required for data: 1420887060
I0519 17:48:31.144598  3636 layer_factory.hpp:77] Creating layer rpn_bbox_pred_rpn_bbox_pred_0_split
I0519 17:48:31.144603  3636 net.cpp:84] Creating Layer rpn_bbox_pred_rpn_bbox_pred_0_split
I0519 17:48:31.144606  3636 net.cpp:406] rpn_bbox_pred_rpn_bbox_pred_0_split <- rpn_bbox_pred
I0519 17:48:31.144610  3636 net.cpp:380] rpn_bbox_pred_rpn_bbox_pred_0_split -> rpn_bbox_pred_rpn_bbox_pred_0_split_0
I0519 17:48:31.144615  3636 net.cpp:380] rpn_bbox_pred_rpn_bbox_pred_0_split -> rpn_bbox_pred_rpn_bbox_pred_0_split_1
I0519 17:48:31.144673  3636 net.cpp:122] Setting up rpn_bbox_pred_rpn_bbox_pred_0_split
I0519 17:48:31.144680  3636 net.cpp:129] Top shape: 1 48 38 63 (114912)
I0519 17:48:31.144682  3636 net.cpp:129] Top shape: 1 48 38 63 (114912)
I0519 17:48:31.144685  3636 net.cpp:137] Memory required for data: 1421806356
I0519 17:48:31.144687  3636 layer_factory.hpp:77] Creating layer rpn_cls_score_reshape
I0519 17:48:31.144698  3636 net.cpp:84] Creating Layer rpn_cls_score_reshape
I0519 17:48:31.144701  3636 net.cpp:406] rpn_cls_score_reshape <- rpn_cls_score_rpn_cls_score_0_split_0
I0519 17:48:31.144706  3636 net.cpp:380] rpn_cls_score_reshape -> rpn_cls_score_reshape
I0519 17:48:31.144735  3636 net.cpp:122] Setting up rpn_cls_score_reshape
I0519 17:48:31.144742  3636 net.cpp:129] Top shape: 1 2 456 63 (57456)
I0519 17:48:31.144744  3636 net.cpp:137] Memory required for data: 1422036180
I0519 17:48:31.144747  3636 layer_factory.hpp:77] Creating layer rpn_cls_score_reshape_rpn_cls_score_reshape_0_split
I0519 17:48:31.144752  3636 net.cpp:84] Creating Layer rpn_cls_score_reshape_rpn_cls_score_reshape_0_split
I0519 17:48:31.144754  3636 net.cpp:406] rpn_cls_score_reshape_rpn_cls_score_reshape_0_split <- rpn_cls_score_reshape
I0519 17:48:31.144758  3636 net.cpp:380] rpn_cls_score_reshape_rpn_cls_score_reshape_0_split -> rpn_cls_score_reshape_rpn_cls_score_reshape_0_split_0
I0519 17:48:31.144762  3636 net.cpp:380] rpn_cls_score_reshape_rpn_cls_score_reshape_0_split -> rpn_cls_score_reshape_rpn_cls_score_reshape_0_split_1
I0519 17:48:31.144801  3636 net.cpp:122] Setting up rpn_cls_score_reshape_rpn_cls_score_reshape_0_split
I0519 17:48:31.144807  3636 net.cpp:129] Top shape: 1 2 456 63 (57456)
I0519 17:48:31.144810  3636 net.cpp:129] Top shape: 1 2 456 63 (57456)
I0519 17:48:31.144812  3636 net.cpp:137] Memory required for data: 1422495828
I0519 17:48:31.144814  3636 layer_factory.hpp:77] Creating layer rpn-data
I0519 17:48:31.145205  3636 net.cpp:84] Creating Layer rpn-data
I0519 17:48:31.145216  3636 net.cpp:406] rpn-data <- rpn_cls_score_rpn_cls_score_0_split_1
I0519 17:48:31.145221  3636 net.cpp:406] rpn-data <- gt_boxes_input-data_2_split_0
I0519 17:48:31.145225  3636 net.cpp:406] rpn-data <- im_info_input-data_1_split_0
I0519 17:48:31.145227  3636 net.cpp:406] rpn-data <- data_input-data_0_split_1
I0519 17:48:31.145231  3636 net.cpp:380] rpn-data -> rpn_labels
I0519 17:48:31.145237  3636 net.cpp:380] rpn-data -> rpn_bbox_targets
I0519 17:48:31.145242  3636 net.cpp:380] rpn-data -> rpn_bbox_inside_weights
I0519 17:48:31.145247  3636 net.cpp:380] rpn-data -> rpn_bbox_outside_weights
I0519 17:48:31.146323  3636 net.cpp:122] Setting up rpn-data
I0519 17:48:31.146337  3636 net.cpp:129] Top shape: 1 1 456 63 (28728)
I0519 17:48:31.146340  3636 net.cpp:129] Top shape: 1 48 38 63 (114912)
I0519 17:48:31.146342  3636 net.cpp:129] Top shape: 1 48 38 63 (114912)
I0519 17:48:31.146345  3636 net.cpp:129] Top shape: 1 48 38 63 (114912)
I0519 17:48:31.146347  3636 net.cpp:137] Memory required for data: 1423989684
I0519 17:48:31.146350  3636 layer_factory.hpp:77] Creating layer rpn_loss_cls
I0519 17:48:31.146356  3636 net.cpp:84] Creating Layer rpn_loss_cls
I0519 17:48:31.146359  3636 net.cpp:406] rpn_loss_cls <- rpn_cls_score_reshape_rpn_cls_score_reshape_0_split_0
I0519 17:48:31.146363  3636 net.cpp:406] rpn_loss_cls <- rpn_labels
…
I0519 17:48:31.147938  3636 net.cpp:129] Top shape: (1)
I0519 17:48:31.147939  3636 net.cpp:132]     with loss weight 1
I0519 17:48:31.147943  3636 net.cpp:137] Memory required for data: 1423989692
I0519 17:48:31.147945  3636 layer_factory.hpp:77] Creating layer rpn_cls_prob
I0519 17:48:31.147950  3636 net.cpp:84] Creating Layer rpn_cls_prob
I0519 17:48:31.147953  3636 net.cpp:406] rpn_cls_prob <- rpn_cls_score_reshape_rpn_cls_score_reshape_0_split_1
I0519 17:48:31.147958  3636 net.cpp:380] rpn_cls_prob -> rpn_cls_prob
I0519 17:48:31.148181  3636 net.cpp:122] Setting up rpn_cls_prob
I0519 17:48:31.148191  3636 net.cpp:129] Top shape: 1 2 456 63 (57456)
I0519 17:48:31.148195  3636 net.cpp:137] Memory required for data: 1424219516
I0519 17:48:31.148196  3636 layer_factory.hpp:77] Creating layer rpn_cls_prob_reshape
I0519 17:48:31.148201  3636 net.cpp:84] Creating Layer rpn_cls_prob_reshape
I0519 17:48:31.148205  3636 net.cpp:406] rpn_cls_prob_reshape <- rpn_cls_prob
I0519 17:48:31.148211  3636 net.cpp:380] rpn_cls_prob_reshape -> rpn_cls_prob_reshape
I0519 17:48:31.148241  3636 net.cpp:122] Setting up rpn_cls_prob_reshape
I0519 17:48:31.148247  3636 net.cpp:129] Top shape: 1 24 38 63 (57456)
I0519 17:48:31.148248  3636 net.cpp:137] Memory required for data: 1424449340
I0519 17:48:31.148257  3636 layer_factory.hpp:77] Creating layer proposal
I0519 17:48:31.148917  3636 net.cpp:84] Creating Layer proposal
I0519 17:48:31.148928  3636 net.cpp:406] proposal <- rpn_cls_prob_reshape
I0519 17:48:31.148933  3636 net.cpp:406] proposal <- rpn_bbox_pred_rpn_bbox_pred_0_split_1
I0519 17:48:31.148936  3636 net.cpp:406] proposal <- im_info_input-data_1_split_1
I0519 17:48:31.148941  3636 net.cpp:380] proposal -> rpn_rois
I0519 17:48:31.149886  3636 net.cpp:122] Setting up proposal
I0519 17:48:31.149899  3636 net.cpp:129] Top shape: 1 5 (5)
I0519 17:48:31.149901  3636 net.cpp:137] Memory required for data: 1424449360
I0519 17:48:31.149904  3636 layer_factory.hpp:77] Creating layer roi-data
I0519 17:48:31.150037  3636 net.cpp:84] Creating Layer roi-data
I0519 17:48:31.150045  3636 net.cpp:406] roi-data <- rpn_rois
I0519 17:48:31.150050  3636 net.cpp:406] roi-data <- gt_boxes_input-data_2_split_1
I0519 17:48:31.150054  3636 net.cpp:380] roi-data -> rois
I0519 17:48:31.150059  3636 net.cpp:380] roi-data -> labels
I0519 17:48:31.150064  3636 net.cpp:380] roi-data -> bbox_targets
I0519 17:48:31.150069  3636 net.cpp:380] roi-data -> bbox_inside_weights
I0519 17:48:31.150074  3636 net.cpp:380] roi-data -> bbox_outside_weights
I0519 17:48:31.150425  3636 net.cpp:122] Setting up roi-data
I0519 17:48:31.150437  3636 net.cpp:129] Top shape: 1 5 (5)
I0519 17:48:31.150440  3636 net.cpp:129] Top shape: 1 1 (1)
I0519 17:48:31.150444  3636 net.cpp:129] Top shape: 1 8 (8)
I0519 17:48:31.150445  3636 net.cpp:129] Top shape: 1 8 (8)
I0519 17:48:31.150449  3636 net.cpp:129] Top shape: 1 8 (8)
I0519 17:48:31.150450  3636 net.cpp:137] Memory required for data: 1424449480
I0519 17:48:31.150452  3636 layer_factory.hpp:77] Creating layer roi_pool5
I0519 17:48:31.150461  3636 net.cpp:84] Creating Layer roi_pool5
I0519 17:48:31.150465  3636 net.cpp:406] roi_pool5 <- conv5_3_relu5_3_0_split_1
I0519 17:48:31.150468  3636 net.cpp:406] roi_pool5 <- rois
I0519 17:48:31.150472  3636 net.cpp:380] roi_pool5 -> pool5
I0519 17:48:31.150477  3636 roi_pooling_layer.cpp:30] Spatial scale: 0.0625
I0519 17:48:31.150529  3636 net.cpp:122] Setting up roi_pool5
I0519 17:48:31.150537  3636 net.cpp:129] Top shape: 1 512 7 7 (25088)
I0519 17:48:31.150539  3636 net.cpp:137] Memory required for data: 1424549832
I0519 17:48:31.150542  3636 layer_factory.hpp:77] Creating layer fc6
I0519 17:48:31.150548  3636 net.cpp:84] Creating Layer fc6
I0519 17:48:31.150552  3636 net.cpp:406] fc6 <- pool5
I0519 17:48:31.150555  3636 net.cpp:380] fc6 -> fc6
I0519 17:48:31.310603  3636 net.cpp:122] Setting up fc6
I0519 17:48:31.310636  3636 net.cpp:129] Top shape: 1 4096 (4096)
I0519 17:48:31.310639  3636 net.cpp:137] Memory required for data: 1424566216
I0519 17:48:31.310654  3636 layer_factory.hpp:77] Creating layer relu6
I0519 17:48:31.310664  3636 net.cpp:84] Creating Layer relu6
I0519 17:48:31.310668  3636 net.cpp:406] relu6 <- fc6
I0519 17:48:31.310673  3636 net.cpp:367] relu6 -> fc6 (in-place)
I0519 17:48:31.310909  3636 net.cpp:122] Setting up relu6
I0519 17:48:31.310919  3636 net.cpp:129] Top shape: 1 4096 (4096)
I0519 17:48:31.310921  3636 net.cpp:137] Memory required for data: 1424582600
I0519 17:48:31.310923  3636 layer_factory.hpp:77] Creating layer fc7
I0519 17:48:31.310930  3636 net.cpp:84] Creating Layer fc7
I0519 17:48:31.310933  3636 net.cpp:406] fc7 <- fc6
I0519 17:48:31.310937  3636 net.cpp:380] fc7 -> fc7
I0519 17:48:31.337733  3636 net.cpp:122] Setting up fc7
I0519 17:48:31.337767  3636 net.cpp:129] Top shape: 1 4096 (4096)
I0519 17:48:31.337770  3636 net.cpp:137] Memory required for data: 1424598984
I0519 17:48:31.337779  3636 layer_factory.hpp:77] Creating layer relu7
I0519 17:48:31.337786  3636 net.cpp:84] Creating Layer relu7
I0519 17:48:31.337790  3636 net.cpp:406] relu7 <- fc7
I0519 17:48:31.337796  3636 net.cpp:367] relu7 -> fc7 (in-place)
I0519 17:48:31.338408  3636 net.cpp:122] Setting up relu7
I0519 17:48:31.338420  3636 net.cpp:129] Top shape: 1 4096 (4096)
I0519 17:48:31.338423  3636 net.cpp:137] Memory required for data: 1424615368
I0519 17:48:31.338425  3636 layer_factory.hpp:77] Creating layer fc7_relu7_0_split
I0519 17:48:31.338430  3636 net.cpp:84] Creating Layer fc7_relu7_0_split
I0519 17:48:31.338433  3636 net.cpp:406] fc7_relu7_0_split <- fc7
I0519 17:48:31.338438  3636 net.cpp:380] fc7_relu7_0_split -> fc7_relu7_0_split_0
I0519 17:48:31.338443  3636 net.cpp:380] fc7_relu7_0_split -> fc7_relu7_0_split_1
I0519 17:48:31.338501  3636 net.cpp:122] Setting up fc7_relu7_0_split
I0519 17:48:31.338508  3636 net.cpp:129] Top shape: 1 4096 (4096)
I0519 17:48:31.338511  3636 net.cpp:129] Top shape: 1 4096 (4096)
I0519 17:48:31.338513  3636 net.cpp:137] Memory required for data: 1424648136
I0519 17:48:31.338515  3636 layer_factory.hpp:77] Creating layer cls_score
I0519 17:48:31.338522  3636 net.cpp:84] Creating Layer cls_score
I0519 17:48:31.338526  3636 net.cpp:406] cls_score <- fc7_relu7_0_split_0
I0519 17:48:31.338531  3636 net.cpp:380] cls_score -> cls_score
I0519 17:48:31.338863  3636 net.cpp:122] Setting up cls_score
I0519 17:48:31.338871  3636 net.cpp:129] Top shape: 1 2 (2)
I0519 17:48:31.338872  3636 net.cpp:137] Memory required for data: 1424648144
I0519 17:48:31.338877  3636 layer_factory.hpp:77] Creating layer bbox_pred
I0519 17:48:31.338883  3636 net.cpp:84] Creating Layer bbox_pred
I0519 17:48:31.338886  3636 net.cpp:406] bbox_pred <- fc7_relu7_0_split_1
I0519 17:48:31.338889  3636 net.cpp:380] bbox_pred -> bbox_pred
I0519 17:48:31.339819  3636 net.cpp:122] Setting up bbox_pred
I0519 17:48:31.339826  3636 net.cpp:129] Top shape: 1 8 (8)
I0519 17:48:31.339828  3636 net.cpp:137] Memory required for data: 1424648176
I0519 17:48:31.339833  3636 layer_factory.hpp:77] Creating layer loss_cls
I0519 17:48:31.339838  3636 net.cpp:84] Creating Layer loss_cls
I0519 17:48:31.339840  3636 net.cpp:406] loss_cls <- cls_score
I0519 17:48:31.339843  3636 net.cpp:406] loss_cls <- labels
I0519 17:48:31.339848  3636 net.cpp:380] loss_cls -> loss_cls
…
I0521 10:19:23.690798  4987 upgrade_proto.cpp:70] Successfully upgraded file specified using deprecated input fields.
W0521 10:19:23.690801  4987 upgrade_proto.cpp:72] Note that future Caffe releases will only support input layers and not input fields.
I0521 10:19:23.691045  4987 net.cpp:51] Initializing net from parameters: 
name: "VGG_ILSVRC_16_layers"
state {
  phase: TEST
  level: 0
}
layer {
  name: "input"
  type: "Input"
  top: "data"
  top: "im_info"
  input_param {
    shape {
      dim: 1
      dim: 3
      dim: 224
      dim: 224
    }
    shape {
      dim: 1
      dim: 3
    }
  }
}
layer {
  name: "conv1_1"
  type: "Convolution"
  bottom: "data"
  top: "conv1_1"
  param {
    lr_mult: 0
    decay_mult: 0
  }
  param {
    lr_mult: 0
    decay_mult: 0
  }
  convolution_param {
    num_output: 64
    pad: 1
    kernel_size: 3
  }
}
layer {
  name: "relu1_1"
  type: "ReLU"
  bottom: "conv1_1"
  top: "conv1_1"
}
layer {
  name: "conv1_2"
  type: "Convolution"
  bottom: "conv1_1"
  top: "conv1_2"
  param {
    lr_mult: 0
    decay_mult: 0
  }
  param {
    lr_mult: 0
    decay_mult: 0
  }
  convolution_param {
    num_output: 64
    pad: 1
    kernel_size: 3
  }
}
layer {
  name: "relu1_2"
  type: "ReLU"
  bottom: "conv1_2"
  top: "conv1_2"
}
layer {
  name: "pool1"
  type: "Pooling"
  bottom: "conv1_2"
  top: "pool1"
  pooling_param {
    pool: MAX
    kernel_size: 2
    stride: 2
  }
}
layer {
  name: "conv2_1"
  type: "Convolution"
  bottom: "pool1"
  top: "conv2_1"
  param {
    lr_mult: 0
    decay_mult: 0
  }
  param {
    lr_mult: 0
    decay_mult: 0
  }
  convolution_param {
    num_output: 128
    pad: 1
    kernel_size: 3
  }
}
layer {
  name: "relu2_1"
  type: "ReLU"
  bottom: "conv2_1"
  top: "conv2_1"
}
layer {
  name: "conv2_2"
  type: "Convolution"
  bottom: "conv2_1"
  top: "conv2_2"
  param {
    lr_mult: 0
    decay_mult: 0
  }
  param {
    lr_mult: 0
    decay_mult: 0
  }
  convolution_param {
    num_output: 128
    pad: 1
    kernel_size: 3
  }
}
layer {
  name: "relu2_2"
  type: "ReLU"
  bottom: "conv2_2"
  top: "conv2_2"
}
layer {
  name: "pool2"
  type: "Pooling"
  bottom: "conv2_2"
  top: "pool2"
  pooling_param {
    pool: MAX
    kernel_size: 2
    stride: 2
  }
}
layer {
  name: "conv3_1"
  type: "Convolution"
  bottom: "pool2"
  top: "conv3_1"
  param {
    lr_mult: 1
    decay_mult: 1
  }
  param {
    lr_mult: 2
    decay_mult: 0
  }
  convolution_param {
    num_output: 256
    pad: 1
    kernel_size: 3
  }
}
layer {
  name: "relu3_1"
  type: "ReLU"
  bottom: "conv3_1"
  top: "conv3_1"
}
layer {
  name: "conv3_2"
  type: "Convolution"
  bottom: "conv3_1"
  top: "conv3_2"
  param {
    lr_mult: 1
    decay_mult: 1
  }
  param {
    lr_mult: 2
    decay_mult: 0
  }
  convolution_param {
    num_output: 256
    pad: 1
    kernel_size: 3
  }
}
layer {
  name: "relu3_2"
  type: "ReLU"
  bottom: "conv3_2"
  top: "conv3_2"
}
layer {
  name: "conv3_3"
  type: "Convolution"
  bottom: "conv3_2"
  top: "conv3_3"
  param {
    lr_mult: 1
    decay_mult: 1
  }
  param {
    lr_mult: 2
    decay_mult: 0
  }
  convolution_param {
    num_output: 256
    pad: 1
    kernel_size: 3
  }
}
layer {
  name: "relu3_3"
  type: "ReLU"
  bottom: "conv3_3"
  top: "conv3_3"
}
layer {
  name: "pool3"
  type: "Pooling"
  bottom: "conv3_3"
  top: "pool3"
  pooling_param {
    pool: MAX
    kernel_size: 2
    stride: 2
  }
}
layer {
  name: "conv4_1"
  type: "Convolution"
  bottom: "pool3"
  top: "conv4_1"
  param {
    lr_mult: 1
    decay_mult: 1
  }
  param {
    lr_mult: 2
    decay_mult: 0
  }
  convolution_param {
    num_output: 512
    pad: 1
    kernel_size: 3
  }
}
layer {
  name: "relu4_1"
  type: "ReLU"
  bottom: "conv4_1"
  top: "conv4_1"
}
layer {
  name: "conv4_2"
  type: "Convolution"
  bottom: "conv4_1"
  top: "conv4_2"
  param {
    lr_mult: 1
    decay_mult: 1
  }
  param {
    lr_mult: 2
    decay_mult: 0
  }
  convolution_param {
    num_output: 512
    pad: 1
    kernel_size: 3
  }
}
layer {
  name: "relu4_2"
  type: "ReLU"
  bottom: "conv4_2"
  top: "conv4_2"
}
layer {
  name: "conv4_3"
  type: "Convolution"
  bottom: "conv4_2"
  top: "conv4_3"
  param {
    lr_mult: 1
    decay_mult: 1
  }
  param {
    lr_mult: 2
    decay_mult: 0
  }
  convolution_param {
    num_output: 512
    pad: 1
    kernel_size: 3
  }
}
layer {
  name: "relu4_3"
  type: "ReLU"
  bottom: "conv4_3"
  top: "conv4_3"
}
layer {
  name: "pool4"
  type: "Pooling"
  bottom: "conv4_3"
  top: "pool4"
  pooling_param {
    pool: MAX
    kernel_size: 2
    stride: 2
  }
}
layer {
  name: "conv5_1"
  type: "Convolution"
  bottom: "pool4"
  top: "conv5_1"
  param {
    lr_mult: 1
    decay_mult: 1
  }
  param {
    lr_mult: 2
    decay_mult: 0
  }
  convolution_param {
    num_output: 512
    pad: 1
    kernel_size: 3
  }
}
layer {
  name: "relu5_1"
  type: "ReLU"
  bottom: "conv5_1"
  top: "conv5_1"
}
layer {
  name: "conv5_2"
  type: "Convolution"
  bottom: "conv5_1"
  top: "conv5_2"
  param {
    lr_mult: 1
    decay_mult: 1
  }
  param {
    lr_mult: 2
    decay_mult: 0
  }
  convolution_param {
    num_output: 512
    pad: 1
    kernel_size: 3
  }
}
layer {
  name: "relu5_2"
  type: "ReLU"
  bottom: "conv5_2"
  top: "conv5_2"
}
layer {
  name: "conv5_3"
  type: "Convolution"
  bottom: "conv5_2"
  top: "conv5_3"
  param {
    lr_mult: 1
    decay_mult: 1
  }
  param {
    lr_mult: 2
    decay_mult: 0
  }
  convolution_param {
    num_output: 512
    pad: 1
    kernel_size: 3
  }
}
layer {
  name: "relu5_3"
  type: "ReLU"
  bottom: "conv5_3"
  top: "conv5_3"
}
layer {
  name: "rpn_conv/3x3"
  type: "Convolution"
  bottom: "conv5_3"
  top: "rpn/output"
  param {
    lr_mult: 1
    decay_mult: 1
  }
  param {
    lr_mult: 2
    decay_mult: 0
  }
  convolution_param {
    num_output: 512
    pad: 1
    kernel_size: 3
    stride: 1
    weight_filler {
      type: "gaussian"
      std: 0.01
    }
    bias_filler {
      type: "constant"
      value: 0
    }
  }
}
layer {
  name: "rpn_relu/3x3"
  type: "ReLU"
  bottom: "rpn/output"
  top: "rpn/output"
}
layer {
  name: "rpn_cls_score"
  type: "Convolution"
  bottom: "rpn/output"
  top: "rpn_cls_score"
  param {
    lr_mult: 1
    decay_mult: 1
  }
  param {
    lr_mult: 2
    decay_mult: 0
  }
  convolution_param {
    num_output: 24
    pad: 0
    kernel_size: 1
    stride: 1
    weight_filler {
      type: "gaussian"
      std: 0.01
    }
    bias_filler {
      type: "constant"
      value: 0
    }
  }
}
layer {
  name: "rpn_bbox_pred"
  type: "Convolution"
  bottom: "rpn/output"
  top: "rpn_bbox_pred"
  param {
    lr_mult: 1
    decay_mult: 1
  }
  param {
    lr_mult: 2
    decay_mult: 0
  }
  convolution_param {
    num_output: 48
    pad: 0
    kernel_size: 1
    stride: 1
    weight_filler {
      type: "gaussian"
      std: 0.01
    }
    bias_filler {
      type: "constant"
      value: 0
    }
  }
}
layer {
  name: "rpn_cls_score_reshape"
  type: "Reshape"
  bottom: "rpn_cls_score"
  top: "rpn_cls_score_reshape"
  reshape_param {
    shape {
      dim: 0
      dim: 2
      dim: -1
      dim: 0
    }
  }
}
layer {
  name: "rpn_cls_prob"
  type: "Softmax"
  bottom: "rpn_cls_score_reshape"
  top: "rpn_cls_prob"
}
layer {
  name: "rpn_cls_prob_reshape"
  type: "Reshape"
  bottom: "rpn_cls_prob"
  top: "rpn_cls_prob_reshape"
  reshape_param {
    shape {
      dim: 0
      dim: 24
      dim: -1
      dim: 0
    }
  }
}
layer {
  name: "proposal"
  type: "Python"
  bottom: "rpn_cls_prob_reshape"
  bottom: "rpn_bbox_pred"
  bottom: "im_info"
  top: "rois"
  python_param {
    module: "rpn.proposal_layer"
    layer: "ProposalLayer"
    param_str: "\'feat_stride\': 16 \n\'scales\': !!python/tuple [4, 8, 16, 32]"
  }
}
layer {
  name: "roi_pool5"
  type: "ROIPooling"
  bottom: "conv5_3"
  bottom: "rois"
  top: "pool5"
  roi_pooling_param {
    pooled_h: 7
    pooled_w: 7
    spatial_scale: 0.0625
  }
}
layer {
  name: "fc6"
  type: "InnerProduct"
  bottom: "pool5"
  top: "fc6"
  param {
    lr_mult: 1
    decay_mult: 1
  }
  param {
    lr_mult: 2
    decay_mult: 0
  }
  inner_product_param {
    num_output: 4096
  }
}
layer {
  name: "relu6"
  type: "ReLU"
  bottom: "fc6"
  top: "fc6"
}
layer {
  name: "fc7"
  type: "InnerProduct"
  bottom: "fc6"
  top: "fc7"
  param {
    lr_mult: 1
    decay_mult: 1
  }
  param {
    lr_mult: 2
    decay_mult: 0
  }
  inner_product_param {
    num_output: 4096
  }
}
layer {
  name: "relu7"
  type: "ReLU"
  bottom: "fc7"
  top: "fc7"
}
layer {
  name: "cls_score"
  type: "InnerProduct"
  bottom: "fc7"
  top: "cls_score"
  param {
    lr_mult: 1
    decay_mult: 1
  }
  param {
    lr_mult: 2
    decay_mult: 0
  }
  inner_product_param {
    num_output: 2
    weight_filler {
      type: "gaussian"
      std: 0.01
    }
    bias_filler {
      type: "constant"
      value: 0
    }
  }
}
layer {
  name: "bbox_pred"
  type: "InnerProduct"
  bottom: "fc7"
  top: "bbox_pred"
  param {
    lr_mult: 1
    decay_mult: 1
  }
  param {
    lr_mult: 2
    decay_mult: 0
  }
  inner_product_param {
    num_output: 8
    weight_filler {
      type: "gaussian"
      std: 0.001
    }
    bias_filler {
      type: "constant"
      value: 0
    }
  }
}
layer {
  name: "cls_prob"
  type: "Softmax"
  bottom: "cls_score"
  top: "cls_prob"
}
I0521 10:19:23.691179  4987 layer_factory.hpp:77] Creating layer input
I0521 10:19:23.691192  4987 net.cpp:84] Creating Layer input
I0521 10:19:23.691201  4987 net.cpp:380] input -> data
I0521 10:19:23.691210  4987 net.cpp:380] input -> im_info
I0521 10:19:24.371300  4987 net.cpp:122] Setting up input
I0521 10:19:24.371327  4987 net.cpp:129] Top shape: 1 3 224 224 (150528)
I0521 10:19:24.371331  4987 net.cpp:129] Top shape: 1 3 (3)
I0521 10:19:24.371335  4987 net.cpp:137] Memory required for data: 602124
I0521 10:19:24.371340  4987 layer_factory.hpp:77] Creating layer conv1_1
I0521 10:19:24.371356  4987 net.cpp:84] Creating Layer conv1_1
I0521 10:19:24.371358  4987 net.cpp:406] conv1_1 <- data
I0521 10:19:24.371364  4987 net.cpp:380] conv1_1 -> conv1_1
I0521 10:19:24.529410  4987 net.cpp:122] Setting up conv1_1
I0521 10:19:24.529435  4987 net.cpp:129] Top shape: 1 64 224 224 (3211264)
I0521 10:19:24.529439  4987 net.cpp:137] Memory required for data: 13447180
I0521 10:19:24.529453  4987 layer_factory.hpp:77] Creating layer relu1_1
I0521 10:19:24.529466  4987 net.cpp:84] Creating Layer relu1_1
I0521 10:19:24.529469  4987 net.cpp:406] relu1_1 <- conv1_1
I0521 10:19:24.529474  4987 net.cpp:367] relu1_1 -> conv1_1 (in-place)
I0521 10:19:24.529847  4987 net.cpp:122] Setting up relu1_1
I0521 10:19:24.529860  4987 net.cpp:129] Top shape: 1 64 224 224 (3211264)
I0521 10:19:24.529872  4987 net.cpp:137] Memory required for data: 26292236
I0521 10:19:24.529875  4987 layer_factory.hpp:77] Creating layer conv1_2
I0521 10:19:24.529884  4987 net.cpp:84] Creating Layer conv1_2
I0521 10:19:24.529887  4987 net.cpp:406] conv1_2 <- conv1_1
I0521 10:19:24.529891  4987 net.cpp:380] conv1_2 -> conv1_2
I0521 10:19:24.530575  4987 net.cpp:122] Setting up conv1_2
I0521 10:19:24.530586  4987 net.cpp:129] Top shape: 1 64 224 224 (3211264)
I0521 10:19:24.530599  4987 net.cpp:137] Memory required for data: 39137292
I0521 10:19:24.530606  4987 layer_factory.hpp:77] Creating layer relu1_2
I0521 10:19:24.530611  4987 net.cpp:84] Creating Layer relu1_2
I0521 10:19:24.530614  4987 net.cpp:406] relu1_2 <- conv1_2
I0521 10:19:24.530618  4987 net.cpp:367] relu1_2 -> conv1_2 (in-place)
I0521 10:19:24.531898  4987 net.cpp:122] Setting up relu1_2
I0521 10:19:24.531920  4987 net.cpp:129] Top shape: 1 64 224 224 (3211264)
I0521 10:19:24.531924  4987 net.cpp:137] Memory required for data: 51982348
I0521 10:19:24.531926  4987 layer_factory.hpp:77] Creating layer pool1
I0521 10:19:24.531934  4987 net.cpp:84] Creating Layer pool1
I0521 10:19:24.531936  4987 net.cpp:406] pool1 <- conv1_2
I0521 10:19:24.531940  4987 net.cpp:380] pool1 -> pool1
I0521 10:19:24.531996  4987 net.cpp:122] Setting up pool1
I0521 10:19:24.532004  4987 net.cpp:129] Top shape: 1 64 112 112 (802816)
I0521 10:19:24.532006  4987 net.cpp:137] Memory required for data: 55193612
I0521 10:19:24.532009  4987 layer_factory.hpp:77] Creating layer conv2_1
I0521 10:19:24.532014  4987 net.cpp:84] Creating Layer conv2_1
I0521 10:19:24.532017  4987 net.cpp:406] conv2_1 <- pool1
I0521 10:19:24.532021  4987 net.cpp:380] conv2_1 -> conv2_1
I0521 10:19:24.534659  4987 net.cpp:122] Setting up conv2_1
I0521 10:19:24.534672  4987 net.cpp:129] Top shape: 1 128 112 112 (1605632)
I0521 10:19:24.534674  4987 net.cpp:137] Memory required for data: 61616140
I0521 10:19:24.534682  4987 layer_factory.hpp:77] Creating layer relu2_1
I0521 10:19:24.534687  4987 net.cpp:84] Creating Layer relu2_1
I0521 10:19:24.534690  4987 net.cpp:406] relu2_1 <- conv2_1
I0521 10:19:24.534693  4987 net.cpp:367] relu2_1 -> conv2_1 (in-place)
I0521 10:19:24.534828  4987 net.cpp:122] Setting up relu2_1
I0521 10:19:24.534837  4987 net.cpp:129] Top shape: 1 128 112 112 (1605632)
I0521 10:19:24.534840  4987 net.cpp:137] Memory required for data: 68038668
I0521 10:19:24.534843  4987 layer_factory.hpp:77] Creating layer conv2_2
I0521 10:19:24.534850  4987 net.cpp:84] Creating Layer conv2_2
I0521 10:19:24.534853  4987 net.cpp:406] conv2_2 <- conv2_1
I0521 10:19:24.534857  4987 net.cpp:380] conv2_2 -> conv2_2
I0521 10:19:24.536128  4987 net.cpp:122] Setting up conv2_2
I0521 10:19:24.536140  4987 net.cpp:129] Top shape: 1 128 112 112 (1605632)
I0521 10:19:24.536144  4987 net.cpp:137] Memory required for data: 74461196
I0521 10:19:24.536150  4987 layer_factory.hpp:77] Creating layer relu2_2
I0521 10:19:24.536155  4987 net.cpp:84] Creating Layer relu2_2
I0521 10:19:24.536159  4987 net.cpp:406] relu2_2 <- conv2_2
I0521 10:19:24.536164  4987 net.cpp:367] relu2_2 -> conv2_2 (in-place)
I0521 10:19:24.536324  4987 net.cpp:122] Setting up relu2_2
I0521 10:19:24.536334  4987 net.cpp:129] Top shape: 1 128 112 112 (1605632)
I0521 10:19:24.536336  4987 net.cpp:137] Memory required for data: 80883724
I0521 10:19:24.536339  4987 layer_factory.hpp:77] Creating layer pool2
I0521 10:19:24.536345  4987 net.cpp:84] Creating Layer pool2
I0521 10:19:24.536347  4987 net.cpp:406] pool2 <- conv2_2
I0521 10:19:24.536352  4987 net.cpp:380] pool2 -> pool2
I0521 10:19:24.536401  4987 net.cpp:122] Setting up pool2
I0521 10:19:24.536407  4987 net.cpp:129] Top shape: 1 128 56 56 (401408)
I0521 10:19:24.536411  4987 net.cpp:137] Memory required for data: 82489356
I0521 10:19:24.536412  4987 layer_factory.hpp:77] Creating layer conv3_1
I0521 10:19:24.536420  4987 net.cpp:84] Creating Layer conv3_1
I0521 10:19:24.536424  4987 net.cpp:406] conv3_1 <- pool2
I0521 10:19:24.536428  4987 net.cpp:380] conv3_1 -> conv3_1
I0521 10:19:24.537745  4987 net.cpp:122] Setting up conv3_1
I0521 10:19:24.537757  4987 net.cpp:129] Top shape: 1 256 56 56 (802816)
I0521 10:19:24.537760  4987 net.cpp:137] Memory required for data: 85700620
I0521 10:19:24.537768  4987 layer_factory.hpp:77] Creating layer relu3_1
I0521 10:19:24.537773  4987 net.cpp:84] Creating Layer relu3_1
I0521 10:19:24.537776  4987 net.cpp:406] relu3_1 <- conv3_1
I0521 10:19:24.537781  4987 net.cpp:367] relu3_1 -> conv3_1 (in-place)
I0521 10:19:24.537919  4987 net.cpp:122] Setting up relu3_1
I0521 10:19:24.537927  4987 net.cpp:129] Top shape: 1 256 56 56 (802816)
I0521 10:19:24.537930  4987 net.cpp:137] Memory required for data: 88911884
I0521 10:19:24.537933  4987 layer_factory.hpp:77] Creating layer conv3_2
I0521 10:19:24.537940  4987 net.cpp:84] Creating Layer conv3_2
I0521 10:19:24.537945  4987 net.cpp:406] conv3_2 <- conv3_1
I0521 10:19:24.537948  4987 net.cpp:380] conv3_2 -> conv3_2
I0521 10:19:24.540204  4987 net.cpp:122] Setting up conv3_2
I0521 10:19:24.540226  4987 net.cpp:129] Top shape: 1 256 56 56 (802816)
I0521 10:19:24.540230  4987 net.cpp:137] Memory required for data: 92123148
I0521 10:19:24.540235  4987 layer_factory.hpp:77] Creating layer relu3_2
I0521 10:19:24.540241  4987 net.cpp:84] Creating Layer relu3_2
I0521 10:19:24.540246  4987 net.cpp:406] relu3_2 <- conv3_2
I0521 10:19:24.540248  4987 net.cpp:367] relu3_2 -> conv3_2 (in-place)
I0521 10:19:24.540397  4987 net.cpp:122] Setting up relu3_2
I0521 10:19:24.540407  4987 net.cpp:129] Top shape: 1 256 56 56 (802816)
I0521 10:19:24.540410  4987 net.cpp:137] Memory required for data: 95334412
I0521 10:19:24.540413  4987 layer_factory.hpp:77] Creating layer conv3_3
I0521 10:19:24.540421  4987 net.cpp:84] Creating Layer conv3_3
I0521 10:19:24.540423  4987 net.cpp:406] conv3_3 <- conv3_2
I0521 10:19:24.540427  4987 net.cpp:380] conv3_3 -> conv3_3
I0521 10:19:24.542693  4987 net.cpp:122] Setting up conv3_3
I0521 10:19:24.542706  4987 net.cpp:129] Top shape: 1 256 56 56 (802816)
I0521 10:19:24.542709  4987 net.cpp:137] Memory required for data: 98545676
I0521 10:19:24.542714  4987 layer_factory.hpp:77] Creating layer relu3_3
I0521 10:19:24.542721  4987 net.cpp:84] Creating Layer relu3_3
I0521 10:19:24.542724  4987 net.cpp:406] relu3_3 <- conv3_3
I0521 10:19:24.542728  4987 net.cpp:367] relu3_3 -> conv3_3 (in-place)
I0521 10:19:24.543108  4987 net.cpp:122] Setting up relu3_3
I0521 10:19:24.543120  4987 net.cpp:129] Top shape: 1 256 56 56 (802816)
I0521 10:19:24.543123  4987 net.cpp:137] Memory required for data: 101756940
I0521 10:19:24.543126  4987 layer_factory.hpp:77] Creating layer pool3
I0521 10:19:24.543133  4987 net.cpp:84] Creating Layer pool3
I0521 10:19:24.543134  4987 net.cpp:406] pool3 <- conv3_3
I0521 10:19:24.543138  4987 net.cpp:380] pool3 -> pool3
I0521 10:19:24.543187  4987 net.cpp:122] Setting up pool3
I0521 10:19:24.543195  4987 net.cpp:129] Top shape: 1 256 28 28 (200704)
I0521 10:19:24.543197  4987 net.cpp:137] Memory required for data: 102559756
I0521 10:19:24.543200  4987 layer_factory.hpp:77] Creating layer conv4_1
I0521 10:19:24.543206  4987 net.cpp:84] Creating Layer conv4_1
I0521 10:19:24.543210  4987 net.cpp:406] conv4_1 <- pool3
I0521 10:19:24.543213  4987 net.cpp:380] conv4_1 -> conv4_1
I0521 10:19:24.546757  4987 net.cpp:122] Setting up conv4_1
I0521 10:19:24.546771  4987 net.cpp:129] Top shape: 1 512 28 28 (401408)
I0521 10:19:24.546773  4987 net.cpp:137] Memory required for data: 104165388
I0521 10:19:24.546778  4987 layer_factory.hpp:77] Creating layer relu4_1
I0521 10:19:24.546784  4987 net.cpp:84] Creating Layer relu4_1
I0521 10:19:24.546787  4987 net.cpp:406] relu4_1 <- conv4_1
I0521 10:19:24.546792  4987 net.cpp:367] relu4_1 -> conv4_1 (in-place)
I0521 10:19:24.547185  4987 net.cpp:122] Setting up relu4_1
I0521 10:19:24.547197  4987 net.cpp:129] Top shape: 1 512 28 28 (401408)
I0521 10:19:24.547200  4987 net.cpp:137] Memory required for data: 105771020
I0521 10:19:24.547202  4987 layer_factory.hpp:77] Creating layer conv4_2
I0521 10:19:24.547211  4987 net.cpp:84] Creating Layer conv4_2
I0521 10:19:24.547214  4987 net.cpp:406] conv4_2 <- conv4_1
I0521 10:19:24.547219  4987 net.cpp:380] conv4_2 -> conv4_2
I0521 10:19:24.551998  4987 net.cpp:122] Setting up conv4_2
I0521 10:19:24.552014  4987 net.cpp:129] Top shape: 1 512 28 28 (401408)
I0521 10:19:24.552017  4987 net.cpp:137] Memory required for data: 107376652
I0521 10:19:24.552027  4987 layer_factory.hpp:77] Creating layer relu4_2
I0521 10:19:24.552034  4987 net.cpp:84] Creating Layer relu4_2
I0521 10:19:24.552038  4987 net.cpp:406] relu4_2 <- conv4_2
I0521 10:19:24.552042  4987 net.cpp:367] relu4_2 -> conv4_2 (in-place)
I0521 10:19:24.552186  4987 net.cpp:122] Setting up relu4_2
I0521 10:19:24.552194  4987 net.cpp:129] Top shape: 1 512 28 28 (401408)
I0521 10:19:24.552197  4987 net.cpp:137] Memory required for data: 108982284
I0521 10:19:24.552201  4987 layer_factory.hpp:77] Creating layer conv4_3
I0521 10:19:24.552207  4987 net.cpp:84] Creating Layer conv4_3
I0521 10:19:24.552211  4987 net.cpp:406] conv4_3 <- conv4_2
I0521 10:19:24.552215  4987 net.cpp:380] conv4_3 -> conv4_3
I0521 10:19:24.556633  4987 net.cpp:122] Setting up conv4_3
I0521 10:19:24.556650  4987 net.cpp:129] Top shape: 1 512 28 28 (401408)
I0521 10:19:24.556653  4987 net.cpp:137] Memory required for data: 110587916
I0521 10:19:24.556659  4987 layer_factory.hpp:77] Creating layer relu4_3
I0521 10:19:24.556664  4987 net.cpp:84] Creating Layer relu4_3
I0521 10:19:24.556668  4987 net.cpp:406] relu4_3 <- conv4_3
I0521 10:19:24.556674  4987 net.cpp:367] relu4_3 -> conv4_3 (in-place)
I0521 10:19:24.556812  4987 net.cpp:122] Setting up relu4_3
I0521 10:19:24.556820  4987 net.cpp:129] Top shape: 1 512 28 28 (401408)
I0521 10:19:24.556823  4987 net.cpp:137] Memory required for data: 112193548
I0521 10:19:24.556825  4987 layer_factory.hpp:77] Creating layer pool4
I0521 10:19:24.556831  4987 net.cpp:84] Creating Layer pool4
I0521 10:19:24.556834  4987 net.cpp:406] pool4 <- conv4_3
I0521 10:19:24.556839  4987 net.cpp:380] pool4 -> pool4
I0521 10:19:24.556890  4987 net.cpp:122] Setting up pool4
I0521 10:19:24.556896  4987 net.cpp:129] Top shape: 1 512 14 14 (100352)
I0521 10:19:24.556898  4987 net.cpp:137] Memory required for data: 112594956
I0521 10:19:24.556901  4987 layer_factory.hpp:77] Creating layer conv5_1
I0521 10:19:24.556908  4987 net.cpp:84] Creating Layer conv5_1
I0521 10:19:24.556913  4987 net.cpp:406] conv5_1 <- pool4
I0521 10:19:24.556918  4987 net.cpp:380] conv5_1 -> conv5_1
I0521 10:19:24.561221  4987 net.cpp:122] Setting up conv5_1
I0521 10:19:24.561238  4987 net.cpp:129] Top shape: 1 512 14 14 (100352)
I0521 10:19:24.561240  4987 net.cpp:137] Memory required for data: 112996364
I0521 10:19:24.561246  4987 layer_factory.hpp:77] Creating layer relu5_1
I0521 10:19:24.561252  4987 net.cpp:84] Creating Layer relu5_1
I0521 10:19:24.561255  4987 net.cpp:406] relu5_1 <- conv5_1
I0521 10:19:24.561259  4987 net.cpp:367] relu5_1 -> conv5_1 (in-place)
I0521 10:19:24.561411  4987 net.cpp:122] Setting up relu5_1
I0521 10:19:24.561420  4987 net.cpp:129] Top shape: 1 512 14 14 (100352)
I0521 10:19:24.561422  4987 net.cpp:137] Memory required for data: 113397772
I0521 10:19:24.561425  4987 layer_factory.hpp:77] Creating layer conv5_2
I0521 10:19:24.561432  4987 net.cpp:84] Creating Layer conv5_2
I0521 10:19:24.561436  4987 net.cpp:406] conv5_2 <- conv5_1
I0521 10:19:24.561440  4987 net.cpp:380] conv5_2 -> conv5_2
I0521 10:19:24.565784  4987 net.cpp:122] Setting up conv5_2
I0521 10:19:24.565799  4987 net.cpp:129] Top shape: 1 512 14 14 (100352)
I0521 10:19:24.565803  4987 net.cpp:137] Memory required for data: 113799180
I0521 10:19:24.565809  4987 layer_factory.hpp:77] Creating layer relu5_2
I0521 10:19:24.565814  4987 net.cpp:84] Creating Layer relu5_2
I0521 10:19:24.565819  4987 net.cpp:406] relu5_2 <- conv5_2
I0521 10:19:24.565822  4987 net.cpp:367] relu5_2 -> conv5_2 (in-place)
I0521 10:19:24.565965  4987 net.cpp:122] Setting up relu5_2
I0521 10:19:24.565974  4987 net.cpp:129] Top shape: 1 512 14 14 (100352)
I0521 10:19:24.565976  4987 net.cpp:137] Memory required for data: 114200588
I0521 10:19:24.565979  4987 layer_factory.hpp:77] Creating layer conv5_3
I0521 10:19:24.565987  4987 net.cpp:84] Creating Layer conv5_3
I0521 10:19:24.565991  4987 net.cpp:406] conv5_3 <- conv5_2
I0521 10:19:24.565995  4987 net.cpp:380] conv5_3 -> conv5_3
I0521 10:19:24.572180  4987 net.cpp:122] Setting up conv5_3
I0521 10:19:24.572197  4987 net.cpp:129] Top shape: 1 512 14 14 (100352)
I0521 10:19:24.572201  4987 net.cpp:137] Memory required for data: 114601996
I0521 10:19:24.572206  4987 layer_factory.hpp:77] Creating layer relu5_3
I0521 10:19:24.572212  4987 net.cpp:84] Creating Layer relu5_3
I0521 10:19:24.572216  4987 net.cpp:406] relu5_3 <- conv5_3
I0521 10:19:24.572219  4987 net.cpp:367] relu5_3 -> conv5_3 (in-place)
I0521 10:19:24.572657  4987 net.cpp:122] Setting up relu5_3
I0521 10:19:24.572669  4987 net.cpp:129] Top shape: 1 512 14 14 (100352)
I0521 10:19:24.572671  4987 net.cpp:137] Memory required for data: 115003404
I0521 10:19:24.572674  4987 layer_factory.hpp:77] Creating layer conv5_3_relu5_3_0_split
I0521 10:19:24.572680  4987 net.cpp:84] Creating Layer conv5_3_relu5_3_0_split
I0521 10:19:24.572684  4987 net.cpp:406] conv5_3_relu5_3_0_split <- conv5_3
I0521 10:19:24.572687  4987 net.cpp:380] conv5_3_relu5_3_0_split -> conv5_3_relu5_3_0_split_0
I0521 10:19:24.572693  4987 net.cpp:380] conv5_3_relu5_3_0_split -> conv5_3_relu5_3_0_split_1
I0521 10:19:24.572749  4987 net.cpp:122] Setting up conv5_3_relu5_3_0_split
I0521 10:19:24.572757  4987 net.cpp:129] Top shape: 1 512 14 14 (100352)
I0521 10:19:24.572759  4987 net.cpp:129] Top shape: 1 512 14 14 (100352)
I0521 10:19:24.572762  4987 net.cpp:137] Memory required for data: 115806220
I0521 10:19:24.572764  4987 layer_factory.hpp:77] Creating layer rpn_conv/3x3
I0521 10:19:24.572777  4987 net.cpp:84] Creating Layer rpn_conv/3x3
I0521 10:19:24.572779  4987 net.cpp:406] rpn_conv/3x3 <- conv5_3_relu5_3_0_split_0
I0521 10:19:24.572785  4987 net.cpp:380] rpn_conv/3x3 -> rpn/output
I0521 10:19:24.630198  4987 net.cpp:122] Setting up rpn_conv/3x3
I0521 10:19:24.630224  4987 net.cpp:129] Top shape: 1 512 14 14 (100352)
I0521 10:19:24.630228  4987 net.cpp:137] Memory required for data: 116207628
I0521 10:19:24.630234  4987 layer_factory.hpp:77] Creating layer rpn_relu/3x3
I0521 10:19:24.630239  4987 net.cpp:84] Creating Layer rpn_relu/3x3
I0521 10:19:24.630242  4987 net.cpp:406] rpn_relu/3x3 <- rpn/output
I0521 10:19:24.630247  4987 net.cpp:367] rpn_relu/3x3 -> rpn/output (in-place)
I0521 10:19:24.632066  4987 net.cpp:122] Setting up rpn_relu/3x3
I0521 10:19:24.632081  4987 net.cpp:129] Top shape: 1 512 14 14 (100352)
I0521 10:19:24.632083  4987 net.cpp:137] Memory required for data: 116609036
I0521 10:19:24.632086  4987 layer_factory.hpp:77] Creating layer rpn/output_rpn_relu/3x3_0_split
I0521 10:19:24.632091  4987 net.cpp:84] Creating Layer rpn/output_rpn_relu/3x3_0_split
I0521 10:19:24.632093  4987 net.cpp:406] rpn/output_rpn_relu/3x3_0_split <- rpn/output
I0521 10:19:24.632098  4987 net.cpp:380] rpn/output_rpn_relu/3x3_0_split -> rpn/output_rpn_relu/3x3_0_split_0
I0521 10:19:24.632103  4987 net.cpp:380] rpn/output_rpn_relu/3x3_0_split -> rpn/output_rpn_relu/3x3_0_split_1
I0521 10:19:24.632158  4987 net.cpp:122] Setting up rpn/output_rpn_relu/3x3_0_split
I0521 10:19:24.632164  4987 net.cpp:129] Top shape: 1 512 14 14 (100352)
I0521 10:19:24.632167  4987 net.cpp:129] Top shape: 1 512 14 14 (100352)
I0521 10:19:24.632169  4987 net.cpp:137] Memory required for data: 117411852
I0521 10:19:24.632172  4987 layer_factory.hpp:77] Creating layer rpn_cls_score
I0521 10:19:24.632180  4987 net.cpp:84] Creating Layer rpn_cls_score
I0521 10:19:24.632184  4987 net.cpp:406] rpn_cls_score <- rpn/output_rpn_relu/3x3_0_split_0
I0521 10:19:24.632191  4987 net.cpp:380] rpn_cls_score -> rpn_cls_score
I0521 10:19:24.633783  4987 net.cpp:122] Setting up rpn_cls_score
I0521 10:19:24.633796  4987 net.cpp:129] Top shape: 1 24 14 14 (4704)
I0521 10:19:24.633800  4987 net.cpp:137] Memory required for data: 117430668
I0521 10:19:24.633805  4987 layer_factory.hpp:77] Creating layer rpn_bbox_pred
I0521 10:19:24.633813  4987 net.cpp:84] Creating Layer rpn_bbox_pred
I0521 10:19:24.633817  4987 net.cpp:406] rpn_bbox_pred <- rpn/output_rpn_relu/3x3_0_split_1
I0521 10:19:24.633822  4987 net.cpp:380] rpn_bbox_pred -> rpn_bbox_pred
I0521 10:19:24.635126  4987 net.cpp:122] Setting up rpn_bbox_pred
I0521 10:19:24.635138  4987 net.cpp:129] Top shape: 1 48 14 14 (9408)
I0521 10:19:24.635140  4987 net.cpp:137] Memory required for data: 117468300
I0521 10:19:24.635145  4987 layer_factory.hpp:77] Creating layer rpn_cls_score_reshape
I0521 10:19:24.635157  4987 net.cpp:84] Creating Layer rpn_cls_score_reshape
I0521 10:19:24.635160  4987 net.cpp:406] rpn_cls_score_reshape <- rpn_cls_score
I0521 10:19:24.635166  4987 net.cpp:380] rpn_cls_score_reshape -> rpn_cls_score_reshape
I0521 10:19:24.635211  4987 net.cpp:122] Setting up rpn_cls_score_reshape
I0521 10:19:24.635218  4987 net.cpp:129] Top shape: 1 2 168 14 (4704)
I0521 10:19:24.635221  4987 net.cpp:137] Memory required for data: 117487116
I0521 10:19:24.635223  4987 layer_factory.hpp:77] Creating layer rpn_cls_prob
I0521 10:19:24.635229  4987 net.cpp:84] Creating Layer rpn_cls_prob
I0521 10:19:24.635232  4987 net.cpp:406] rpn_cls_prob <- rpn_cls_score_reshape
I0521 10:19:24.635236  4987 net.cpp:380] rpn_cls_prob -> rpn_cls_prob
I0521 10:19:24.635730  4987 net.cpp:122] Setting up rpn_cls_prob
I0521 10:19:24.635743  4987 net.cpp:129] Top shape: 1 2 168 14 (4704)
I0521 10:19:24.635746  4987 net.cpp:137] Memory required for data: 117505932
I0521 10:19:24.635748  4987 layer_factory.hpp:77] Creating layer rpn_cls_prob_reshape
I0521 10:19:24.635754  4987 net.cpp:84] Creating Layer rpn_cls_prob_reshape
I0521 10:19:24.635757  4987 net.cpp:406] rpn_cls_prob_reshape <- rpn_cls_prob
I0521 10:19:24.635773  4987 net.cpp:380] rpn_cls_prob_reshape -> rpn_cls_prob_reshape
I0521 10:19:24.635804  4987 net.cpp:122] Setting up rpn_cls_prob_reshape
I0521 10:19:24.635810  4987 net.cpp:129] Top shape: 1 24 14 14 (4704)
I0521 10:19:24.635813  4987 net.cpp:137] Memory required for data: 117524748
I0521 10:19:24.635815  4987 layer_factory.hpp:77] Creating layer proposal
I0521 10:19:24.636189  4987 net.cpp:84] Creating Layer proposal
I0521 10:19:24.636199  4987 net.cpp:406] proposal <- rpn_cls_prob_reshape
I0521 10:19:24.636204  4987 net.cpp:406] proposal <- rpn_bbox_pred
I0521 10:19:24.636206  4987 net.cpp:406] proposal <- im_info
I0521 10:19:24.636210  4987 net.cpp:380] proposal -> rois
I0521 10:19:24.637209  4987 net.cpp:122] Setting up proposal
I0521 10:19:24.637223  4987 net.cpp:129] Top shape: 1 5 (5)
I0521 10:19:24.637226  4987 net.cpp:137] Memory required for data: 117524768
I0521 10:19:24.637229  4987 layer_factory.hpp:77] Creating layer roi_pool5
I0521 10:19:24.637234  4987 net.cpp:84] Creating Layer roi_pool5
I0521 10:19:24.637238  4987 net.cpp:406] roi_pool5 <- conv5_3_relu5_3_0_split_1
I0521 10:19:24.637241  4987 net.cpp:406] roi_pool5 <- rois
I0521 10:19:24.637245  4987 net.cpp:380] roi_pool5 -> pool5
I0521 10:19:24.637250  4987 roi_pooling_layer.cpp:30] Spatial scale: 0.0625
I0521 10:19:24.637303  4987 net.cpp:122] Setting up roi_pool5
I0521 10:19:24.637310  4987 net.cpp:129] Top shape: 1 512 7 7 (25088)
I0521 10:19:24.637312  4987 net.cpp:137] Memory required for data: 117625120
I0521 10:19:24.637315  4987 layer_factory.hpp:77] Creating layer fc6
I0521 10:19:24.637323  4987 net.cpp:84] Creating Layer fc6
I0521 10:19:24.637327  4987 net.cpp:406] fc6 <- pool5
I0521 10:19:24.637332  4987 net.cpp:380] fc6 -> fc6
I0521 10:19:24.798331  4987 net.cpp:122] Setting up fc6
I0521 10:19:24.798364  4987 net.cpp:129] Top shape: 1 4096 (4096)
I0521 10:19:24.798367  4987 net.cpp:137] Memory required for data: 117641504
I0521 10:19:24.798382  4987 layer_factory.hpp:77] Creating layer relu6
I0521 10:19:24.798393  4987 net.cpp:84] Creating Layer relu6
I0521 10:19:24.798395  4987 net.cpp:406] relu6 <- fc6
I0521 10:19:24.798401  4987 net.cpp:367] relu6 -> fc6 (in-place)
I0521 10:19:24.798627  4987 net.cpp:122] Setting up relu6
I0521 10:19:24.798636  4987 net.cpp:129] Top shape: 1 4096 (4096)
I0521 10:19:24.798640  4987 net.cpp:137] Memory required for data: 117657888
I0521 10:19:24.798641  4987 layer_factory.hpp:77] Creating layer fc7
I0521 10:19:24.798650  4987 net.cpp:84] Creating Layer fc7
I0521 10:19:24.798651  4987 net.cpp:406] fc7 <- fc6
I0521 10:19:24.798655  4987 net.cpp:380] fc7 -> fc7
I0521 10:19:24.826920  4987 net.cpp:122] Setting up fc7
I0521 10:19:24.826957  4987 net.cpp:129] Top shape: 1 4096 (4096)
I0521 10:19:24.826961  4987 net.cpp:137] Memory required for data: 117674272
I0521 10:19:24.826969  4987 layer_factory.hpp:77] Creating layer relu7
I0521 10:19:24.826979  4987 net.cpp:84] Creating Layer relu7
I0521 10:19:24.826985  4987 net.cpp:406] relu7 <- fc7
I0521 10:19:24.826990  4987 net.cpp:367] relu7 -> fc7 (in-place)
I0521 10:19:24.827208  4987 net.cpp:122] Setting up relu7
I0521 10:19:24.827219  4987 net.cpp:129] Top shape: 1 4096 (4096)
I0521 10:19:24.827222  4987 net.cpp:137] Memory required for data: 117690656
I0521 10:19:24.827225  4987 layer_factory.hpp:77] Creating layer fc7_relu7_0_split
I0521 10:19:24.827230  4987 net.cpp:84] Creating Layer fc7_relu7_0_split
I0521 10:19:24.827234  4987 net.cpp:406] fc7_relu7_0_split <- fc7
I0521 10:19:24.827237  4987 net.cpp:380] fc7_relu7_0_split -> fc7_relu7_0_split_0
I0521 10:19:24.827244  4987 net.cpp:380] fc7_relu7_0_split -> fc7_relu7_0_split_1
I0521 10:19:24.827292  4987 net.cpp:122] Setting up fc7_relu7_0_split
I0521 10:19:24.827298  4987 net.cpp:129] Top shape: 1 4096 (4096)
I0521 10:19:24.827301  4987 net.cpp:129] Top shape: 1 4096 (4096)
I0521 10:19:24.827303  4987 net.cpp:137] Memory required for data: 117723424
I0521 10:19:24.827306  4987 layer_factory.hpp:77] Creating layer cls_score
I0521 10:19:24.827314  4987 net.cpp:84] Creating Layer cls_score
I0521 10:19:24.827316  4987 net.cpp:406] cls_score <- fc7_relu7_0_split_0
I0521 10:19:24.827322  4987 net.cpp:380] cls_score -> cls_score
I0521 10:19:24.827641  4987 net.cpp:122] Setting up cls_score
I0521 10:19:24.827647  4987 net.cpp:129] Top shape: 1 2 (2)
I0521 10:19:24.827649  4987 net.cpp:137] Memory required for data: 117723432
I0521 10:19:24.827654  4987 layer_factory.hpp:77] Creating layer bbox_pred
I0521 10:19:24.827659  4987 net.cpp:84] Creating Layer bbox_pred
I0521 10:19:24.827662  4987 net.cpp:406] bbox_pred <- fc7_relu7_0_split_1
I0521 10:19:24.827667  4987 net.cpp:380] bbox_pred -> bbox_pred
I0521 10:19:24.828598  4987 net.cpp:122] Setting up bbox_pred
I0521 10:19:24.828605  4987 net.cpp:129] Top shape: 1 8 (8)
I0521 10:19:24.828608  4987 net.cpp:137] Memory required for data: 117723464
I0521 10:19:24.828613  4987 layer_factory.hpp:77] Creating layer cls_prob
I0521 10:19:24.828619  4987 net.cpp:84] Creating Layer cls_prob
I0521 10:19:24.828621  4987 net.cpp:406] cls_prob <- cls_score
I0521 10:19:24.828624  4987 net.cpp:380] cls_prob -> cls_prob
I0521 10:19:24.829244  4987 net.cpp:122] Setting up cls_prob
I0521 10:19:24.829257  4987 net.cpp:129] Top shape: 1 2 (2)
I0521 10:19:24.829260  4987 net.cpp:137] Memory required for data: 117723472
I0521 10:19:24.829263  4987 net.cpp:200] cls_prob does not need backward computation.
I0521 10:19:24.829267  4987 net.cpp:200] bbox_pred does not need backward computation.
I0521 10:19:24.829268  4987 net.cpp:200] cls_score does not need backward computation.
I0521 10:19:24.829270  4987 net.cpp:200] fc7_relu7_0_split does not need backward computation.
…
